to_fbx/remodiffuse_np_original_result/circle_remodiffuse_smpl_3Dparams.npz (npz, 36516 bytes, 2 tensors)

body_pose (column-major) f4 [120, 72]
0	0xbd24a03a	-0.040191866
1	0xbca3bfd5	-0.019988934
2	0x3980120b	0.00024427506
3	0x3c9cc2dd	0.019135887
4	0x3d1c5037	0.038162436
5	0x3d5bc094	0.053650454
6	0x3d8a2fb0	0.06747377
7	0x3dabaa03	0.083820365
8	0x3dcd2efc	0.10018727
9	0x3dea71f2	0.114475146
10	0x3dff6741	0.12470866
11	0x3e05376f	0.13009427
12	0x3e05c56a	0.13063589
13	0x3e019ab2	0.12656668
14	0x3dfbf65a	0.12302847
15	0x3e03fe63	0.1289001
16	0x3e1332e7	0.14374886
17	0x3e21544a	0.1575481
18	0x3e2ec8dd	0.17068811
19	0x3e443ab3	0.19163017
20	0x3e5c30fd	0.21503063
21	0x3e626506	0.2210885
22	0x3e5130d6	0.20428786
23	0x3e36643d	0.17811675
24	0x3e28871a	0.16457787
25	0x3e2f1e10	0.17101312
26	0x3e40930a	0.18806091
27	0x3e47b6c3	0.19503312
28	0x3e35f6ea	0.17769971
29	0x3e20fc84	0.15721327
30	0x3e23c35d	0.15992494
31	0x3e37a179	0.1793269
32	0x3e464cf2	0.1936529
33	0x3e49b84a	0.19699207
34	0x3e48223d	0.19544311
35	0x3e4cef82	0.2001324
36	0x3e55cf0b	0.20879762
37	0x3e595658	0.21224344
38	0x3e5b5a79	0.21421231
39	0x3e5558b2	0.20834616
40	0x3e3e7a5a	0.18601361
41	0x3e1a17f1	0.15048195
42	0x3de87009	0.11349494
43	0x3db4b3af	0.088233344
44	0x3da487b0	0.08033693
45	0x3db7dba5	0.08977441
46	0x3de27180	0.11056805
47	0x3e020161	0.12695839
48	0x3e0a1d08	0.13487637
49	0x3e0f0de9	0.1397015
50	0x3e091ac4	0.13389117
51	0x3dedebfa	0.116172746
52	0x3dccbced	0.09996972
53	0x3dbc35f1	0.09189976
54	0x3db6fb6a	0.08934672
55	0x3da959e3	0.08269098
56	0x3d8d9aad	0.06914268
57	0x3d727f27	0.059203293
58	0x3d8c4d85	0.06850723
59	0x3db2ea1b	0.08736058
60	0x3dc22fef	0.09481799
61	0x3dbec5be	0.0931506
62	0x3dc5d4b0	0.096597075
63	0x3e005ace	0.12534639
64	0x3e0b1710	0.13583016
65	0x3e14068d	0.14455624
66	0x3e127420	0.1430211
67	0x3df8f430	0.1215595
68	0x3dabc33f	0.083868496
69	0x3d399213	0.045305323
70	0x3c884d81	0.01663852
71	0xbbca9613	-0.006182441
72	0xbcde77ec	-0.027156793
73	0xbd208200	-0.039186478
74	0xbd595c97	-0.053066816
75	0xbd881c54	-0.06646028
76	0xbd850a53	-0.0649611
77	0xbd5d9079	-0.054092858
78	0xbd34c973	-0.04413743
79	0xbd5341ac	-0.0515763
80	0xbd6f9be2	-0.05849827
81	0xbd847b80	-0.06468868
82	0xbd88adc1	-0.06673766
83	0xbda4b274	-0.0804185
84	0xbdaee5da	-0.085399345
85	0xbdb95bff	-0.0905075
86	0xbdc59637	-0.09647792
87	0xbdcebddc	-0.100948066
88	0xbdd0bc8b	-0.10192212
89	0xbdd1fbee	-0.1025313
90	0xbdd9d482	-0.10636236
91	0xbdd4c811	-0.10389722
92	0xbde13a11	-0.109974034
93	0xbde76a2e	-0.11299549
94	0xbde939e3	-0.11387994
95	0xbde4d292	-0.111729756
96	0xbddbb1ce	-0.10727273
97	0xbde54349	-0.11194474
98	0xbe0caf82	-0.13738826
99	0xbe34df44	-0.17663294
100	0xbe5ad97f	-0.2137203
101	0xbe5c7284	-0.21528059
102	0xbe4865b1	-0.19570042
103	0xbe2491c6	-0.16071233
104	0xbe0831d1	-0.13300253
105	0xbdd55e50	-0.10418379
106	0xbdcb091a	-0.09913845
107	0xbdd24e8a	-0.102688864
108	0xbdede949	-0.11616761
109	0xbe0e4ed8	-0.13897264
110	0xbe27026a	-0.16309515
111	0xbe33d883	-0.17563061
112	0xbe2c758a	-0.16841713
113	0xbe119bec	-0.14219636
114	0xbdf26450	-0.11835539
115	0xbdd7da79	-0.10539717
116	0xbdd18906	-0.10231213
117	0xbdc4637f	-0.0958929
118	0xbd9ee50a	-0.077585295
119	0xbd69d1b2	-0.057084747
120	0xbd6d127d	-0.05787896
121	0xbd9a7b4c	-0.07543048
122	0xbde746f1	-0.11292828
123	0xbe17189e	-0.14755484
124	0xbe33445f	-0.1750655
125	0xbe607d46	-0.21922788
126	0xbe95e9ca	-0.2927993
127	0xbec3acd3	-0.38217792
128	0xbee982f6	-0.45607728
129	0xbf02e6f6	-0.5113367
130	0xbf118c3a	-0.56854594
131	0xbf21e216	-0.63235605
132	0xbf2e73fd	-0.68145734
133	0xbf33e893	-0.70276755
134	0xbf3c8fbc	-0.7365682
135	0xbf4d15e1	-0.8011151
136	0xbf57b1ab	-0.84255475
137	0xbf562674	-0.83652425
138	0xbf4fee19	-0.81222683
139	0xbf4a9ad4	-0.791425
140	0xbf45f7c5	-0.7733119
141	0xbf430bed	-0.7619007
142	0xbf45ce0b	-0.7726752
143	0xbf4b8fd0	-0.79516315
144	0xbf4c2144	-0.7973826
145	0xbf486ca5	-0.7829078
146	0xbf44b2e4	-0.76835465
147	0xbf3dfa89	-0.7421041
148	0xbf336bec	-0.7008655
149	0xbf224238	-0.6338229
150	0xbf040b21	-0.5157948
151	0xbeb35be2	-0.3503104
152	0xbe39d862	-0.1814895
153	0xbcf5a240	-0.029984593
154	0x3dce115b	0.10061904
155	0x3e409533	0.18806915
156	0x3e7543c1	0.23951627
157	0x3e90ba2e	0.28267044
158	0x3eacb70c	0.33733404
159	0x3ecb743e	0.39737123
160	0x3edef28d	0.43544427
161	0x3edc79fb	0.43061814
162	0x3ecc9379	0.39956263
163	0x3ec76625	0.38945118
164	0x3edc3379	0.4300802
165	0x3f021b1d	0.5082262
166	0x3f1554d5	0.5833257
167	0x3f1f67e3	0.62267894
168	0x3f234866	0.63782346
169	0x3f25009c	0.64454055
170	0x3f1ee708	0.62071276
171	0x3f13c79b	0.5772645
172	0x3f0aab1f	0.5416736
173	0x3f00c849	0.5030561
174	0x3ee6220d	0.44947854
175	0x3ec92bf3	0.39291343
176	0x3eaaea18	0.33381724
177	0x3e905d87	0.28196356
178	0x3e8ab316	0.27089757
179	0x3e959b08	0.29219842
180	0x3ea1bf1a	0.3159111
181	0x3ea41e0e	0.3205418
182	0x3e9e47f1	0.30914262
183	0x3eac7f85	0.3369104
184	0x3ebcd395	0.36880174
185	0x3ee816b9	0.45329836
186	0x3f0f9177	0.56081337
187	0x3f220452	0.6328784
188	0x3f26d3be	0.6516684
189	0x3f243867	0.64148563
190	0x3f253463	0.6453306
191	0x3f31a542	0.6939279
192	0x3f388515	0.7207807
193	0x3f4cd382	0.80010235
194	0x3f611ee1	0.8793774
195	0x3f6f78b2	0.9354354
196	0x3f76da19	0.9642654
197	0x3f7a0256	0.97659814
198	0x3f7f6ab1	0.99772173
199	0x3f79253c	0.9732244
200	0x3f74a18c	0.95559
201	0x3f6f4b00	0.93473816
202	0x3f644b4a	0.8917738
203	0x3f4e7576	0.8064798
204	0x3f421942	0.7581979
205	0x3f38fed7	0.72263855
206	0x3f361f40	0.71141434
207	0x3f38ba52	0.721593
208	0x3f348b28	0.70524836
209	0x3f28a496	0.6587614
210	0x3f22f692	0.63657486
211	0x3f2ad06e	0.6672429
212	0x3f1eaa8f	0.61979
213	0x3f122cb6	0.57099473
214	0x3f0b0a3f	0.5431251
215	0x3f05db08	0.5228734
216	0x3efca4a7	0.4934437
217	0x3ee3e68c	0.4451183
218	0x3ec6e405	0.3884584
219	0x3eb34aea	0.35018092
220	0x3e9dde7a	0.308338
221	0x3ea65378	0.32485557
222	0x3ea50ae5	0.32234874
223	0x3e950cf5	0.29111448
224	0x3e7a6c20	0.24455309
225	0x3e6f819a	0.23389283
226	0x3e80388e	0.25043148
227	0x3e914845	0.2837545
228	0x3e994bcb	0.29940638
229	0x3e992d9b	0.29917607
230	0x3e93075a	0.28716546
231	0x3e85905c	0.260867
232	0x3e66ba06	0.225319
233	0x3e25914b	0.16168706
234	0x3d8b75a6	0.06809549
235	0xbc611182	-0.013737084
236	0xbd368a17	-0.044565286
237	0xbd37e818	-0.044899076
238	0xbd5af8c2	-0.05345989
239	0xbd861641	-0.06547213
240	0xbc6c045a	-0.014405334
241	0x3c2a5c81	0.010398031
242	0x3caf2c6d	0.021383489
243	0x3c9e3caa	0.019316036
244	0x3c8841dc	0.016632967
245	0x3c9959b3	0.01871953
246	0x3c8b90d1	0.017036827
247	0x3b834fe7	0.004007328
248	0xbc563e8d	-0.013076437
249	0xbcd664d1	-0.02617112
250	0xbd0de055	-0.034637768
251	0xbd1fc2b3	-0.03900404
252	0xbd2678c8	-0.04064253
253	0xbd2ae9dd	-0.041726936
254	0xbd30e0c9	-0.04318312
255	0xbd357728	-0.04430309

transl (column-major) f4 [120, 3]
0	0x3c561fc3	0.013069096
1	0x3d061725	0.032736916
2	0x3d7bd071	0.061478082
3	0x3dc1a3c9	0.09455068
4	0x3e034042	0.12817481
5	0x3e23e87a	0.16006652
6	0x3e40a3b7	0.18812452
7	0x3e57b299	0.21064223
8	0x3e689bfd	0.22715755
9	0x3e73b2e2	0.23798707
10	0x3e78c9fa	0.24295798
11	0x3e774a77	0.241495
12	0x3e6f1086	0.23346147
13	0x3e60b5e7	0.2194439
14	0x3e4d3845	0.20040996
15	0x3e354a2f	0.1770408
16	0x3e198380	0.1499157
17	0x3df591e1	0.11990715
18	0x3db3f092	0.087861195
19	0x3d6222a3	0.055208813
20	0x3cc7a4f1	0.024370642
21	0xbb5bf4c8	-0.003356265
22	0xbcf3afc1	-0.029746892
23	0xbd6bb97f	-0.05754995
24	0xbdb3fee0	-0.08788848
25	0xbdf6d8da	-0.1205308
26	0xbe1e512c	-0.15460652
27	0xbe416461	-0.18885948
28	0xbe63e137	-0.22253881
29	0xbe82fac1	-0.25581935
30	0xbe93db66	-0.28878325
31	0xbea41434	-0.32046664
32	0xbeb31550	-0.34977198
33	0xbec0cfb6	-0.3765847
34	0xbecd2480	-0.4006691
35	0xbed78e53	-0.42100772
36	0xbedfc1dd	-0.43702593
37	0xbee5f89e	-0.44916242
38	0xbeea79d3	-0.4579607
39	0xbeed6da3	-0.4637271
40	0xbeeef411	-0.46670583
41	0xbeeef4d3	-0.4667116
42	0xbeed4bd0	-0.46346903
43	0xbeea025c	-0.45704925
44	0xbee573ce	-0.44814914
45	0xbedff8ae	-0.43744415
46	0xbed99823	-0.42498884
47	0xbed2791c	-0.41108024
48	0xbecac65c	-0.3960446
49	0xbec29411	-0.3800359
50	0xbeba7aa3	-0.3642169
51	0xbeb2f87f	-0.34955212
52	0xbeab9d1b	-0.335183
53	0xbea39813	-0.3195196
54	0xbe9a769b	-0.30168614
55	0xbe9004fa	-0.28128797
56	0xbe83e96a	-0.25764018
57	0xbe6bb732	-0.23019102
58	0xbe4bcdc5	-0.19902714
59	0xbe283bf0	-0.16429114
60	0xbe00908e	-0.12555143
61	0xbda88267	-0.08227997
62	0xbd0f1699	-0.03493366
63	0x3c7d5c14	0.015463848
64	0x3d8c4a89	0.06850154
65	0x3dfc9dbe	0.123347744
66	0x3e361f8d	0.17785473
67	0x3e6c3788	0.23068058
68	0x3e90a77e	0.28252786
69	0x3eab4869	0.33453682
70	0x3ec6121e	0.38685697
71	0x3ee0d531	0.43912652
72	0x3efbf799	0.4921234
73	0x3f0c3e9a	0.5478302
74	0x3f1b86f1	0.6075278
75	0x3f2b91da	0.67019427
76	0x3f3b96bb	0.7327687
77	0x3f4acf43	0.79222506
78	0x3f58b9ab	0.84658307
79	0x3f6546eb	0.8956134
80	0x3f710581	0.94149023
81	0x3f7c9179	0.98659474
82	0x3f842da5	1.032643
83	0x3f8a84f4	1.0821824
84	0x3f919875	1.1374651
85	0x3f9977ce	1.1989686
86	0x3fa206d4	1.2658334
87	0x3faaff57	1.3359174
88	0x3fb3f55a	1.405925
89	0x3fbc79c6	1.4724662
90	0x3fc426ee	1.532438
91	0x3fcaaf7c	1.5834804
92	0x3fd0062e	1.6251886
93	0x3fd4582e	1.658941
94	0x3fd7f1bb	1.6870645
95	0x3fdb25ea	1.7120945
96	0x3fde1c40	1.7352371
97	0x3fe0c2e2	1.7559474
98	0x3fe2f98d	1.7732407
99	0x3fe4b7ce	1.7868593
100	0x3fe61b6b	1.7977117
101	0x3fe7319c	1.8062015
102	0x3fe7d4f5	1.8111864
103	0x3fe7ebe2	1.8118861
104	0x3fe77c7d	1.8084866
105	0x3fe68b85	1.8011328
106	0x3fe5296e	1.7903268
107	0x3fe38d77	1.7777547
108	0x3fe1f12f	1.7651728
109	0x3fe058dd	1.7527119
110	0x3fde83e1	1.7383996
111	0x3fdc1a42	1.7195513
112	0x3fd8fa04	1.6951299
113	0x3fd52c0e	1.665407
114	0x3fd0be5f	1.6308097
115	0x3fcbc7a5	1.5920302
116	0x3fc6727a	1.5503685
117	0x3fc11a2a	1.508611
118	0x3fbc61bc	1.4717326
119	0x3fb90ac1	1.4456407
120	0x3f7eb236	0.9949068
121	0x3f7cc3fc	0.9873655
122	0x3f7ae853	0.9801075
123	0x3f793e77	0.9736094
124	0x3f777809	0.96667534
125	0x3f7600ed	0.9609516
126	0x3f7560f4	0.95851064
127	0x3f75f46c	0.96076083
128	0x3f77edfd	0.96847516
129	0x3f7a999a	0.9789063
130	0x3f7d065b	0.9883782
131	0x3f7e6b44	0.99382424
132	0x3f7de9d6	0.9918493
133	0x3f7bcb56	0.9835714
134	0x3f79824f	0.9746446
135	0x3f77f855	0.968633
136	0x3f76ff38	0.9648318
137	0x3f766d5a	0.9626061
138	0x3f76a1f3	0.96340865
139	0x3f774503	0.9658968
140	0x3f76a22c	0.96341205
141	0x3f739f28	0.9516473
142	0x3f6eb5d8	0.9324622
143	0x3f697bca	0.9120451
144	0x3f66f620	0.90219307
145	0x3f6847c9	0.90734535
146	0x3f6b1718	0.91832113
147	0x3f6ca76a	0.92442954
148	0x3f6bf7db	0.9217507
149	0x3f69d9d3	0.91348
150	0x3f6789ca	0.90444624
151	0x3f668840	0.9005165
152	0x3f692fbc	0.9108846
153	0x3f702e9c	0.9382112
154	0x3f7700d8	0.9648566
155	0x3f780237	0.9687838
156	0x3f746c9d	0.9547823
157	0x3f70b48c	0.9402549
158	0x3f6df0d2	0.9294559
159	0x3f6c2fc6	0.92260396
160	0x3f6c5853	0.9232227
161	0x3f6ee81e	0.9332293
162	0x3f72c861	0.94837004
163	0x3f761f59	0.9614158
164	0x3f77e588	0.9683461
165	0x3f7891a4	0.9709723
166	0x3f78f956	0.97255456
167	0x3f7a63c3	0.97808474
168	0x3f7dd0e0	0.9914684
169	0x3f800afb	1.0003351
170	0x3f7e1832	0.9925567
171	0x3f794fb2	0.9738723
172	0x3f7368a1	0.95081526
173	0x3f6e459a	0.93074954
174	0x3f6ca777	0.9244303
175	0x3f6d892e	0.92787445
176	0x3f6b2dd6	0.91866815
177	0x3f635501	0.8880158
178	0x3f5bf3b5	0.8591874
179	0x3f59d8da	0.85096514
180	0x3f5bb8e2	0.85828984
181	0x3f5e5c3f	0.86859506
182	0x3f5f317a	0.8718487
183	0x3f5e4cab	0.86835736
184	0x3f5e0285	0.86722594
185	0x3f5e39c0	0.8680687
186	0x3f5e11f3	0.8674614
187	0x3f5f81ad	0.87307245
188	0x3f64343b	0.891422
189	0x3f6bd54f	0.9212236
190	0x3f74e946	0.95668447
191	0x3f7c3367	0.98515934
192	0x3f7f115d	0.9963587
193	0x3f7ed874	0.9954903
194	0x3f7e1a27	0.99258655
195	0x3f7cc860	0.9874325
196	0x3f79213e	0.9731635
197	0x3f726521	0.9468556
198	0x3f6a73fb	0.9158322
199	0x3f64e78b	0.89415807
200	0x3f635b6e	0.88811386
201	0x3f659744	0.8968394
202	0x3f6b2a50	0.9186144
203	0x3f71d126	0.9445976
204	0x3f76a1f1	0.9634085
205	0x3f78c3bf	0.97173685
206	0x3f7834d5	0.96955615
207	0x3f757d44	0.95894265
208	0x3f72d9d6	0.9486364
209	0x3f727b55	0.9471944
210	0x3f74bf33	0.95604247
211	0x3f783b14	0.96965146
212	0x3f7b042f	0.9805326
213	0x3f7c9661	0.9866696
214	0x3f7db519	0.9910446
215	0x3f7e0295	0.9922269
216	0x3f7c9bd1	0.98675257
217	0x3f79fa55	0.976476
218	0x3f76a86c	0.9635074
219	0x3f72ecee	0.94892776
220	0x3f6fa112	0.9360515
221	0x3f6dc49f	0.92878145
222	0x3f6da4d5	0.9282964
223	0x3f6f5f96	0.9350523
224	0x3f73198c	0.94960856
225	0x3f76da53	0.96426886
226	0x3f77b501	0.96760565
227	0x3f75f15e	0.9607142
228	0x3f73db70	0.9525671
229	0x3f7364b2	0.95075524
230	0x3f74b847	0.95593685
231	0x3f7577c7	0.9588589
232	0x3f75a663	0.9595701
233	0x3f77ccd1	0.967969
234	0x3f7b8f3e	0.98265445
235	0x3f7ed5bc	0.9954488
236	0x3f80a575	1.0050493
237	0x3f821306	1.0162055
238	0x3f83f37f	1.0308684
239	0x3f859864	1.0437131
240	0xbc5bd786	-0.013418084
241	0xbcfe4bad	-0.031041944
242	0xbd62718b	-0.055284064
243	0xbdad3481	-0.0845728
244	0xbdf4d629	-0.1195491
245	0xbe239036	-0.15972981
246	0xbe4e526a	-0.20148626
247	0xbe76f8e7	-0.24118386
248	0xbe8e296b	-0.27765974
249	0xbe9efa37	-0.31050274
250	0xbead8624	-0.33891404
251	0xbeb9c065	-0.36279598
252	0xbec41750	-0.38299036
253	0xbecd36bb	-0.4008082
254	0xbed601b5	-0.41798177
255	0xbedf779a	-0.43645936
