to_fbx/remodiffuse_np_original_result/circle_remodiffuse_smpl_3Dparams.npz (npz, 36516 bytes, 2 tensors)

body_pose (column-major) f4 [120, 72]
00000000: 6a68 84bd 0090 733c 7ca6 1cbc 411f 8a3c
00000010: 0b66 3e3d 6c15 943d ee93 223d 3b8a f83d
00000020: 3652 933d 2361 0a3e 1b91 e33d 9039 133e
00000030: dc8c 0b3e b202 f93d 19b5 023e 47ee c53d
00000040: 92ff 1d3e 29f1 313e a1d3 133e 6e08 363e
00000050: 55c7 7d3e 2a67 733e 77f2 663e fcbb d73d
00000060: 13ae 333e ff1d 253e c3f9 273e 6671 8f3e
00000070: 1991 3d3e db37 023e ce63 ff3d a385 803e
00000080: ae20 403e 2347 8a3e f77b 213e 3c63 433e
00000090: da4f 8b3e 0a83 4b3e 74d4 833e 8c9e 513e
000000a0: 188e 623e 4997 fe3d 85ad ef3d 7898 9c3d
000000b0: d618 4b3d 376a d23d ab2e de3d c967 463e
000000c0: b811 ac3d 7af9 263e 268d 113e 6f70 e83d
000000d0: b929 943d 1704 e53d 5710 893d 0f6c 083e
000000e0: 63a1 1c3d 072c 293d fe9e 243d a737 0c3e
000000f0: 42d9 cb3d a994 ac3d 5bb6 9b3d ef85 0f3e
00000100: cd50 b43d c494 243e 802c 303e 65e1 183e
00000110: 2e5d ba3d b2a3 0f3d 0f53 9f3c fb39 a7bb
00000120: 5735 44bd 8eb1 7ebd b443 1f3c 9a9c 10be
00000130: 7715 95bd 033b 3abc d197 69bd 0391 37bd
00000140: c802 cabd 23f3 8cbd 9782 a9bd 447b c4bd
00000150: 8744 aabd a808 b1bd 0a9c b2bd 64f9 eebd
00000160: eb1a b4bd 2ba1 b5bd a8fd c9bd fde5 febd
00000170: 682b dbbd 891e e5bd a475 f3bd 8200 d6bd
00000180: 5565 ebbd 0fad 5bbd e098 0cbe 474a 30be
00000190: 6b03 84be 42bb 84be 2aad 31be e4ed 41be
000001a0: 3d0e 29be 8c8f acbd c060 4ebd 68e9 0abe
000001b0: f956 b0bd 3ecd 09be ac3c 45be 2d20 39be
000001c0: bbda 4ebe a226 38be 2c47 b1bd eab2 9ebd
000001d0: 0916 e8bd bd7d 03be d511 a4bd de68 20bd
000001e0: e749 7dbd fa25 3dbd 652d e5bd de07 77be
000001f0: 3dfa ebbd 2adf 71be 8802 40be fe84 f0be
00000200: 066e fcbe b3fb e4be cee6 1abf 4de0 0bbf
00000210: 4d72 52bf 5b13 31bf f6d2 08bf 4dae 76bf
00000220: ef57 59bf 9d1d 59bf 9415 4dbf 0886 47bf
00000230: ca48 4fbf 528b 40bf 6268 3bbf 336f 68bf
00000240: 4fe5 54bf fe66 2abf d590 64bf eb14 32bf
00000250: edf6 2ebf 9e2c 32bf dec2 13bf 3515 b4be
00000260: fb7f 39be bd0d 9abd de45 923e 6da6 fa3d
00000270: a059 913e b1c4 783e c9c8 ca3e c33e c43e
00000280: d8d3 073f aac8 ee3e 7afe b43e a656 b13e
00000290: fa6c da3e 433f dd3e 2273 313f e476 273f
000002a0: 82a2 093f 7a55 343f 681d 323f 45e4 d33e
000002b0: 1757 1c3f bec5 053f 3c16 d93e 1b9f a63e
000002c0: 9d55 de3e f6a4 fc3d 36f7 973e 623e 8b3e
000002d0: c994 aa3e f46f db3e 7ab7 7b3e 94cd b43e
000002e0: 3d00 753e 275a d73e a7f1 1a3f 8166 323f
000002f0: f5c2 3a3f 6f52 123f de2b 0d3f 2e5f 253f
00000300: 81e2 483f 5f5d 403f 6f03 7f3f 3a88 623f
00000310: 39b8 7a3f 0b0f 803f 9fa7 843f 0d03 5e3f
00000320: e6bd 6f3f e512 733f 5d12 5d3f e3dd 4c3f
00000330: ce44 3d3f 64c7 403f 9521 163f 1db4 463f
00000340: d857 643f 0b0c 043f 75a4 143f 1d78 573f
00000350: 5d9c fd3e c9e2 f63e ff42 163f 7015 e93e
00000360: 6f65 103f 3cf2 ef3e 87db b23e 0b29 ab3e
00000370: d405 713e d546 9f3e 2ae3 0d3f 20df 143e
00000380: a33a 6d3e 9ccb 583e 37eb 443e fe6b c43e
00000390: dba0 913e a498 8a3e 6108 c33e 5c27 333e
000003a0: 7fd1 803e 3a9b 813e 5061 ab3d 1da6 33be
000003b0: b7c6 5ebd 98db 0a3d 98af adbd 9408 8fbd
000003c0: befc 4cbd 490f 623d 2b6f e13c 2aec c43c
000003d0: 16b7 333b b385 863c 1e5c 513d f16e 3cbb
000003e0: 10f5 d6bc 2a9e 6cbc 3eee edbc 051b 51bd
000003f0: 927b 94bc b412 52bd 8f22 d8bc 62be 1abd
-0.06465228 0.014865875 -0.009561177 0.016860606 0.046484035 0.072306484 0.039691858 0.1213574
0.07193415 0.13513617 0.11111661 0.14377427 0.13627952 0.12158717 0.12764396 0.096645884
0.15429524 0.17377152 0.14436199 0.17776653 0.2478307 0.23769823 0.2255343 0.10533902
0.17546873 0.16124724 0.1640387 0.28016204 0.18512382 0.1271662 0.12470208 0.25101957
0.18762466 0.27007398 0.15769945 0.19080824 0.2720936 0.19874206 0.25748026 0.20470637
0.22124517 0.12431199 0.11703018 0.076462686 0.049584232 0.10274165 0.10848745 0.19375528
0.08401817 0.16306105 0.14214 0.1134957 0.072345205 0.11182421 0.0669257 0.13322471
0.038239848 0.041301753 0.04019069 0.13693105 0.09953548 0.08426792 0.07603141 0.14015935
0.08804474 0.16072375 0.17204475 0.14929731 0.09099804 0.03506822 0.019448785 -0.0051033474
-0.04790243 -0.062181048 0.0097207315 -0.14122239 -0.07279485 -0.011366609 -0.05702955 -0.04481603
-0.09863812 -0.06882312 -0.08276861 -0.095938236 -0.08313852 -0.08644229 -0.08721168 -0.11668661
-0.08794197 -0.08868631 -0.09862834 -0.124462105 -0.107016385 -0.11187465 -0.118876725 -0.104493156
-0.11493937 -0.05363184 -0.13730192 -0.17215835 -0.25783858 -0.25924116 -0.17351213 -0.18938404
-0.16509338 -0.08425817 -0.050385237 -0.135656 -0.08610339 -0.134572 -0.19261426 -0.1807868
-0.20200627 -0.17983487 -0.08656153 -0.07748969 -0.11332328 -0.12840934 -0.08011214 -0.03916251
-0.061838057 -0.046178795 -0.11190299 -0.24124095 -0.115223385 -0.23620287 -0.18750966 -0.46976465
-0.4930269 -0.4472328 -0.6050843 -0.5463913 -0.8220566 -0.6917016 -0.534469 -0.9635971
-0.848998 -0.8481081 -0.8011105 -0.7793889 -0.8097044 -0.75212586 -0.7320615 -0.90794677
-0.831624 -0.66563404 -0.89283496 -0.6956317 -0.6834553 -0.6959933 -0.5771922 -0.3517243
-0.18115227 -0.075221516 0.2856893 0.122387744 0.2838869 0.24293782 0.39606312 0.38329133
0.5305762 0.4663747 0.353504 0.3463642 0.42661268 0.43212327 0.69316304 0.6541579
0.5376359 0.70442927 0.6957612 0.41385093 0.6107039 0.52254856 0.42399776 0.32543263
0.43424693 0.12336151 0.29680794 0.27196032 0.3331664 0.4285885 0.2458171 0.35313094
0.23925872 0.42060968 0.6052498 0.6968766 0.7295373 0.57157034 0.5514506 0.6459836
0.7847062 0.75142473 0.99614614 0.88489115 0.9793735 1.0004591 1.0363654 0.86723405
0.9364914 0.94950706 0.86356145 0.8002607 0.7393311 0.75304246 0.5864499 0.7761858
0.8919654 0.51580876 0.5806344 0.84167653 0.49533358 0.48219898 0.5869598 0.45524168
0.56404775 0.46864498 0.3493311 0.3342975 0.2353738 0.31108728 0.5542475 0.1453824
0.231669 0.21171421 0.19230352 0.38363642 0.28443035 0.2706958 0.3809233 0.17495483
0.25159833 0.2531374 0.0836817 -0.17543836 -0.054388728 0.033900827 -0.084807575 -0.06984058
-0.05004572 0.05519036 0.02751883 0.024038393 0.002742236 0.016421175 0.05111324 -0.002875265
-0.026239902 -0.014442006 -0.029044267 -0.05105116 -0.01812533 -0.051287368 -0.026383666 -0.03777922

transl (column-major) f4 [120, 3]
00000000: 0000 0000 c77e ad3c 9693 7f3d 6c34 be3d
00000010: 1674 053e 8582 263e 1eb1 463e 6bc8 5d3e
00000020: 1656 6c3e 739e 783e 28f3 7e3e fd07 7d3e
00000030: 49d6 743e facf 643e 79d5 4f3e 82bd 3a3e
00000040: abe3 193e c8dc fb3d 3648 b53d e13d 613d
00000050: e43b 8d3c 3189 83bb 4cf3 dabc 002b 62bd
00000060: ad65 b0bd 7f6e f2bd 58b1 1ebe 78de 42be
00000070: 76f4 63be 10dc 82be 24b5 93be c686 a6be
00000080: 668b b3be 1088 c1be 9620 cfbe b9be d9be
00000090: 44b7 e1be 325a e6be 9251 edbe 9ed9 ecbe
000000a0: 709d f1be 9d65 efbe c979 efbe 7429 ebbe
000000b0: 5069 e5be 901f e1be e5f8 dabe b524 d1be
000000c0: 2e42 cdbe e4dd c1be 821b b9be 7cdf b2be
000000d0: 596b acbe a5fb a4be 14f7 9abe 0a98 91be
000000e0: 1df2 85be 35b3 6ebe 5ea1 4ebe 3514 2bbe
000000f0: af66 05be 0be4 b1bd e630 13bd 7a0b 5e3c
00000100: 8f64 833d 28ec ff3d 29c5 393e f932 6c3e
00000110: 6e8b 903e 7784 aa3e 17a3 c63e 386a e13e
00000120: 52e3 f93e a978 0b3f 1f0b 1a3f 9408 2c3f
00000130: 8075 3c3f 218e 4b3f 90f4 5a3f 2bb9 653f
00000140: e977 703f 9e57 7d3f a09c 833f 89b5 893f
00000150: 42f3 903f a3d1 983f 8681 a13f 3f14 ab3f
00000160: ff6a b43f 1501 bd3f 2478 c53f 66b6 cb3f
00000170: c9e7 d03f 8b0b d53f 7638 d83f eb03 db3f
00000180: 64a0 de3f cbeb e03f f2a9 e33f c50a e53f
00000190: aae7 e53f 7ae5 e73f 7050 e83f 6750 e83f
000001a0: 5dde e73f 161b e73f f569 e53f 4d42 e33f
000001b0: 0f0e e23f d712 e03f e68f df3f c79f dc3f
000001c0: a174 d93f 86e6 d53f bbfd d03f 2262 cc3f
000001d0: a36a c63f 56dd c03f e21c bb3f 28ab b63f
000001e0: ae48 803f ac14 7c3f fcd8 783f 305b 7c3f
000001f0: 61a5 753f f000 753f 31ee 753f f897 723f
00000200: 1f6a 773f 08c9 7c3f dbc8 7a3f 5871 813f
00000210: 015a 7f3f e1ba 7b3f d1a9 773f a19d 773f
00000220: 1de8 773f dfc7 743f 7ce0 753f 661d 763f
00000230: 7865 7f3f 2b8d 6d3f 66bc 773f b87a 623f
00000240: 545e 603f 0afd 693f 7146 6a3f e36f 723f
00000250: f538 6b3f 681f 6a3f 43f8 673f 19fb 623f
00000260: b14a 633f b575 693f 1954 833f 688d 7f3f
00000270: 4fdc 683f 6b85 783f 688d 673f 7498 6f3f
00000280: 45b0 643f 29b9 703f 0f7c 713f 5e82 793f
00000290: ed34 7a3f baaf 733f 8a88 803f 2e3f 6f3f
000002a0: 6666 7c3f f4c4 883f ee25 753f 62d5 7e3f
000002b0: 5b57 753f a631 663f b880 6a3f c21d 693f
000002c0: 814b 823f 104c 563f b9b6 563f 62d6 553f
000002d0: 160d 5d3f 8880 5c3f b93a 6a3f c255 553f
000002e0: b1da 5c3f 2be9 653f 2c16 583f 1431 5c3f
000002f0: a6c1 623f 7432 693f 125c 733f bebd 833f
00000300: a399 7f3f 8653 7e3f ff93 7b3f a17b 813f
00000310: b74b 783f 72e9 7a3f f5dc 613f 887b 613f
00000320: dbc8 623f 93f6 5f3f 9415 683f 745d 783f
00000330: f061 773f 485f 793f 30bc 7e3f f393 723f
00000340: c264 713f 1156 6e3f 9109 743f b9ad 783f
00000350: a0fa 7e3f 0703 7b3f 5ea0 7b3f 15aa 823f
00000360: b933 793f 179a 7c3f 4f62 763f f78f 733f
00000370: b964 6d3f 7091 6b3f ddde 6d3f 60cd 6c3f
00000380: 40f4 6d3f e742 803f c2c5 793f c618 723f
00000390: 847a 793f 0fa3 663f 680b 7c3f 5825 7a3f
000003a0: e18a 6c3f a9ab 773f 6aef 7d3f d218 7f3f
000003b0: 0166 813f e6e4 7e3f 3345 853f e5c1 863f
000003c0: 0000 0000 4003 e5bc 9e71 5abd 8808 a2bd
000003d0: 3136 e4bd b493 22be 0199 53be 51e3 78be
000003e0: e528 8fbe ce8e a1be 39c3 afbe 2c06 bbbe
000003f0: d7b7 c5be 8714 cdbe 57df d5be 6f8f ddbe
0.0 0.021178616 0.06239661 0.092873424 0.13032565 0.16260727 0.19403502 0.21658485
0.23079714 0.24279194 0.24897444 0.24710079 0.23909868 0.22344962 0.20296277 0.18236354
0.15028255 0.1229797 0.08851664 0.054990653 0.017240472 -0.004014157 -0.026727341 -0.05521679
-0.08613143 -0.11837482 -0.15497339 -0.19030178 -0.22261223 -0.2555852 -0.28849137 -0.325247
-0.3506729 -0.3779912 -0.4045455 -0.42528322 -0.44085133 -0.4499069 -0.46351296 -0.4625978
-0.47190428 -0.46757212 -0.46772602 -0.45930064 -0.4480691 -0.43969393 -0.42768016 -0.40848318
-0.40089554 -0.37864602 -0.361538 -0.3493613 -0.3367565 -0.3222324 -0.3026663 -0.2843631
-0.2616128 -0.2331055 -0.20178744 -0.16706927 -0.13027452 -0.08686074 -0.035935305 0.013552541
0.064156644 0.12496215 0.18141617 0.2306632 0.28231376 0.33304188 0.38796303 0.4402635
0.48806244 0.5448099 0.6017322 0.6720059 0.7361679 0.79513747 0.8552942 0.8973567
0.9393297 0.9896182 1.0282173 1.0758525 1.1324236 1.1938976 1.2617652 1.3365554
1.4095153 1.4765955 1.5427289 1.5915039 1.6320735 1.6644148 1.689223 1.7110571
1.7392697 1.7571958 1.7786238 1.7893912 1.7961323 1.8116906 1.8149548 1.8149537
1.8114735 1.8055141 1.792296 1.7754608 1.766054 1.750575 1.7465789 1.723626
1.6988717 1.6710975 1.6327432 1.5967448 1.5501293 1.5067546 1.4618189 1.4270983
1.002218 0.9846904 0.9720609 0.9857664 0.95955473 0.95704556 0.96066576 0.94763136
0.966463 0.9874425 0.9796273 1.0112715 0.9974671 0.9833203 0.96743494 0.967249
0.9683855 0.9561748 0.9604566 0.9613861 0.99764204 0.9279353 0.9677185 0.88468504
0.87643933 0.9140173 0.91513735 0.94701976 0.91883785 0.9145417 0.9061319 0.88664395
0.88785845 0.9119523 1.026004 0.99825144 0.90961164 0.9707858 0.90450144 0.93592
0.89331466 0.9403253 0.94329923 0.9746455 0.9773701 0.9519001 1.0041668 0.9345578
0.9859375 1.0685105 0.95761 0.99544346 0.9583642 0.8991951 0.9160266 0.9106103
1.0179292 0.8370981 0.8387256 0.8353025 0.8634809 0.86133623 0.91495854 0.8333398
0.86271197 0.8980891 0.8440883 0.8601239 0.88576734 0.9109261 0.95062363 1.029228
0.99843806 0.99346197 0.982727 1.0115854 0.9699053 0.9801246 0.8822778 0.8807912
0.8858773 0.8748562 0.90657926 0.970176 0.96633816 0.9741101 0.995059 0.94757
0.9429437 0.93100077 0.953271 0.9714008 0.99601173 0.98051494 0.98291576 1.0208155
0.9734455 0.9867262 0.96243757 0.9514155 0.92731816 0.92018795 0.9291819 0.9250088
0.9295082 1.0020417 0.9756738 0.9456905 0.9745257 0.9009256 0.98454905 0.9771323
0.9239941 0.9674631 0.9919344 0.9964725 1.0109254 0.9956802 1.0411743 1.0527922
0.0 -0.027955651 -0.05333101 -0.079117835 -0.11143149 -0.15876657 -0.20663835 -0.24305464
-0.27960888 -0.31554264 -0.3432863 -0.36528146 -0.3861682 -0.40054724 -0.41771957 -0.43273494
