to_fbx/remodiffuse_np_original_result/zigzag_remodiffuse_smpl_3Dparams.npz (npz, 36516 bytes, 2 tensors)

body_pose (column-major) f4 [120, 72]
000000 c1 ae c9 3d b3 6c 8d 3d 7e 70 29 3d 30 6b f6 3c
       0.09847785 0.06905498 0.041367047 0.030080408
000010 69 06 e7 3c 31 4d 04 3d 0b cd 28 3d 1d 4e 54 3d
       0.028201299 0.032300178 0.04121117 0.051832307
000020 58 48 7f 3d 75 19 aa 3d eb 22 ee 3d 37 10 ef 3d
       0.06232485 0.08305637 0.11627754 0.116730146
000030 8d fb b6 3d 50 31 9b 3d 8b 7a 92 3d bd 32 9b 3d
       0.08934698 0.07577765 0.071522795 0.07578037
000040 2d 93 bd 3d 99 3b f1 3d 97 7d 0d 3e 7c e0 1d 3e
       0.09256587 0.117789455 0.1381744 0.15417665
000050 a1 bb 29 3e ac 48 2c 3e 71 45 25 3e 04 79 14 3e
       0.16575481 0.16824597 0.16139771 0.14499289
000060 c8 02 00 3e b2 54 e3 3d c6 63 e0 3d 08 d9 f1 3d
       0.12501061 0.11100139 0.1095653 0.118089736
000070 44 70 02 3e 3b 81 05 3e e6 fb 02 3e e6 8d fb 3d
       0.12738138 0.13037579 0.12791404 0.12282924
000080 ba 64 ff 3d 9f 17 1b 3e 45 6f 51 3e 2c f0 84 3e
       0.12470384 0.1514573 0.20452602 0.25964487
000090 a7 e0 95 3e 4e af 9b 3e 5d 0a a1 3e 57 a8 af 3e
       0.2927296 0.30407184 0.3145322 0.3430812
0000a0 fa 4a c1 3e a2 f1 cc 3e c4 37 d2 3e 65 7a d7 3e
       0.37752515 0.400281 0.4105817 0.42085567
0000b0 15 4a e2 3e 8f 03 ec 3e 48 fb ed 3e ec e4 e8 3e
       0.44197145 0.46096465 0.46480775 0.45487154
0000c0 b7 32 e0 3e 41 f0 d9 3e 03 48 d8 3e d2 9d d7 3e
       0.43788692 0.42566112 0.4224244 0.42112595
0000d0 91 1e db 3e 73 55 e6 3e 8a 4d ea 3e b5 0e e1 3e
       0.42796758 0.44987068 0.45762283 0.43956533
0000e0 67 cd d6 3e 82 eb cc 3e 19 39 c5 3e ee 60 c0 3e
       0.41953585 0.40023428 0.38520125 0.3757395
0000f0 a6 0f b4 3e ca ef a1 3e 96 41 97 3e de 06 9b 3e
       0.3516819 0.31628257 0.29542226 0.30278677
000100 ec a8 a4 3e 6a 32 a7 3e c8 c5 a1 3e 23 a5 9d 3e
       0.32160127 0.3265565 0.31596208 0.30790052
000110 53 8f 9e 3e 55 6c 9e 3e f9 6b 9b 3e 29 59 96 3e
       0.30968723 0.30942026 0.30355814 0.293649
000120 e0 c6 8b 3e 85 54 6e 3e de a1 1f 3e f4 35 e1 3d
       0.27300167 0.23274429 0.15589091 0.10996619
000130 98 00 c1 3d c8 d5 65 3d c5 07 1e 3d 99 e0 43 3d
       0.094239414 0.05611208 0.03858163 0.047821615
000140 6c c6 78 3d 03 5d 51 3d 91 36 62 3d 53 ea 61 3d
       0.060736105 0.051114094 0.05522782 0.05515511
000150 4f 62 4b 3d c9 d3 98 3c 93 4c a0 bc d4 f5 02 bd
       0.0496543 0.018655675 -0.019567763 -0.03197272
000160 ac f4 f8 bc cc ae 0f bd 78 93 15 bd 8d 8d ee bc
       -0.030390106 -0.03507881 -0.03651759 -0.029120231
000170 e8 16 5b bc 80 ca 01 3b 04 ee 7e 3c 88 58 20 3d
       -0.0133721605 0.0019804537 0.015559677 0.03914693
000180 dc 36 84 3d bf d1 92 3d c3 66 7e 3d f0 40 47 3d
       0.06455776 0.07168912 0.06210972 0.048645914
000190 ad fc 4b 3d af 21 98 3d f3 9b d0 3d d2 52 f0 3d
       0.049801517 0.074283 0.10185995 0.11734547
0001a0 82 37 02 3e 6f f6 0d 3e ef eb 1c 3e 1f fb 25 3e
       0.12716487 0.13863538 0.15324377 0.16209076
0001b0 d8 60 1d 3e 76 52 0d 3e e0 50 09 3e ea 42 14 3e
       0.15368974 0.13800988 0.13409758 0.1447865
0001c0 6e 53 21 3e e7 78 27 3e 14 62 2c 3e 78 aa 2b 3e
       0.15754482 0.16354714 0.16834289 0.16764247
0001d0 33 5f 23 3e 67 f1 26 3e 17 dd 38 3e 2f f5 49 3e
       0.15954284 0.16303025 0.18053089 0.19722436
0001e0 5c 9d 66 3d e1 91 0e 3d b3 f8 b1 3d 4a 9b 14 3e
       0.056302413 0.03480709 0.08690014 0.14512363
0001f0 d4 20 45 3e 8b 05 5f 3e ec 26 6c 3e c2 cd 7e 3e
       0.19250804 0.21779458 0.23061723 0.24883178
000200 23 50 8c 3e 90 8a ac 3e 40 9e a7 3e 84 3e ae 3e
       0.2740489 0.33699465 0.32737923 0.3403207
000210 26 62 ce 3e 27 b9 f7 3e 44 fe 11 3f f9 87 10 3f
       0.40309256 0.48383448 0.57028604 0.5645748
000220 d4 2f 0d 3f e4 0d 06 3f 76 4c 0c 3f f4 0c 25 3f
       0.55151105 0.52364945 0.5480417 0.6447289
000230 b0 ea 3b 3f 9e 5c 46 3f 0d e6 4b 3f 6f 82 4f 3f
       0.7340498 0.7748507 0.79647905 0.810584
000240 97 da 4e 3f 2c 7e 49 3f b9 5b 3f 3f 35 07 34 3f
       0.8080229 0.7870815 0.7474933 0.703235
000250 dd ce 2a 3f 7a 56 1f 3f 5e 83 10 3f a1 2d 04 3f
       0.667219 0.6224133 0.5645045 0.51632124
000260 41 45 f3 3e cc 17 d3 3e 1e 14 ab 3e cb ef 8d 3e
       0.47513774 0.41229093 0.33413786 0.2772201
000270 65 3a 79 3e 77 01 4a 3e 3d 0d c7 3d c7 13 5f bd
       0.24338682 0.19727121 0.09719322 -0.05446222
000280 ea bb 35 be d4 69 6f be cd b1 91 be 1d 83 bc be
       -0.17747465 -0.23380214 -0.28455964 -0.36818781
000290 46 be ef be 95 ed 0e bf 58 af 1e bf ad 8b 27 bf
       -0.46824855 -0.5583127 -0.61986303 -0.65447503
0002a0 7f c9 2d bf 63 56 36 bf 3f 8e 43 bf 51 94 52 bf
       -0.67885584 -0.71225566 -0.76388925 -0.8225756
0002b0 d3 5e 5f bf 69 95 66 bf 4b 18 6d bf 04 d1 76 bf
       -0.87254065 -0.9007173 -0.92615193 -0.9641268
0002c0 7b af 7a bf e0 14 76 bf ac a9 71 bf b0 a4 72 bf
       -0.9792401 -0.961256 -0.94399524 -0.94782543
0002d0 08 19 74 bf 93 35 75 bf c8 69 7b bf ae e9 80 bf
       -0.95350695 -0.9578487 -0.98208284 -1.0071313
0002e0 bd 41 83 bf 34 c1 83 bf ac b4 81 bf 21 b2 7d bf
       -1.0254437 -1.0293336 -1.0133262 -0.9909993
0002f0 14 60 74 bf 56 fb 64 bf 1f 34 53 bf 24 5e 46 bf
       -0.95459104 -0.8944601 -0.82501405 -0.774874
000300 89 90 3e bf 1a 29 37 bf 2e 97 34 bf a4 e5 35 bf
       -0.74439293 -0.7154709 -0.7054318 -0.7105353
000310 30 29 34 bf 27 6d 32 bf 86 bb 26 bf 97 c2 18 bf
       -0.7037535 -0.69697803 -0.6512989 -0.5967192
000320 ea c5 0f bf e4 0e 14 bf d3 6d 02 bf 74 0a fb be
       -0.5616137 -0.5783522 -0.5094883 -0.49031413
000330 00 66 03 bf c1 77 11 bf fc ea 18 bf 4f c3 16 bf
       -0.51327515 -0.56823355 -0.5973356 -0.5889177
000340 83 3a 18 bf cc 6f 25 bf e5 22 3b bf 9c e3 4f bf
       -0.5946428 -0.64623713 -0.7310012 -0.8120668
000350 97 f3 59 bf 46 e7 56 bf 7d c6 4f bf 94 74 50 bf
       -0.85137314 -0.83946645 -0.81162244 -0.81427884
000360 c3 f1 58 bf e4 7b 5d bf 24 fa 4f bf 23 7a 2d bf
       -0.847439 -0.8651717 -0.8124106 -0.6776449
000370 0b f6 08 bf 52 c6 ec be 7b cc fc be 9f 3d 14 bf
       -0.5350043 -0.46245056 -0.49374756 -0.57906526
000380 f9 f3 27 bf 0b 1e 39 bf 8d 97 45 bf 56 8b 4b bf
       -0.6560665 -0.72311467 -0.77184373 -0.79509485
000390 8a c0 4c bf 8f cf 47 bf 83 91 42 bf 8f 63 45 bf
       -0.7998129 -0.78051084 -0.76003283 -0.7710504
0003a0 a0 a1 4d bf d7 83 53 bf fc 10 4f bf 8d 6a 3f bf
       -0.80324745 -0.82623047 -0.8088529 -0.7477196
0003b0 69 cb 2e bf 1b bf 22 bf 16 7e 19 bf c7 e6 12 bf
       -0.6827913 -0.63572854 -0.59958017 -0.5738339
0003c0 b5 f7 5e bd b2 4e 5f bd 19 28 88 bd 0b 7e 8a bd
       -0.05443545 -0.05451841 -0.06648273 -0.06762322
0003d0 13 f6 8a bd 00 1d 8f bd d4 f1 95 bd d3 b2 9a bd
       -0.06785216 -0.06987953 -0.07321516 -0.07553639
0003e0 22 ba a5 bd 17 45 b4 bd d2 e1 d6 bd 41 78 df bd
       -0.08092143 -0.0880224 -0.104922906 -0.109116085
0003f0 a5 cb c1 bd a5 bc 9d bd 66 b8 86 bd ed cb 7b bd
       -0.0946267 -0.07701997 -0.0657814 -0.061473776

transl (column-major) f4 [120, 3]
000000 91 98 e5 ba 59 32 89 bb f4 68 ca bb 27 68 af bb
       -0.0017516782 -0.00418691 -0.006177062 -0.005352992
000010 55 fd 4b ba f5 4c ef 3b 13 97 96 3c 5a 35 02 3d
       -0.0007781585 0.007302875 0.018382585 0.03178916
000020 a9 bf 43 3d 29 6d 8b 3d f1 ee bd 3d 83 5e f4 3d
       0.047790203 0.0680793 0.0927409 0.11932089
000030 06 94 16 3e de e0 35 3e 0d 75 59 3e 69 cc 80 3e
       0.14704904 0.17761561 0.21236058 0.25155953
000040 0c 35 97 3e 3b 00 b0 3e 66 db ca 3e 95 cc e6 3e
       0.2953266 0.34375176 0.39620513 0.4507796
000050 d8 5b 01 3f ae 35 0f 3f e3 68 1d 3f 79 84 2c 3f
       0.5053077 0.55941284 0.6148817 0.6738964
000060 7c b4 3c 3f 15 b9 4d 3f 88 f9 5e 3f ad b2 6f 3f
       0.737129 0.8036054 0.87099504 0.9363201
000070 6a 33 7f 3f 16 a9 86 3f eb 3a 8d 3f 53 9e 93 3f
       0.99687827 1.0520351 1.1033605 1.1532692
000080 1d 18 9a 3f ce 9a a0 3f da 96 a6 3f 81 45 ab 3f
       1.2038609 1.2547243 1.3014786 1.3380586
000090 f7 29 ae 3f 39 58 af 3f 14 53 af 3f de 65 ae 3f
       1.3606557 1.3698798 1.3697228 1.3624837
0000a0 a5 81 ac 3f a3 c3 a9 3f 31 77 a6 3f 46 c2 a2 3f
       1.3477064 1.3262829 1.3005124 1.2715538
0000b0 69 99 9e 3f d8 cb 99 3f 1f 24 94 3f 84 97 8d 3f
       1.2390567 1.2015333 1.1573523 1.1061864
0000c0 a9 62 86 3f 49 e8 7d 3f 94 f7 6e 3f 60 73 5f 3f
       1.0498859 0.99182564 0.93346524 0.87285423
0000d0 5c b0 4e 3f 1a 9b 3c 3f a5 e6 29 3f 7e 84 17 3f
       0.80737853 0.73674166 0.6636756 0.5918654
0000e0 ca a0 05 3f 56 ee e6 3e 40 7b c0 3e 8d c4 97 3e
       0.5219847 0.4510371 0.37594032 0.29642144
0000f0 6d e6 5c 3e 90 9e 0d 3e 36 96 88 3d b8 6b 6d 3a
       0.21572275 0.13830018 0.066692755 0.0009056884
000100 50 b1 79 bd cd 89 f5 bd 95 50 32 be 41 8f 64 be
       -0.060960114 -0.11989174 -0.17413552 -0.22320272
000110 e6 fe 89 be 3f 49 a1 be b3 24 b8 be 6c ad ce be
       -0.26952285 -0.31501195 -0.359655 -0.40366685
000120 55 f9 e4 be 2f e7 f9 be 6d b6 05 bf f0 e0 0b bf
       -0.44721475 -0.48809192 -0.52231485 -0.546401
000130 43 e1 0e bf 59 86 0e bf 7b 00 0b bf 80 a7 04 bf
       -0.5581247 -0.5567375 -0.5429761 -0.51818085
000140 da c8 f7 be 70 4e e2 be 0a b1 c9 be 80 48 ae be
       -0.48395425 -0.44200468 -0.39392883 -0.34039688
000150 5a e9 8f be 3c 96 5d be a3 cc 17 be f6 24 a2 bd
       -0.2810772 -0.21639341 -0.14824156 -0.07917206
000160 37 47 38 bc f3 c7 65 3d 60 c8 00 3e 5d 2f 4c 3e
       -0.011247448 0.05609889 0.12576437 0.19939943
000170 82 98 8c 3e 48 fc b1 3e 5b d4 d5 3e 93 52 f8 3e
       0.27460104 0.34762788 0.41763577 0.485005
000180 2c b3 0c 3f 2f b1 1c 3f ca 4d 2c 3f 62 80 3b 3f
       0.54960895 0.6120786 0.67306197 0.7324277
000190 de 39 4a 3f c9 ba 58 3f 83 94 67 3f 4d ff 76 3f
       0.7899455 0.8466001 0.90460986 0.9648331
0001a0 0b 57 83 3f d5 16 8b 3f 9d 69 92 3f e3 ea 98 3f
       1.0260938 1.0866343 1.1438481 1.1946682
0001b0 46 62 9e 3f 47 f4 a2 3f 8f 13 a7 3f 26 1f ab 3f
       1.2373741 1.2730798 1.3052844 1.3368881
0001c0 05 1b af 3f 8c f2 b2 3f 8d b9 b6 3f a8 87 ba 3f
       1.3680121 1.398027 1.4275376 1.4572649
0001d0 fd 4f be 3f 8e ec c1 3f 11 0d c5 3f 4d 37 c7 3f
       1.486816 1.5150316 1.5394613 1.5563751
0001e0 b3 25 73 3f e9 29 75 3f 66 33 76 3f f9 c8 75 3f
       0.949794 0.95767075 0.9617218 0.96009785
0001f0 9e bd 74 3f dc 0d 74 3f fc f5 73 3f f2 f2 73 3f
       0.9560183 0.9533365 0.9529722 0.9529258
000200 4e 96 73 3f ad 2e 73 3f 25 f5 73 3f 07 39 76 3f
       0.9515122 0.94993097 0.95295936 0.96180767
000210 1b 8a 77 3f ee e0 74 3f b1 61 6f 3f b4 c6 6a 3f
       0.9669511 0.95655715 0.9350844 0.91709447
000220 06 5c 67 3f 2b 89 64 3f ee 67 63 3f c0 64 63 3f
       0.9037479 0.892718 0.8883046 0.8882561
000230 0d e9 62 3f c1 0f 63 3f aa a3 65 3f ac e6 6a 3f
       0.8863686 0.88695914 0.89702857 0.9175823
000240 e9 e1 71 3f 4d 76 78 3f 73 72 7c 3f 65 e3 7c 3f
       0.94485337 0.9705551 0.98612136 0.98784477
000250 f9 c1 79 3f 8c 0e 75 3f 75 50 71 3f 4a 6c 6e 3f
       0.97561604 0.9572532 0.9426339 0.93133986
000260 ff 79 6a 3f e1 4b 65 3f 78 30 60 3f 71 af 5c 3f
       0.915924 0.8956891 0.8757396 0.862052
000270 7e 07 5c 3f d3 27 5e 3f 70 36 61 3f 04 c5 63 3f
       0.8594893 0.86779517 0.8797369 0.88972497
000280 fd b9 65 3f 42 fa 66 3f 60 74 67 3f d4 e2 66 3f
       0.8973692 0.90225613 0.9041195 0.9018986
000290 6a f5 64 3f e8 45 63 3f d9 b8 62 3f 22 98 62 3f
       0.8943697 0.88778543 0.88563305 0.88513386
0002a0 f4 f1 62 3f 1a 22 63 3f 2e ad 62 3f a8 c0 63 3f
       0.8865044 0.8872391 0.885455 0.88965845
0002b0 7f 3d 68 3f 33 c3 6d 3f ca a7 70 3f 27 f5 70 3f
       0.90718836 0.92875975 0.94006026 0.9412407
0002c0 7c 41 70 3f dd 23 6e 3f 7d 1e 6c 3f 66 84 6c 3f
       0.9384992 0.93023473 0.9223402 0.92389524
0002d0 0b d7 6d 3f 55 27 6d 3f 7a ed 6a 3f e4 45 69 3f
       0.92906255 0.9263814 0.9176861 0.9112227
0002e0 59 5b 68 3f 34 62 67 3f a4 53 66 3f 2d d1 66 3f
       0.90764385 0.9038422 0.89971375 0.90162927
0002f0 81 f3 69 3f 51 6c 6d 3f 95 87 6f 3f af c3 70 3f
       0.9138718 0.927434 0.93566257 0.9404859
000300 78 0a 72 3f 7c 67 73 3f d7 d4 73 3f 16 0f 72 3f
       0.94547224 0.9507978 0.9524664 0.9455427
000310 f4 f5 6e 3f 67 12 6e 3f 2a af 70 3f da cb 74 3f
       0.93344045 0.9299683 0.9401728 0.9562355
000320 19 84 78 3f f1 32 7a 3f cf ff 79 3f c1 85 7a 3f
       0.97076565 0.9773398 0.9765596 0.9786034
000330 cb 8c 7c 3f 0d 31 7d 3f 7f 45 7b 3f 9d be 79 3f
       0.98652333 0.9890297 0.9815292 0.9755648
000340 da 56 7a 3f 23 2e 7b 3f 06 67 7a 3f 51 d1 78 3f
       0.97788775 0.98117274 0.9781345 0.9719439
000350 68 7e 77 3f 6f 05 76 3f b6 1c 75 3f 2f cd 77 3f
       0.96677256 0.9610204 0.95746934 0.9679746
000360 2b 2d 7d 3f dd 0a 80 3f 98 37 7f 3f 45 62 7d 3f
       0.98897046 1.0003315 0.99694204 0.9897807
000370 83 19 7c 3f b6 5c 7b 3f 6c da 7a 3f 23 6f 7a 3f
       0.9847643 0.9818834 0.97989535 0.9782583
000380 a8 9a 7a 3f 87 7c 7a 3f 33 a4 79 3f 28 43 79 3f
       0.97892237 0.97846264 0.97516173 0.973681
000390 88 be 78 3f 1e 70 76 3f 50 96 73 3f 66 10 72 3f
       0.9716573 0.9626483 0.95151234 0.9455627
0003a0 ed 27 72 3f 2d fa 72 3f 07 fb 72 3f 3f 87 70 3f
       0.9459217 0.9491299 0.9491429 0.9395637
0003b0 08 55 6d 3f 12 65 6d 3f c7 b8 6f 3f 20 c5 70 3f
       0.9270787 0.92732346 0.9364132 0.9405079
0003c0 a3 22 fa 39 6f 3f 15 3b 3e 6c d5 3b 1d cb 5f 3c
       0.00047709522 0.0022773405 0.0065131476 0.013659266
0003d0 c5 9c bd 3c d9 13 07 3d 9d cf 29 3d a1 11 48 3d
       0.023146043 0.032977913 0.04145776 0.048844937
0003e0 dc 57 68 3d 57 95 88 3d 43 4f a3 3d 55 58 c3 3d
       0.056724414 0.06669109 0.07974102 0.095383324
0003f0 3a cd e3 3d bb 9f 00 3e c4 c3 0e 3e 42 68 1d 3e
       0.11123128 0.12560932 0.13941866 0.15371802
