to_fbx/remodiffuse_np_original_result/zigzag_remodiffuse_smpl_3Dparams.npz (npz, 36516 bytes, 2 tensors)

body_pose (column-major) f4 [120, 72]
000000 d3 19 d4 3d 9f 1d 8b 3d c8 e0 6f 3c e4 c5 0b 3d
       0.10356488 0.06792759 0.014640994 0.03412427
000010 43 84 b1 3c 9f a3 dc 3c 34 88 1e 3d 5d 6a 62 3d
       0.021669513 0.02693349 0.038704112 0.055277217
000020 7b f7 7f 3d aa cb 7d 3d 40 96 15 3e 4f 28 06 3e
       0.062491875 0.061961807 0.14608097 0.13101314
000030 3f c3 d2 3d 5e ec 71 3d ac 6c 7a 3d 18 12 ac 3d
       0.102911465 0.059063308 0.061138794 0.084018886
000040 11 a1 56 3d b4 07 1a 3e 7f eb 12 3e 8d 42 1c 3e
       0.0523997 0.15042001 0.14347647 0.15259762
000050 4f 31 3d 3e 8d 62 24 3e 57 40 44 3e b5 35 0f 3e
       0.18475841 0.16053219 0.19165169 0.13985331
000060 b5 3d 08 3e 65 f9 c1 3d d0 a0 bc 3d 11 c6 03 3e
       0.1330479 0.09471396 0.0921036 0.12868525
000070 d9 1a 07 3e a2 40 0e 3e 43 11 14 3e 53 07 d4 3d
       0.13193835 0.13891843 0.1445971 0.103529595
000080 c0 4b ee 3d 4a 78 f3 3d bc 92 5d 3e 4c 87 91 3e
       0.11635542 0.11888178 0.21638006 0.28423536
000090 e0 b0 a4 3e 25 57 9e 3e 05 d4 94 3e 6e 13 b2 3e
       0.32166195 0.3092586 0.29068008 0.3478045
0000a0 c0 74 cd 3e 5a 4f c5 3e 82 81 e9 3e af 8d bd 3e
       0.40128136 0.38537103 0.4560662 0.37022159
0000b0 d8 8a eb 3e 57 32 f7 3e 85 a6 ef 3e c7 27 ee 3e
       0.46004367 0.48280594 0.46806732 0.46514723
0000c0 52 58 dd 3e e5 f1 d0 3e c4 65 d8 3e 96 47 e5 3e
       0.43231446 0.4080955 0.4226514 0.44781178
0000d0 15 3a c2 3e 1e 9b f5 3e 29 c5 04 3f ec ff cd 3e
       0.37934938 0.47969908 0.5186334 0.40234315
0000e0 63 55 dd 3e 15 52 bc 3e c6 7b bc 3e 38 1b ce 3e
       0.43229207 0.36781374 0.36813182 0.4025514
0000f0 66 c5 c2 3e 20 74 9b 3e fe 59 89 3e a6 aa 8d 3e
       0.38041228 0.30362034 0.2682647 0.27669257
000100 41 32 ae 3e 0f 54 b7 3e cf 69 a1 3e a9 31 89 3e
       0.34022716 0.3580632 0.31526038 0.267957
000110 3d d5 b1 3e 03 2b 97 3e ec 77 a2 3e 6c 8b 91 3e
       0.34733 0.29525003 0.31732118 0.28426683
000120 d1 2f 99 3e 8d c2 89 3e 6d 48 0a 3e ed b5 24 3e
       0.29919294 0.26906243 0.1350419 0.16085024
000130 1a 58 93 3d 9e 0a 8e 3d b9 d4 9b bc 94 e2 84 3d
       0.071945384 0.06935619 -0.019022333 0.06488529
000140 e7 2f 9c 3d a8 fc 88 3d 56 4b 59 3d 5b 1f ba 3c
       0.07626324 0.06688815 0.05305036 0.02272003
000150 25 76 ea 3d 57 b9 42 3d b5 46 cc bd 1b 35 0a bd
       0.114483155 0.047540035 -0.09974424 -0.03374205
000160 45 6f b0 3c 1f db 99 bd 9f 16 00 bd 2c 7f d3 bc
       0.021537432 -0.07512497 -0.031271573 -0.025817476
000170 88 79 0d bd 94 64 3b 3d 60 59 44 bd ef af 74 3d
       -0.03453973 0.045750216 -0.047936797 0.059738096
000180 50 da d1 3d 22 7a 94 3d a2 64 95 3d cc 58 67 3d
       0.10246718 0.072498575 0.07294585 0.056481168
000190 18 31 d2 bb fa 2c d4 3d 88 95 0a 3e 2f a8 dc 3d
       -0.006414544 0.10360141 0.13533604 0.10774266
0001a0 36 f0 14 3e 65 0d e0 3d 65 8b 35 3e fa bb 28 3e
       0.14544758 0.10940055 0.17728956 0.16477957
0001b0 9a d9 3a 3e 8d e1 f4 3d bf 1e d5 3d 6a 4f 42 3e
       0.18247071 0.11957083 0.10406255 0.18975607
0001c0 af 03 1a 3e 61 df 39 3e 49 48 08 3e 91 be 62 3e
       0.15040468 0.18151619 0.13308825 0.22143008
0001d0 bf 75 f0 3d 85 12 26 3e a2 93 3e 3e ec 65 56 3e
       0.11741208 0.16218002 0.18611005 0.20937318
0001e0 14 86 9f 3d a5 28 d1 3c 66 1e ad 3d b4 58 37 3e
       0.07789245 0.025532076 0.08453064 0.17904931
0001f0 61 3a 5b 3e b6 f4 75 3e bb 5c 54 3e 05 d4 73 3e
       0.21408989 0.24019131 0.20738499 0.23811348
000200 5b ca 97 3e 4a 4c a3 3e fb d9 c2 3e f7 68 a4 3e
       0.29646572 0.3189414 0.3805693 0.32111332
000210 3a d0 9e 3e 79 c0 d8 3e 33 18 1b 3f 46 a3 13 3f
       0.3101824 0.42334345 0.605838 0.5767101
000220 df 6b 19 3f d8 f0 fe 3e f9 1d ca 3e af 73 34 3f
       0.59930223 0.49793124 0.39475992 0.7048902
000230 27 6c 4e 3f 36 4d 3e 3f 96 f9 4b 3f 22 ce 61 3f
       0.8063378 0.74336565 0.7967771 0.8820516
000240 89 9a 41 3f d6 43 5e 3f ac 53 34 3f 19 28 35 3f
       0.75626427 0.8682226 0.70440173 0.7076431
000250 cf 9f 23 3f 99 89 34 3f 62 9b e3 3e 12 94 12 3f
       0.63915724 0.7052246 0.44454485 0.5725719
000260 73 a2 ea 3e 93 4c f1 3e 11 bd a5 3e a2 9c 83 3e
       0.45827064 0.47128734 0.3237081 0.2570544
000270 52 f5 78 3e 04 a5 73 3e da 59 34 3e e3 fc d8 bd
       0.24312332 0.23793417 0.176124 -0.10595109
000280 24 27 a3 be 1e 14 2e be 57 44 7a be ed 4b bf be
       -0.318658 -0.16999862 -0.24440132 -0.37362614
000290 ff 9d e3 be b4 04 1b bf 39 83 22 bf 1c 81 29 bf
       -0.4445648 -0.6055405 -0.6348148 -0.6621263
0002a0 e1 3f 2c bf 52 46 31 bf 1d 40 3c bf f3 e7 58 bf
       -0.6728497 -0.69247925 -0.7353533 -0.84728926
0002b0 d7 74 69 bf 2f bf 6b bf 01 97 57 bf a9 c7 7d bf
       -0.9119391 -0.920886 -0.8421479 -0.9913278
0002c0 04 ac 81 bf 83 c6 6c bf 5c 5d 68 bf 8a 0d 74 bf
       -1.013062 -0.92490405 -0.90767455 -0.9533316
0002d0 e2 ae 7a bf 83 de 71 bf 5f 26 84 bf 52 c2 82 bf
       -0.979231 -0.9448015 -1.032421 -1.0215552
0002e0 86 22 81 bf 9f cc 8a bf 03 86 76 bf 57 8b 84 bf
       -1.0088661 -1.0843695 -0.96298236 -1.0355023
0002f0 5a 02 79 bf ac e3 6e bf 57 7c 40 bf cc e5 44 bf
       -0.97269213 -0.9331615 -0.7518973 -0.7691314
000300 02 59 3b bf 3d 2c 3b bf 29 51 38 bf 07 da 26 bf
       -0.7318269 -0.7311438 -0.7199884 -0.65176433
000310 39 7a 3b bf f2 c4 44 bf 62 25 1e bf 6b c1 11 bf
       -0.7323337 -0.76863015 -0.6177579 -0.5693576
000320 b8 fc 15 bf 86 13 02 bf 66 f6 0f bf bc 39 c5 be
       -0.58588743 -0.5081104 -0.5623535 -0.3852061
000330 07 23 fd be 0b 1f 13 bf e5 1c 40 bf 35 cd 0d bf
       -0.49440786 -0.5746924 -0.7504409 -0.55391246
000340 e1 4c 09 bf c0 ed 21 bf e6 27 3a bf bd dd 5e bf
       -0.5363293 -0.632534 -0.7271713 -0.87057096
000350 76 f1 5f bf 58 bb 5e bf ec 6c 40 bf ff 58 3e bf
       -0.87477815 -0.87004614 -0.751662 -0.7435455
000360 7e 68 68 bf c4 53 56 bf a7 8c 83 bf 3f c6 0a bf
       -0.9078444 -0.83721566 -1.0277299 -0.5420875
000370 31 a1 1c bf f2 af 8e be 11 6b e8 be 03 0d 30 bf
       -0.6118346 -0.2786861 -0.45394185 -0.68769854
000380 b8 3b 17 bf 83 a5 3d bf d7 3a 5c bf 52 dd 38 bf
       -0.590755 -0.74080676 -0.8602728 -0.7221271
000390 3b 65 56 bf cc b6 55 bf be ae 20 bf 41 14 42 bf
       -0.83748215 -0.8348205 -0.62766635 -0.75812155
0003a0 fb 48 52 bf 95 1f 53 bf 97 64 68 bf 89 4c 34 bf
       -0.8214261 -0.82470065 -0.9077849 -0.70429283
0003b0 97 0a 26 bf 67 c1 29 bf e4 90 15 bf 94 11 0f bf
       -0.6485991 -0.66310734 -0.5842421 -0.558862
0003c0 d5 a1 41 bd 7d 7a 98 bd 0f 62 7c bd 8d db 8a bd
       -0.047273476 -0.07445238 -0.061616953 -0.06780157
0003d0 91 45 83 bd a3 41 85 bd 8c 71 9d bd da c4 a3 bd
       -0.06409753 -0.0650666 -0.07687673 -0.07996531
0003e0 06 49 80 bd 28 d7 b4 bd 3b bd e2 bd 2e 93 0a be
       -0.06263928 -0.088301 -0.11071249 -0.13532707
0003f0 91 e3 d4 bd fe b3 7b bd 37 bb 93 bd c6 18 1b bd
       -0.10394967 -0.06145095 -0.07213443 -0.037865423

transl (column-major) f4 [120, 3]
000000 00 00 00 00 6d e0 5f bb 51 a8 23 bc f4 9c 03 bc
       0.0 -0.0034160868 -0.00998886 -0.008033026
000010 3e 24 4d bb 9f 41 9c 3b dd 40 89 3c 1f 52 00 3d
       -0.003130212 0.004768565 0.016754562 0.031328317
000020 95 d5 36 3d 07 a6 7a 3d 8d 43 c1 3d c2 46 f4 3d
       0.04463728 0.061193492 0.094367124 0.119275585
000030 66 d1 13 3e 11 2e 32 3e 4a 77 56 3e 34 44 7e 3e
       0.14435348 0.17400385 0.20943943 0.24830705
000040 eb 58 95 3e 77 55 ae 3e 53 95 c9 3e 54 b6 e7 3e
       0.29169402 0.3404958 0.39371738 0.45256293
000050 4b 70 01 3f 51 55 0f 3f 25 1d 1c 3f a4 14 2c 3f
       0.5056197 0.5598956 0.6098197 0.67218995
000060 42 83 3b 3f 9a f6 4d 3f ef e8 5e 3f c6 16 71 3f
       0.7324716 0.8045441 0.8707418 0.94175375
000070 9d 2f 80 3f 02 fc 86 3f d3 6f 8d 3f 7f 6b 93 3f
       1.001453 1.0545657 1.1049751 1.151718
000080 2c db 99 3f b4 ca a0 3f 58 d3 a7 3f 7e 8f ac 3f
       1.2020011 1.256186 1.3111372 1.348129
000090 3d dd af 3f ce f4 af 3f 83 a2 af 3f 36 6a af 3f
       1.3739392 1.3746583 1.372147 1.3704288
0000a0 2d 30 ad 3f 98 fd a9 3f 28 c4 a6 3f 7b 02 a3 3f
       1.3530327 1.3280516 1.3028612 1.2735132
0000b0 c5 00 9f 3f 35 92 9a 3f 8c be 94 3f d4 5b 8e 3f
       1.242211 1.2075869 1.162065 1.1121774
0000c0 a8 55 86 3f 0e 84 7d 3f 6e 5a 6f 3f 9e ab 60 3f
       1.049489 0.99029624 0.9349736 0.8776187
0000d0 29 de 4f 3f 8f 5b 3d 3f 02 47 29 3f be 7d 16 3f
       0.81198364 0.7396783 0.66123974 0.5878562
0000e0 3d 25 06 3f 46 a0 e8 3e 8a 1a c3 3e 06 9d 98 3e
       0.5240057 0.4543478 0.38106185 0.298073
0000f0 79 ad 58 3e 1f f0 08 3e 9a 9d 7d 3d 19 c4 5b bb
       0.21159925 0.13372849 0.06191788 -0.0033533631
000100 ad 74 6f bd c0 24 01 be 68 37 37 be cd 97 66 be
       -0.05846088 -0.12611675 -0.1789223 -0.22518845
000110 c7 14 89 be 62 5f a2 be 82 84 b8 be eb 06 ce be
       -0.26773664 -0.31713396 -0.36038595 -0.40239653
000120 47 86 e5 be b6 bc fc be 6b b2 07 bf d6 22 0e bf
       -0.44829008 -0.49362725 -0.5300662 -0.55521905
000130 d9 b4 11 bf 3e 8c 10 bf fd 4c 0d bf 42 32 06 bf
       -0.56916577 -0.5646399 -0.551956 -0.5242044
000140 46 f6 fa be b4 49 e4 be 05 4e cb be af 90 b0 be
       -0.49016017 -0.4458748 -0.39707962 -0.34485385
000150 41 a9 92 be 48 ea 5e be 7c 2c 1a be ea 87 9b bd
       -0.28644755 -0.21769059 -0.15056032 -0.07594283
000160 a0 8e 27 bc 1a 0c 5f 3d 0c 07 f7 3d f7 40 49 3e
       -0.010226876 0.0544549 0.12061891 0.19653688
000170 a3 3c 8f 3e 52 fd b2 3e 0c df d5 3e 7d 8e fa 3e
       0.2797595 0.34958893 0.41771734 0.48936835
000180 05 c6 0c 3f 73 fc 1c 3f a8 8b 2c 3f 7f e2 3b 3f
       0.54989654 0.61322707 0.674006 0.7339248
000190 f0 c6 4a 3f 0f 3e 58 3f fb ac 66 3f 2b 40 77 3f
       0.79209805 0.84469694 0.901077 0.9658229
0001a0 fb 2f 83 3f 51 73 8b 3f ba fd 92 3f f5 de 99 3f
       1.0249017 1.0894567 1.1483681 1.2021166
0001b0 5c 1d 9f 3f 25 5d a3 3f 8a c2 a6 3f f3 40 ab 3f
       1.2430835 1.27628 1.3028119 1.3379196
0001c0 d0 48 af 3f 71 0d b3 3f a3 83 b6 3f 07 a3 ba 3f
       1.3694096 1.3988477 1.4258922 1.4581002
0001d0 bc 5a be 3f 64 26 c2 3f 9a bc c5 3f 86 96 c8 3f
       1.487144 1.5167966 1.5448182 1.5670936
0001e0 1d fa 70 3f b6 a9 77 3f c2 31 77 3f a2 71 76 3f
       0.9413164 0.96743333 0.965603 0.9626714
0001f0 3c 3b 74 3f c8 d5 72 3f aa a1 74 3f 90 b6 73 3f
       0.95402884 0.94857454 0.9555918 0.95200443
000200 cc c5 74 3f 33 1b 72 3f 01 1a 71 3f 44 8d 76 3f
       0.95614314 0.9457275 0.94180304 0.96309304
000210 a8 3d 7b 3f 24 5f 7c 3f eb 72 67 3f 15 75 6c 3f
       0.98140955 0.98582673 0.90409726 0.92366153
000220 85 02 68 3f 9e ae 62 3f 0a 42 5f 3f 04 1f 69 3f
       0.90628844 0.88547695 0.8721014 0.9106295
000230 f8 e7 5f 3f ba d2 61 3f f2 79 62 3f 89 98 6a 3f
       0.8746333 0.8821217 0.88467324 0.91639
000240 c3 8f 6f 3f 3c 9b 7e 3f 6a 05 7b 3f c6 ed 81 3f
       0.9357874 0.9945562 0.98055136 1.0150688
000250 8b 0d 79 3f 59 08 75 3f 9a bb 6c 3f e5 bb 73 3f
       0.9728629 0.9571586 0.9247376 0.9520858
000260 91 45 69 3f fe f7 66 3f 48 86 5d 3f 0f ef 5b 3f
       0.91121775 0.90222156 0.8653302 0.8591165
000270 da 28 57 3f 4e 09 5f 3f 7f 1c 62 3f 75 f2 63 3f
       0.8404671 0.8712357 0.8832473 0.89041835
000280 4c 87 65 3f 0a 97 69 3f d5 81 64 3f 04 68 6c 3f
       0.8965957 0.9124609 0.8926061 0.92346215
000290 08 38 63 3f d8 a4 5f 3f 84 93 66 3f 82 10 5f 3f
       0.8875737 0.87360907 0.9006884 0.87134564
0002a0 33 b9 63 3f e1 f4 64 3f 9c 10 63 3f c4 b7 5c 3f
       0.88954467 0.89436156 0.8869722 0.86217904
0002b0 cc 62 68 3f 9f 15 70 3f 58 6b 77 3f ac a0 69 3f
       0.9077575 0.9378299 0.9664817 0.9126079
0002c0 26 e8 77 3f 2f 97 6c 3f ca e3 68 3f 4a 80 69 3f
       0.96838605 0.9241819 0.9097258 0.9121138
0002d0 da 44 73 3f ed 78 6e 3f 44 92 68 3f c3 ab 68 3f
       0.95026934 0.9315327 0.90848184 0.9088709
0002e0 3a 92 69 3f 58 f1 65 3f 80 ef 69 3f da 94 5c 3f
       0.9123875 0.89821386 0.91381073 0.8616463
0002f0 f5 9c 6f 3f aa 59 6c 3f 20 04 72 3f 3e 21 6f 3f
       0.9359887 0.92324317 0.94537544 0.934101
000300 85 38 72 3f 15 b3 73 3f 08 47 75 3f 86 75 76 3f
       0.9461749 0.9519513 0.9581151 0.96273077
000310 7d 8d 6b 3f e9 cf 67 3f aa b2 73 3f 24 f4 71 3f
       0.9201277 0.9055162 0.95194495 0.94513154
000320 18 dd 7b 3f d0 1a 7d 3f 4c f8 78 3f aa 23 76 3f
       0.9838424 0.9886904 0.9725387 0.9614817
000330 43 3a 7e 3f 48 ef 81 3f 2f a7 77 3f c3 bf 77 3f
       0.9930765 1.0151148 0.96739477 0.9677698
000340 1b 7c 78 3f 5e 4e 80 3f c1 7c 78 3f 74 af 79 3f
       0.9706437 1.0023916 0.9706536 0.97533345
000350 b5 f0 74 3f b5 7a 7b 3f 8b 64 6e 3f 67 fb 71 3f
       0.9567979 0.9823411 0.93122166 0.94524235
000360 d9 9d 81 3f 3e 93 82 3f 23 58 7d 3f 23 7f 7c 3f
       1.0126296 1.0201185 0.9896261 0.98631495
000370 00 83 7d 3f a4 c5 77 3f f4 e4 7f 3f 43 d5 74 3f
       0.99028015 0.9678595 0.9995873 0.9563791
000380 68 58 7d 3f 77 81 7b 3f 7b 7f 79 3f e7 d4 74 3f
       0.9896302 0.9824442 0.97460145 0.95637363
000390 74 72 80 3f 33 de 72 3f a0 5e 74 3f b6 98 6e 3f
       1.0034928 0.948703 0.95456886 0.9320177
0003a0 85 46 73 3f 48 e5 71 3f 47 5f 75 3f 38 86 76 3f
       0.9502948 0.9449048 0.95848507 0.9629855
0003b0 49 49 64 3f a3 cb 6a 3f e9 42 75 3f 1f 31 70 3f
       0.89174324 0.91716975 0.9580522 0.9382495
0003c0 00 00 00 00 6e 1c 27 ba 00 c5 b1 3b 65 3f 22 3c
       0.0 -0.0006374781 0.0054250956 0.00990281
0003d0 93 88 c2 3c e6 fb 0d 3d f1 2e 30 3d f9 6e 44 3d
       0.023746764 0.034664057 0.043013517 0.047957394
0003e0 0e ab 62 3d 5e 42 83 3d 99 2b 9d 3d 30 e9 c1 3d
       0.05533891 0.06409143 0.07674331 0.09468305
0003f0 c7 95 ec 3d 39 04 ff 3d ff b9 0d 3e 5a 75 1e 3e
       0.11552005 0.12451977 0.13840483 0.15474454
