to_fbx/mdm_np_original_result/unused/A_person_hops_on_one_foot_and_claps_hands_above_head_smpl_3Dparams.npz (npz, 36516 bytes, 2 tensors)

body_pose (column-major) f4 [120, 72]
00000000: 35c7 663c 39fb 503c 0036 3b3c 4d97 283c
00000010: 9dd7 073c 4c18 2d3b c1d9 1cbc cecc 1ebd
00000020: b20a 96bd 7465 b6bd cf07 bdbd 4c8b 72bd
00000030: fe10 debc 94c3 10bc 3f35 89bb bcc7 00bc
00000040: a069 99bc 1739 1abd bcea 29bd 02f3 9fbd
00000050: 58a5 cebd 5510 adbd 313f 88bd 2354 32bd
00000060: af28 08bd fe00 cabc 817e adbc c256 03bd
00000070: 3845 3ebd 4330 84bd bca0 c8bd cbd7 c5bd
00000080: 4291 b5bd 85fe 6cbd 620e 12bd 28c0 f0bc
00000090: f649 8bbc 32b0 78bc 6a0a b3bc bf2b 2cbd
000000a0: c86b 9dbd 1bd1 c8bd a18c 08be 5f2e 17be
000000b0: 85e7 0dbe eeb0 e6bd 013a a3bd b34b 5abd
000000c0: 3380 16bd b746 1ebd cfa6 5ebd 6053 b0bd
000000d0: 5259 f1bd 6c91 24be bbad 3fbe f5c1 43be
000000e0: dc9f 1fbe 1e1a e1bd 5a4c 5cbd cae7 98bc
000000f0: fff6 e53b 043f b93c 3d3a fb3c 64f5 0f3d
00000100: f69e 1a3d 7be6 203d c3dc 223d 45c7 1d3d
00000110: e307 093d ac98 e93c 910d e03c 1a80 f53c
00000120: 997e 0a3d 0be0 183d a38d 213d a83b 263d
00000130: bc75 2a3d a631 2f3d e4c7 333d 0bba 353d
00000140: 1418 2b3d 2156 093d 7ab6 b03c 09ed adbb
00000150: 45b0 2ebd baf4 84bd d7df 8ebd a14a 24bd
00000160: c8aa 0dbc 7ecf 303c 0847 8c3c fda0 9f3c
00000170: e5d4 293d d932 183c 7560 98bd 5cd7 00be
00000180: 628b 24be d330 30be 57f1 23be 7176 ffbd
00000190: 89a0 81bd eb72 a4bc 5187 183d 6420 193d
000001a0: 9523 fc3c 942b 723c efe4 8bbc c2b6 b8bd
000001b0: 4784 efbd d0cd c6bd 168e 5bbc de2b c23c
000001c0: be51 443d 4057 4a3d d99f 313d ad30 f43c
000001d0: cef9 f83b 3fbe 85bc c913 11bd 3410 3cbd
000001e0: 3907 963c 47ed a03c adce a93c 8719 b43c
000001f0: fd3a dc3c 5fed 103d 7fb8 403d 4a73 8a3d
00000200: 1d54 863d 480e 8b3d 89de 993d 5d4e a63d
00000210: c036 a73d 2572 a73d df66 9c3d 7227 953d
00000220: db94 8a3d 4191 8d3d c733 793d f73a a63d
00000230: f018 ad3d 1d36 993d 064e 6c3d ebd1 593d
00000240: efae 7c3d f990 883d 1f84 8b3d c72c 9a3d
00000250: 3f03 bf3d e906 c93d 0990 e33d 3ac6 f63d
00000260: b9d6 eb3d 3c54 ff3d b6e9 ff3d 26d8 f43d
00000270: 54b5 c93d efc1 a53d 9a9e 8c3d 216f 813d
00000280: e142 6b3d 47db 6e3d 3907 a03d e9a0 b23d
00000290: 79ea b73d 613e bf3d 925d a73d 4df3 973d
000002a0: 5f7b a23d cb60 b63d c227 c63d 7e74 c43d
000002b0: 0eef f13d 8a7c f83d ecf3 013e 9f11 db3d
000002c0: 3bb7 d73d fdf3 c23d ca7b 983d 9724 5e3d
000002d0: d029 183d 049a df3c 85e0 bd3c c5c3 b13c
000002e0: 36bb b23c 4b03 ca3c d7bf f13c 6d95 f83c
000002f0: 25a8 603c f673 98bb d037 68bc 93fb a5bc
00000300: 5310 8dbc 92d0 17bb c560 7b3c ef4e e63c
00000310: 8256 183d 6d3e 343d 24f1 483d 30da 583d
00000320: 1efe 7d3d 4a8e a53d a834 c93d 6513 f63d
00000330: 8904 133e 108c 2c3e 1c3d 3e3e 4600 3f3e
00000340: 9151 353e f1ca 2e3e 989d 1f3e 7b0d 1d3e
00000350: 0ecb 2a3e aac9 283e fb4d 2f3e 1003 313e
00000360: 6dec 333e 29be 333e 781e 363e 050a 3e3e
00000370: 538b 443e 7c36 4d3e 468a 3f3e bb22 393e
00000380: 2354 3a3e d823 393e 4ee8 363e b0fb 363e
00000390: ccd8 383e 18b9 403e 2ab1 3b3e 4275 3a3e
000003a0: 9578 3b3e 50a5 353e 6c79 383e 96be 363e
000003b0: 1c27 333e 58fa 313e e91c 343e dc6c 353e
000003c0: 5eef 2fbd df44 36bd 392b 3ebd 2008 46bd
000003d0: 963e 4ebd 3e3f 54bd bd03 52bd 9e92 2bbd
000003e0: 93de 3abd 012d 23bd adc2 04bd 947c eebc
000003f0: 11b1 dfbc 19b9 afbc da7c bfbc 147f d4bc
0.014085581 0.012755209 0.011426449 0.010289979 0.008291152 0.0026412187 -0.009573401 -0.038769536
-0.07326259 -0.089060694 -0.09230005 -0.059214875 -0.027107712 -0.008835692 -0.0041872556 -0.00786012
-0.018727124 -0.0376521 -0.041483626 -0.07810022 -0.100901306 -0.08450381 -0.06652678 -0.04353727
-0.033241924 -0.024658676 -0.021178486 -0.03206516 -0.04645273 -0.06454518 -0.09796283 -0.096603
-0.08865596 -0.057859916 -0.035658248 -0.029388502 -0.01700304 -0.015178727 -0.021855552 -0.042033907
-0.07686573 -0.09805509 -0.13334896 -0.14763783 -0.13857849 -0.112642154 -0.07970048 -0.05329485
-0.036743354 -0.038641658 -0.0543583 -0.086096525 -0.117846146 -0.16071099 -0.18718617 -0.19116957
-0.15588325 -0.109913096 -0.053783752 -0.018665213 0.0070179696 0.022613056 0.030667419 0.035146132
0.037749253 0.039282303 0.039761316 0.038520116 0.033454787 0.028515182 0.027350219 0.02996831
0.03381214 0.03732304 0.039441716 0.040584236 0.041616186 0.042771958 0.043891802 0.044366878
0.04177101 0.033529405 0.021571387 -0.005307798 -0.042648572 -0.064919904 -0.06976288 -0.040110234
-0.008646674 0.0107916575 0.017123714 0.019485945 0.041462798 0.009289467 -0.07440273 -0.12582153
-0.16068795 -0.17206125 -0.16010033 -0.12473763 -0.06329448 -0.020074328 0.037238423 0.037384406
0.030778686 0.014780898 -0.017076937 -0.09019233 -0.11695152 -0.09707224 -0.013400575 0.023702558
0.047929518 0.049399614 0.043365333 0.029808367 0.0075981384 -0.016326068 -0.03541926 -0.04591389
0.01831399 0.019644393 0.020728434 0.021984829 0.026883597 0.035382625 0.04705095 0.06760271
0.06559012 0.06789833 0.07513148 0.08120415 0.081647396 0.08176068 0.076368086 0.07282914
0.06766673 0.069124706 0.060840394 0.081167154 0.08452022 0.074810244 0.057691596 0.05317871
0.061690267 0.06668276 0.068123095 0.07528072 0.09326791 0.09815771 0.11111457 0.120495275
0.115155645 0.12467238 0.12495749 0.119552895 0.09849039 0.080936305 0.06866188 0.06320024
0.057436828 0.058314588 0.078138776 0.087220974 0.08980269 0.0933807 0.08172144 0.07419453
0.079336874 0.089051805 0.09675552 0.095925316 0.11813174 0.12133129 0.12690705 0.1069672
0.10532995 0.09519193 0.07445486 0.054234114 0.03714925 0.02729512 0.023178348 0.021699795
0.021817785 0.024659773 0.029510422 0.03034469 0.013711964 -0.0046524955 -0.014173463 -0.020261561
-0.017219698 -0.002316509 0.015342896 0.02811381 0.037191875 0.044004846 0.049058095 0.052942455
0.062009923 0.0808378 0.098244965 0.12015418 0.14357199 0.16850305 0.18577999 0.18652448
0.17706896 0.17069604 0.15587461 0.15337174 0.16679022 0.16483179 0.17119591 0.17286325
0.17570658 0.17553009 0.1778506 0.1855851 0.19193773 0.20040315 0.18705091 0.18079655
0.18196158 0.1808008 0.17862055 0.17869449 0.18051451 0.18820608 0.18329301 0.18208793
0.18307717 0.17738843 0.18015069 0.1784614 0.17495388 0.17380655 0.17589153 0.17717308
-0.042952888 -0.044499274 -0.04642794 -0.048347592 -0.050352655 -0.051818125 -0.051273096 -0.041887872
-0.04562242 -0.03983784 -0.03241222 -0.029112138 -0.027306112 -0.021450566 -0.023374964 -0.025939502

transl (column-major) f4 [120, 3]
00000000: 0000 0000 c55e 7f3a a850 023b 4024 463b
00000010: 9778 843b fc5d 9d3b 5dcf a33b d900 973b
00000020: c5ab 823b dc11 5e3b 52e5 483b 7f97 3a3b
00000030: c3cc 363b 442a 373b ad10 6a3b fd43 983b
00000040: ca1a ce3b b41f fc3b 24fa 0b3c 2d3c 153c
00000050: 4177 1a3c 66ba 163c 9bd0 053c faed ea3b
00000060: 4fbd d23b 4003 ca3b 4c9d c83b 2e10 af3b
00000070: c873 763b 7afb d33a ee96 3c38 e274 4dba
00000080: 9220 9bba 24e6 8eba 85d8 96ba d840 f5ba
00000090: 3197 e0ba cf8a 8cba 3a35 e038 8786 d83a
000000a0: 848a 3b3b 26f8 7e3b baf4 aa3b 83b3 cf3b
000000b0: 33d9 e83b 0e17 f03b b6e1 d63b bed9 bb3b
000000c0: cb1f b63b 36d0 c33b dd38 f13b 9d7b 133c
000000d0: 5229 2a3c 82c6 4c3c e700 703c bce3 873c
000000e0: d0d5 903c d414 903c eb23 873c 6476 733c
000000f0: a000 5c3c 39aa 503c a8a2 543c fcb7 653c
00000100: c515 7f3c 6ce7 8d3c 8c87 9a3c 23a1 a13c
00000110: 8720 9f3c d22a 8d3c f4bb 5a3c c3c0 103c
00000120: e154 983b 83ca c03a f968 dab9 d738 abba
00000130: 8c87 cfba 05e0 beba de27 8aba 449a e1b9
00000140: bc9e fa39 3380 e23a 5831 4b3b 708e 783b
00000150: 9e70 5b3b bf77 223b 889e ec3a 84a0 8a3a
00000160: 8895 99b8 5267 cbba 826d 38bb 00fe 69bb
00000170: b9f9 83bb e161 a5bb 68bd c1bb d3be d4bb
00000180: 06ce d7bb 589e d0bb 3830 c2bb 2661 adbb
00000190: d07d 96bb dc21 71bb c9d1 2bbb c494 abba
000001a0: a5b5 453a ec9a 213b 03c3 6a3b e504 963b
000001b0: 0f7a bf3b 2524 f33b eec8 113c 6996 283c
000001c0: a37e 333c c3c9 453c 77bd 603c dcd2 743c
000001d0: ee07 823c 5edf 8a3c 5965 963c 450a a43c
000001e0: 45fa 793f d9e0 793f bedc 793f 7ae1 793f
000001f0: 35ca 793f 6a47 793f f2e0 773f 3fc6 743f
00000200: b9da 6f3f 1f5f 6b3f 7028 6c3f 4d92 773f
00000210: dbeb 823f c251 893f 65fb 8c3f fac3 8c3f
00000220: 412a 893f ccc4 813f a31b 733f 0c53 673f
00000230: cda1 623f d897 683f d373 793f 03ec 853f
00000240: 5067 8b3f d986 8e3f 2200 8e3f 0b98 883f
00000250: 28c8 813f dedf 6f3f f665 623f 2825 5e3f
00000260: 08bd 613f c86e 703f a0a0 803f 20ba 883f
00000270: fbda 8d3f 4bba 8f3f 685d 8d3f 6977 863f
00000280: 1d79 773f 6088 683f cec0 5f3f 44b5 5b3f
00000290: a42e 5c3f a74d 643f e3fb 793f 1137 863f
000002a0: 6439 8c3f 3a86 8e3f e2fc 8a3f 3032 823f
000002b0: d765 703f 4630 643f a8f5 603f 33a5 633f
000002c0: 9be7 693f 2492 703f ab0b 763f da8e 793f
000002d0: 8eac 7a3f 2997 7a3f 8ca5 7a3f bcd4 7a3f
000002e0: e9e8 7a3f 2ad0 7a3f 479f 7a3f 9e4d 7a3f
000002f0: 7b09 7a3f d82e 7a3f 732d 7a3f b154 7a3f
00000300: 0576 7a3f 597d 7a3f b57b 7a3f 8069 7a3f
00000310: b951 7a3f 6e33 7a3f a414 7a3f a7fe 793f
00000320: 4beb 793f f06f 793f e75b 783f 50df 753f
00000330: 9696 703f 8b4b 6c3f 7688 6d3f f56f 7a3f
00000340: 7b58 843f 360e 8a3f d10c 8d3f 700e 8d3f
00000350: 888a 883f 4f7c 823f f697 793f a0ac 6e3f
00000360: 8e31 673f f85d 643f ba1b 663f f25b 6d3f
00000370: 2785 7a3f 5684 843f 6c81 893f dd99 8b3f
00000380: 364c 8a3f 9f4d 863f 6f8c 803f 4375 743f
00000390: 626f 6d3f bb79 703f 5fc4 7b3f bff6 843f
000003a0: 9fdf 893f 5dc1 8b3f f448 8a3f d3a4 863f
000003b0: 0f6d 823f e8e2 7d3f 63f1 783f e966 763f
000003c0: 0000 0000 fbc7 9f3a 30cb 1f3b c3b5 783b
000003d0: 1bd5 ac3b be67 df3b a144 0c3c 6534 2c3c
000003e0: 8fb7 543c 028a 893c 8b15 b73c 0bbd f23c
000003f0: aca9 193d cd06 2d3d 68a7 343d eb27 403d
0.0 0.00097416 0.00198845 0.003023401 0.0040426957 0.0048024636 0.004999085 0.0046082553
0.0039877617 0.0033885157 0.0030654264 0.0028471646 0.0027893044 0.0027948776 0.0035715506 0.0046467767
0.0062898146 0.007694209 0.008543525 0.009108585 0.009427846 0.009199714 0.008167411 0.0071694823
0.0064312587 0.006164938 0.006122267 0.005342505 0.0037605632 0.0016172968 4.4963257e-05 -0.0007837546
-0.0011835268 -0.0010902327 -0.001150862 -0.0018711342 -0.0017134902 -0.001072252 0.000106910666 0.0016519584
0.0028616497 0.0038905232 0.005217162 0.006338538 0.0071059703 0.007326967 0.0065576686 0.005732744
0.0055579892 0.0059757484 0.007361515 0.00900164 0.010385828 0.0124985 0.014648653 0.016588084
0.017680079 0.017588057 0.01649662 0.0148597695 0.013427883 0.012735897 0.012978233 0.014020916
0.015569155 0.017322265 0.018863462 0.019730156 0.01942469 0.017232332 0.013350476 0.0088350205
0.00464879 0.0014708791 -0.0004165841 -0.0013063204 -0.0015833243 -0.0014562613 -0.0010540446 -0.0004303028
0.00047801982 0.0017280638 0.0031004753 0.0037926696 0.0033483873 0.0024790613 0.0018052617 0.0010576402
-7.323461e-05 -0.0015518463 -0.0028141444 -0.0035704374 -0.004027572 -0.0050470685 -0.0059124716 -0.0064924746
-0.006585839 -0.0063665323 -0.0059261583 -0.005291122 -0.0045926347 -0.0036793863 -0.002621757 -0.00130906
0.0007542021 0.002465899 0.0035821802 0.00457822 0.005843408 0.0074200802 0.008898003 0.010289767
0.0109554855 0.0120720295 0.013717047 0.014942851 0.015872922 0.016952213 0.018358873 0.020024428
0.97647506 0.97608715 0.9760245 0.97609675 0.9757417 0.97374594 0.96827614 0.95615
0.9369312 0.9194202 0.922492 0.9670761 1.0228227 1.0728076 1.101422 1.0997307
1.071602 1.0138183 0.94964045 0.90361094 0.8852814 0.90856695 0.9744236 1.046265
1.0890903 1.1134902 1.109379 1.06714 1.0139208 0.9370097 0.8843683 0.86775446
0.88179064 0.9391904 1.0049019 1.0681801 1.1082453 1.1228727 1.104413 1.0505191
0.9666918 0.9083309 0.8740357 0.85823464 0.8600867 0.8918099 0.97649974 1.0485555
1.0955014 1.1134713 1.0858424 1.0171566 0.93905395 0.8913616 0.8787484 0.8892395
0.91369027 0.9397299 0.96111554 0.974836 0.9791955 0.978869 0.97908854 0.97980857
0.9801164 0.97973883 0.9789929 0.97774684 0.97670716 0.9772773 0.977256 0.9778548
0.97836334 0.97847515 0.9784501 0.9781723 0.9778095 0.97734725 0.97687745 0.97654194
0.97624654 0.9743643 0.9701523 0.9604387 0.93979776 0.9230277 0.9278635 0.9782708
1.0339502 1.0785587 1.1019536 1.1020031 1.0667276 1.0194186 0.974975 0.93232155
0.9030999 0.89205885 0.8988606 0.9271842 0.97859424 1.0352886 1.0742621 1.090633
1.0804508 1.0492438 1.0042857 0.9549143 0.9274808 0.93935746 0.98346514 1.0387801
1.0771369 1.0918385 1.0803514 1.051905 1.0189532 0.99174356 0.97243327 0.9625078
0.0 0.0012190336 0.0024382584 0.0037950135 0.0052744276 0.006817787 0.008561284 0.010510539
0.012983217 0.01678944 0.02234914 0.029631158 0.037515327 0.042242814 0.044104964 0.04691307
