to_fbx/mdm_np_original_result/unused/A_person_does_a_cartwheel_and_then_runs_in_a_zigzag_pattern_smpl_3Dparams.npz (npz, 36516 bytes, 2 tensors)

body_pose (column-major) f4 [120, 72]
00000000: 6d8c 903d e576 a63d 67e4 d03d 0279 133e
00000010: 13a9 5f3e 0847 ce3e f23a 083f e251 1f3f
00000020: 860f 343f 9e8d 503f 3300 9e3f c9c4 b23f
00000030: 62bb bf3f e693 ca3f a475 d33f 2e8e d73f
00000040: 6e17 d93f 89c8 9d3f a230 a73f 38aa ba3f
00000050: 312c d13f 11ca dd3f ad1c eb3f e265 f73f
00000060: cbfe 0340 641f 1040 5a7f 1740 af4d 1340
00000070: 7d78 0940 c1a1 fb3f 43fc dfbf b023 c3bf
00000080: 9963 98bf afa1 26bf 989d 19bf 7486 0cbf
00000090: c7fb dfbe 6de8 71be b294 1bbe 7eb4 e2bd
000000a0: d511 a6bd 084f 76bd d801 aebd 74c4 02be
000000b0: aa76 48bc 4ab1 b8bc 2ebc da3b 79c5 4e3c
000000c0: 0e6c 853d 907c 413e 7ed6 8a3e fa56 b53e
000000d0: eee0 dbbe dcc2 833f 7524 5bbc 74e8 303e
000000e0: f3ff 893e d1d6 0bbe 3ad0 863e 83a0 3c3f
000000f0: cd2d 5e3f 37c6 603f 8219 563f 2220 623f
00000100: 9629 6a3f 84f1 723f 9008 833f b4a7 903f
00000110: 318d c63f 8559 d63f 825f e63f db8d ff3f
00000120: a300 0c40 7ecf 1340 c214 1b40 26af 2240
00000130: ee2f 2840 c3ac 2940 d7cf 2240 fec9 0c40
00000140: 4c6d f03f 003c c63f 2903 bd3f e80e 0cbf
00000150: 22da 84be f196 f33d 85e0 c83d e2a3 9f3d
00000160: 13fe b53d e025 c53d f333 c43d c440 093e
00000170: ee4f 273e 8c8e 513e df2e 473e 30ab 673e
00000180: 7692 813e c992 8b3e 371b 913e 50be 903e
00000190: 54f9 713e a2c0 253e 45d4 0b3e 5c58 ed3d
000001a0: fb99 be3d b2c1 803d 101f 413d f9a0 753d
000001b0: 61c2 943d 8496 973d 7d22 9c3d 97d6 a13d
000001c0: 114d a83d b744 a83d 9274 973d cd62 953d
000001d0: b088 943d 673c 953d f0e2 963d 2904 993d
000001e0: 3b6c cb3c f27a 38bd bc51 16be 4a8b 88be
000001f0: da74 d2be 1c14 1dbf 81f4 4ebf ecc0 73bf
00000200: 63b5 8dbf 5734 a5bf 1df6 b7bf 0994 b5bf
00000210: 25f6 b0bf 009a acbf de13 a3bf 4b99 8ebf
00000220: 6d0c 87bf 3500 a6bd d988 29be 7d98 77be
00000230: a6ae 91be bed0 a0be 6961 aebe 37c8 bbbe
00000240: 973e d1be 5750 fcbe 1f52 18bf 22c8 36bf
00000250: e339 5dbf bdd6 92bf 9bc2 c13f 8653 dc3f
00000260: 3d65 e23f a434 ed3f 9247 a73f a6f0 8b3f
00000270: dab9 513f 306e d03e 0b15 2b3e 73a6 f53c
00000280: eff7 9fbd b705 40be 1b67 99be 1333 f1be
00000290: 833b a7bf 0970 a4bf b212 b0bf c4ef b6bf
000002a0: 1828 b4bf 680b 9ebf bc07 8abf 8091 6fbf
000002b0: 520a 383f 7fca 263f 6806 1a3f 8eb4 2a3f
000002c0: b1c6 483f 2ad7 603f c069 ad3f 216e f93f
000002d0: 83ab 0140 1e25 0340 8416 0740 2777 0240
000002e0: 9789 f83f 63e4 eb3f 35c7 de3f fd7e d23f
000002f0: f517 b73f e337 9b3f 899c 833f e1f0 4d3f
00000300: e735 1b3f dfb0 ec3e 5111 973e 7178 0a3d
00000310: db92 63be 396f ddbe 1adc 26bf 0e04 80bf
00000320: f039 b2bf 5e67 d1bf a287 f9bf 8d85 fd3f
00000330: 3de9 4a3e 46a1 8ebf cb64 9abf c14f bdbf
00000340: 459c ddbf e38a f3bf 18bc 02c0 ac05 08c0
00000350: 2001 0fc0 64e7 14c0 1f14 1ac0 9064 1dc0
00000360: 00cc 1fc0 79df 20c0 8775 20c0 3604 1dc0
00000370: aeae 13c0 0d6b 0bc0 1a25 05c0 981e fabf
00000380: 8da1 e0bf fb4e bdbf d4b1 9dbf 93a0 89bf
00000390: cf44 82bf b739 7dbf aa59 7bbf feb1 7dbf
000003a0: b85c 81bf 2e78 84bf 11cd 88bf b5ca 8cbf
000003b0: 2bdb 90bf 39ee 94bf 99e5 98bf 71bc 9cbf
000003c0: 23ee 233d 0ff3 6c3d befc ac3d 2256 ef3d
000003d0: e070 1f3e 20c5 713e fb79 8d3e 9ea8 a63e
000003e0: fb1b b33e 86e7 ae3e c2b2 b03e 9bcc cd3e
000003f0: aa38 d53e 3f6c d73e 7b39 bd3e d8e8 5c3e
0.07058034 0.08128146 0.10199814 0.1440163 0.2184184 0.40288568 0.53214943 0.6223432
0.70336187 0.8146609 1.2343811 1.3966304 1.497906 1.5826385 1.6520276 1.6840265
1.6960275 1.2326823 1.3061717 1.4583197 1.6341611 1.7327291 1.8368126 1.9327967
2.0624263 2.251916 2.367148 2.3016164 2.147979 1.9658738 -1.7498859 -1.5245266
-1.1905395 -0.6509046 -0.60006094 -0.5489266 -0.43746778 -0.2362382 -0.15193442 -0.110695824
-0.0810887 -0.060133964 -0.084964454 -0.12770253 -0.012235323 -0.022545476 0.006675265 0.012620323
0.065147504 0.18895173 0.2711677 0.3541792 -0.42945045 1.0293841 -0.013375391 0.17276174
0.26953086 -0.13656165 0.2633074 0.7368242 0.86788636 0.8780245 0.8363267 0.8833028
0.91469705 0.94899774 1.0236988 1.1301179 1.5511838 1.6746069 1.7997897 1.9965166
2.1875389 2.3095393 2.423142 2.5419402 2.6279254 2.6511695 2.5439355 2.1998286
1.8783355 1.548706 1.4766589 -0.54710245 -0.25947672 0.11894024 0.09808449 0.0779493
0.088863514 0.09626365 0.09580221 0.13403612 0.16339085 0.20464534 0.19451474 0.22623897
0.25307053 0.27260426 0.28341076 0.28270197 0.23630267 0.16186765 0.13655193 0.11589119
0.09306713 0.062869444 0.047148764 0.05996797 0.07263637 0.074017555 0.076237656 0.07902258
0.08217824 0.08216231 0.07395281 0.072942354 0.072526336 0.072869115 0.07367504 0.074714966
0.024831882 -0.045039125 -0.14679617 -0.2666877 -0.41104776 -0.6135881 -0.80841833 -0.9521625
-1.107098 -1.2906598 -1.4371983 -1.4185802 -1.3825117 -1.3484497 -1.2740438 -1.1140531
-1.0550667 -0.08105508 -0.1655611 -0.24179263 -0.2845356 -0.31409258 -0.34058693 -0.3667619
-0.40868065 -0.49280044 -0.59500307 -0.7139913 -0.86416453 -1.1471783 1.5137514 1.7212989
1.7687145 1.853169 1.3068717 1.0932815 0.8192421 0.40709066 0.16707246 0.029986596
-0.078109615 -0.1875218 -0.29961476 -0.4710928 -1.3065037 -1.284669 -1.3755705 -1.4291921
-1.4074736 -1.2347231 -1.078361 -0.9358139 0.7189075 0.65152735 0.60166025 0.66681755
0.7842818 0.87828314 1.3547897 1.9486734 2.0260932 2.0491405 2.1107492 2.0385225
1.9416989 1.8429073 1.7404543 1.6445004 1.4304186 1.212643 1.0282146 0.8044568
0.60629123 0.46228692 0.295054 0.033806268 -0.2222399 -0.4324892 -0.651796 -1.0001237
-1.3923931 -1.635967 -1.9494517 1.9806381 0.19815536 -1.1142967 -1.206201 -1.4789964
-1.7313315 -1.902676 -2.0427303 -2.1253462 -2.2344437 -2.326623 -2.407478 -2.4592628
-2.4968262 -2.5136397 -2.5071733 -2.453382 -2.3075366 -2.1784089 -2.0803895 -1.9540586
-1.7549301 -1.4789728 -1.2319894 -1.0752128 -1.0177249 -0.9891619 -0.9818369 -0.9909972
-1.010642 -1.0349176 -1.0687581 -1.0999361 -1.1316885 -1.16352 -1.1945068 -1.2245008
0.040022027 0.057848986 0.08446644 0.116863504 0.15570402 0.23610353 0.27632126 0.3255052
0.34982285 0.34161013 0.3451138 0.40195164 0.41644794 0.42074773 0.36957917 0.21573198

transl (column-major) f4 [120, 3]
00000000: 0000 0000 60fa 5bbc 6463 ffbc 4e19 66bd
00000010: a4f7 b9bd f08b 0cbe 28fb 42be 09a5 7abe
00000020: 96bd 9abe 8e2e bbbe fef5 e1be fe6f 07bf
00000030: 0d0f 1dbf c2e8 32bf f29e 48bf a46f 5dbf
00000040: f40f 6fbf 537a 7ebf 0899 83bf beb5 88bf
00000050: 382e 8ebf e796 93bf 6720 99bf 60b6 9ebf
00000060: 7341 a4bf 5670 a9bf 809c adbf 3499 b0bf
00000070: bcff b2bf fd36 b5bf c98a b7bf e838 babf
00000080: 535d bdbf e326 c1bf 4cc3 c6bf 8173 ccbf
00000090: 9318 d1bf c393 d4bf bdc8 d6bf 2922 d8bf
000000a0: ade5 d8bf b21d d9bf b359 d9bf ada1 d9bf
000000b0: 7e30 dabf 4fc6 e3bf f873 edbf 6655 f7bf
000000c0: 908c 00c0 bc5c 05c0 a3cf 09c0 0fd5 0dc0
000000d0: c149 11c0 29f5 13c0 2c4b 16c0 f0c7 18c0
000000e0: 0f7c 1bc0 9580 1ec0 db3c 1ec0 b9e4 1cc0
000000f0: f41e 1bc0 8b04 19c0 aa86 16c0 60fe 12c0
00000100: d59f 0ec0 8ce2 09c0 0ee6 04c0 c586 ffbf
00000110: 6d2c f5bf 5426 eabf fbd0 debf bb65 d3bf
00000120: d469 c8bf 2b30 bebf 29a8 b4bf 390e acbf
00000130: 7a1e a5bf f19e 9fbf f54f 9abf 577e 94bf
00000140: 5804 8ebf db33 88bf 0d5b 84bf d9a0 82bf
00000150: 5084 8bbf ee54 95bf 8ae9 9ebf 76d9 a6bf
00000160: 06e2 abbf 2ae6 aebf 997a b1bf 9f59 b4bf
00000170: 4f05 b8bf 2181 bcbf fe5c c1bf bf3c c6bf
00000180: e6ca cabf 5fe9 cebf 919e d2bf 3503 d6bf
00000190: 8f24 d9bf 5cf7 dbbf 316f debf e4d4 e0bf
000001a0: 5c9f e3bf 4469 e7bf e868 ecbf c22e f2bf
000001b0: bc01 f8bf 1483 fdbf cb5a 01c0 52c6 03c0
000001c0: 0eff 05c0 0b00 08c0 07af 09c0 ad1f 0bc0
000001d0: 0e5e 0cc0 9875 0dc0 db6f 0ec0 a952 0fc0
000001e0: fd6a 733f 9c28 723f e30d 703f 4ff4 6c3f
000001f0: 7fc7 693f da10 693f b5d3 693f 975c 673f
00000200: 4c85 633f 446e 5e3f 4a79 573f cadd 563f
00000210: 31e9 593f 6e5d 5e3f 9337 653f 8a88 6c3f
00000220: 4fae 6e3f 4254 6f3f fb96 733f b7f5 7c3f
00000230: 3576 823f 5078 843f 9464 863f 0048 883f
00000240: 3cb7 8a3f de90 8c3f a058 8b3f 8ed5 893f
00000250: d56b 893f a95e 883f b5ba 853f 3c44 803f
00000260: 836e 6f3f 8c41 5d3f e3a8 5b3f 8c93 5e3f
00000270: 6536 643f cbcf 6c3f 4970 6e3f ee15 6e3f
00000280: c055 6d3f 3752 6d3f edc2 6c3f 08b8 6b3f
00000290: b7fa 633f def0 623f da84 693f 246f 6e3f
000002a0: 8da1 7a3f 4e09 843f 65c4 873f 5be8 8a3f
000002b0: 773b 8b3f 00f3 883f 7737 883f ed6e 873f
000002c0: ce6c 843f ee78 543f 9fcf 5b3f 314e 5f3f
000002d0: ff7c 613f 63c7 633f 5f85 643f b0b2 623f
000002e0: 12a4 613f 50ea 603f 86bd 613f 75c0 613f
000002f0: d3b3 653f 21e4 6c3f b879 743f f058 803f
00000300: 3e0d 853f 58a2 873f 5c39 8a3f 5500 8c3f
00000310: 582a 8a3f 1164 883f 19fd 863f defc 823f
00000320: 8472 693f 7742 563f b22d 523f afb5 4e3f
00000330: 142a 503f cde7 523f 4173 583f cbd0 603f
00000340: c82f 683f b002 6c3f 18c0 6d3f 8597 6c3f
00000350: d09b 693f 2a98 683f 2a2f 693f a2ab 693f
00000360: 58bc 6a3f 5334 6c3f 7ad3 6d3f 2ebc 6f3f
00000370: c8ee 713f 5de3 723f 41a9 733f a3c7 743f
00000380: cbe8 763f 5e26 793f a931 793f 779e 763f
00000390: ff28 733f 3ba7 703f 335f 6e3f cf50 6c3f
000003a0: 6087 6a3f 7712 693f cc0d 693f 8369 693f
000003b0: 0218 6a3f 32c2 6a3f f246 6b3f 6bae 6b3f
000003c0: 0000 0000 7866 a53c 9604 2a3d 5881 833d
000003d0: c5cf b43d af06 e63d 976b 0c3e 86e1 2b3e
000003e0: 1694 523e 1006 7f3e 13ca 993e ea3d b03e
000003f0: 9f39 c13e 15cb d03e c6f0 e03e 5e5d f33e
0.0 -0.013426393 -0.031175323 -0.056176476 -0.09080437 -0.13725257 -0.19041121 -0.24477018
-0.30222768 -0.36558956 -0.4413299 -0.5290526 -0.6135109 -0.6988641 -0.7836753 -0.86498475
-0.9338372 -0.994054 -1.0281076 -1.0680463 -1.1107855 -1.1530427 -1.1963013 -1.2399406
-1.2832474 -1.3237407 -1.3563385 -1.3796754 -1.3984294 -1.4157406 -1.4339229 -1.4548616
-1.4794105 -1.5089992 -1.552835 -1.5972749 -1.6335624 -1.6607593 -1.678001 -1.6885425
-1.6945091 -1.6962187 -1.6980499 -1.7002465 -1.7046049 -1.7794894 -1.8551016 -1.9322937
-2.0085793 -2.083785 -2.1532981 -2.216129 -2.2701266 -2.3118384 -2.3483381 -2.3872032
-2.429447 -2.476598 -2.4724643 -2.4514601 -2.4237642 -2.3909023 -2.3519692 -2.2967758
-2.2285054 -2.1544523 -2.0765414 -1.9963003 -1.9154183 -1.8292947 -1.7407526 -1.6515421
-1.5657296 -1.485845 -1.4113818 -1.344184 -1.2899926 -1.247038 -1.2055651 -1.1601056
-1.1095076 -1.0640825 -1.0340286 -1.0205337 -1.0899754 -1.1666543 -1.241502 -1.3035114
-1.3428352 -1.366399 -1.3865539 -1.408985 -1.437662 -1.4726907 -1.5106504 -1.5487288
-1.584317 -1.6164969 -1.6454641 -1.6719729 -1.6964282 -1.7184863 -1.7377683 -1.7564969
-1.7783008 -1.8079 -1.8469515 -1.8920519 -1.9375529 -1.9805627 -2.0211666 -2.0589795
-2.0936923 -2.1250026 -2.1513078 -2.1738083 -2.1932406 -2.2103024 -2.225577 -2.2394202
0.95085126 0.94593215 0.9377119 0.92560285 0.9132003 0.9104134 0.91338664 0.90375656
0.8887527 0.86887 0.8416945 0.83932173 0.85121447 0.8686131 0.89537925 0.9239584
0.93234724 0.9348794 0.9515225 0.9881243 1.0192324 1.0349216 1.0499444 1.0646973
1.0837169 1.098171 1.0886421 1.0768297 1.0736033 1.0653888 1.0447603 1.0020823
0.93528 0.8642814 0.85804576 0.8694389 0.891455 0.92504567 0.93140084 0.9300221
0.9270897 0.92703575 0.92484933 0.92077684 0.89054435 0.88648784 0.9121834 0.9313834
0.97902757 1.031534 1.060681 1.0852159 1.0877522 1.0699158 1.0641927 1.0580727
1.0345705 0.82997024 0.8586368 0.87228686 0.88081354 0.88976115 0.8926601 0.88553905
0.88140976 0.8785753 0.88179815 0.8818429 0.89727515 0.925356 0.9549823 1.0027142
1.0394666 1.0596418 1.0798755 1.0937601 1.0794172 1.0655538 1.0545989 1.0233419
0.9119036 0.8369517 0.82100976 0.8074598 0.81314206 0.8238495 0.84550864 0.8781859
0.9069791 0.921916 0.92871237 0.924187 0.91253376 0.90857184 0.9108759 0.91277516
0.9169364 0.9226734 0.9290081 0.93646514 0.94504976 0.9487818 0.95180136 0.9561712
0.96448964 0.9732417 0.973414 0.9633555 0.9498443 0.94005173 0.9311401 0.92310804
0.91612816 0.910438 0.9103668 0.91176623 0.91442883 0.9170257 0.9190513 0.92063016
0.0 0.020190462 0.04150828 0.06421155 0.088286914 0.112317435 0.13712917 0.16785249
0.20564303 0.24904656 0.30036983 0.34422237 0.37739274 0.4077994 0.43933696 0.4753217
