to_fbx/mdm_np_original_result/unused/the_person_walks_forward_then_bends_down_smpl_3Dparams.npz (npz, 36516 bytes, 2 tensors)

body_pose (column-major) f4 [120, 72]
000000 5e 84 81 3b 27 c5 80 3b c9 8e 8d 3b 97 bc b2 3b
       0.003952547 0.0039297524 0.00432 0.0054546106
000010 ac 92 ee 3b b3 a9 18 3c 83 bc 33 3c 09 e6 3b 3c
       0.0072806682 0.009317803 0.010970238 0.011468419
000020 9c d5 25 3c 3c 5d da 3b 55 e4 dd 39 91 66 b9 bb
       0.010121729 0.0066639464 0.00042322525 -0.005657979
000030 e6 08 0e bc 09 c5 18 bc 07 cd da bb 72 48 40 ba
       -0.008669114 -0.009324321 -0.006677273 -0.0007335014
000040 eb dd d1 3b ba e9 86 3c a4 79 db 3c a3 fe 18 3d
       0.0064046285 0.016468871 0.026791401 0.037352215
000050 2d 5f 3d 3d 3e a0 38 3d 82 af 24 3d 69 6c 21 bc
       0.046233345 0.045074694 0.04020644 -0.009852507
000060 ee 7b b3 bc c8 e5 90 bb 5d 14 82 bc 9f 2e 90 bc
       -0.02190968 -0.0044219233 -0.01587885 -0.017600356
000070 74 a0 dd bb cc 9b 6f 3a 42 b9 03 3d ff da 05 3d
       -0.0067635123 0.0009140342 0.032159097 0.032679554
000080 4a 1c 61 3d 3e d1 a4 3d ff 8e d4 3d 3c 97 e3 3d
       0.05495862 0.08047722 0.10378837 0.1111283
000090 08 11 df 3d 5b af bd 3d a5 6a 8f 3d bf af 5b 3d
       0.1089192 0.09261962 0.07002763 0.0536344
0000a0 69 38 20 3d 79 1a cd 3c d4 b6 57 3c f9 90 ed 3a
       0.039116297 0.025037037 0.013166148 0.001812487
0000b0 2a cc 38 bb 66 ee a0 3b ab ce ca 3c 15 47 99 3d
       -0.0028197863 0.004911232 0.02475675 0.07484261
0000c0 d6 91 ca 3d d9 3a f5 3d e2 fb 0d 3e 21 b0 1f 3e
       0.09891097 0.11974115 0.13865617 0.15594532
0000d0 63 ab 30 3e c6 41 41 3e f8 06 52 3e c5 4a 64 3e
       0.17252879 0.18872747 0.20510471 0.22294147
0000e0 08 96 79 3e 1a b0 80 3e 66 97 8d 3e 85 af 9a 3e
       0.24373639 0.25134355 0.2765457 0.30212036
0000f0 96 18 a8 3e aa 8e b4 3e cc 1a c1 3e 18 15 cb 3e
       0.32831258 0.35265094 0.37715757 0.3966453
000100 fa 40 d2 3e 0b e0 d6 3e 52 95 d9 3e 6b 9a da 3e
       0.41065198 0.41967806 0.42496735 0.42695937
000110 0e 6e da 3e 7a 3b dc 3e cf d8 db 3e 9a 49 da 3e
       0.4266209 0.43014127 0.4293885 0.4263428
000120 ab 2e d7 3e 6b d0 d2 3e 54 04 ce 3e 01 c3 c7 3e
       0.42027792 0.41174635 0.40237677 0.39015964
000130 e3 2d c0 3e 78 2d b7 3e 60 c4 b5 3e 83 15 a2 3e
       0.3753501 0.35776877 0.35501385 0.31657037
000140 9e 6a 8a 3e f8 22 5e 3e c6 fb 22 3e 4b 70 bd 3d
       0.27034467 0.21693027 0.15916356 0.09249934
000150 f2 8d 17 3d da 7a 96 3b df 2f 3e bd 22 5b aa bd
       0.037000604 0.0045922818 -0.046432372 -0.083181635
000160 a4 08 dd bd 5f ae fc bd 60 67 04 be 61 8f 02 be
       -0.10792664 -0.12337946 -0.1293006 -0.12750007
000170 9c a6 f8 bd 1a 56 e7 bd 1d 29 cd bd 70 de ae bd
       -0.12141153 -0.112957194 -0.10017607 -0.0853852
000180 42 64 85 bd 33 49 28 bd 54 c4 ac bc b7 c2 40 bc
       -0.06513263 -0.041085433 -0.02108971 -0.011765174
000190 62 5b 93 bc 7f 13 e8 bc 29 f1 28 bd e3 d3 69 bd
       -0.01798791 -0.028329609 -0.041245613 -0.057086837
0001a0 e8 03 96 bd b7 3f b2 bd f6 bd c8 bd bc db d7 bd
       -0.07324964 -0.08703559 -0.09801857 -0.10539958
0001b0 53 60 d8 bd b7 89 c9 bd 56 c2 ab bd f9 b9 81 bd
       -0.105652474 -0.0984072 -0.08386676 -0.063342996
0001c0 84 40 0f bd b7 3a c0 3a 54 02 4a 3d f9 d5 b3 3d
       -0.034973636 0.0014665936 0.049318627 0.087810464
0001d0 77 a1 fb 3d ea 8a 0d 3e fa b2 0d 3e f2 bc 03 3e
       0.12286656 0.13822523 0.13837805 0.12865046
0001e0 88 68 8a bd 98 ce 80 bd 32 c6 7a bd e4 8a 7e bd
       -0.06758219 -0.06289405 -0.06122417 -0.062144175
0001f0 67 84 85 bd 36 09 90 bd f2 2b a1 bd aa 02 be bd
       -0.06519394 -0.07033007 -0.0786971 -0.09277852
000200 23 18 e5 bd e8 68 04 be 74 4b 12 be 48 4a 1f be
       -0.11186244 -0.12930644 -0.14286596 -0.1555568
000210 1a ff 28 be f7 7e 31 be 6d a3 38 be 69 75 40 be
       -0.16503564 -0.1733359 -0.18031092 -0.18794788
000220 d1 14 48 be 46 98 4d be 60 d6 52 be be c1 54 be
       -0.19539191 -0.20077619 -0.2058959 -0.20777032
000230 72 c8 4c be e2 a8 3a be a8 e3 1e be 51 e0 dc bd
       -0.19998339 -0.18228486 -0.15516531 -0.107849725
000240 98 85 a3 bd 1b 9a 27 bd ae 63 85 3b 4a 35 3d 3d
       -0.07984465 -0.04091845 0.0040707206 0.0461934
000250 1d e8 af 3d 98 a4 f4 3d 41 5c 13 3e c1 3f 3d 3e
       0.08589194 0.11945456 0.14390661 0.18481351
000260 7d f8 61 3e 52 de 7a 3e 9e b0 80 3e 69 21 7e 3e
       0.22067447 0.24498871 0.25134748 0.24817432
000270 a2 df 74 3e 87 20 5e 3e ca c6 40 3e 3f 3f 27 3e
       0.23913434 0.21692096 0.18825832 0.1633272
000280 a2 78 04 3e 23 c8 94 3d ca 4c 49 3b 2d 80 85 bd
       0.12936643 0.072647355 0.0030715936 -0.06518588
000290 83 e0 f6 bd bf 0f 28 be 3e 69 4c be 7d 31 7a be
       -0.12054541 -0.16412257 -0.19962022 -0.24432941
0002a0 8d 9a 85 be 1a 8f 8b be 04 77 8f be 1b d8 91 be
       -0.26094475 -0.27257615 -0.2802049 -0.28485188
0002b0 1b f4 92 be b9 5e 93 be 43 c1 92 be c9 7c 91 be
       -0.28701863 -0.28783205 -0.28663072 -0.28415516
0002c0 82 fb 8e be 35 dc 77 be 06 17 6e be 84 31 63 be
       -0.2792626 -0.24205096 -0.2325097 -0.22186857
0002d0 56 9d 57 be 73 68 4c be 0b c9 3f be 28 6a 35 be
       -0.21056113 -0.19961719 -0.18729036 -0.17716277
0002e0 8d 57 2d be e4 dd 26 be ad ac 1f be 82 fd 15 be
       -0.16927929 -0.16295582 -0.15593214 -0.14647487
0002f0 33 7c 10 be 88 34 02 be f2 94 ee bd 51 78 d4 bd
       -0.14109878 -0.12715352 -0.11649503 -0.10374511
000300 37 28 b7 bd 68 f8 97 bd 27 a5 71 bd d5 fc 4d bc
       -0.08943217 -0.074204266 -0.058995392 -0.012572487
000310 19 70 0e bc e2 64 f7 bb ae 0e 50 bc 38 e9 dd bb
       -0.008693718 -0.007549868 -0.012698812 -0.0067721866
000320 03 f7 ec bb 8e 2b b7 bc 3e bc 5b bd 04 63 c5 bd
       -0.0072315945 -0.022359636 -0.05364632 -0.09638026
000330 53 fd 00 be 57 5d 22 be 27 af 43 be 31 63 69 be
       -0.12596636 -0.15855919 -0.19109784 -0.22791745
000340 8b d8 86 be 2b fa 96 be 5e 14 a2 be ea 75 a8 be
       -0.26337084 -0.29487738 -0.31656164 -0.3290246
000350 11 4a ae be 3a 28 b4 be 60 8f ba be 60 7e c1 be
       -0.34040883 -0.3518694 -0.3643751 -0.3779173
000360 93 94 c7 be b1 13 cb be 5e 23 ca be 72 91 c4 be
       -0.3898054 -0.3966346 -0.39480108 -0.38392216
000370 12 ae bb be 99 58 aa be a4 2f 93 be 73 95 6e be
       -0.36656243 -0.3327072 -0.28747284 -0.23299198
000380 81 54 2f be c2 ac d8 bd 02 fa 2c bd 88 97 4b 3c
       -0.1712208 -0.10579826 -0.042230614 0.012426265
000390 93 6b 5b 3d 45 40 ae 3d e2 4c de 3d d2 58 04 3e
       0.053569388 0.08508352 0.10854508 0.12924507
0003a0 3f e3 12 3e 87 71 1c 3e 12 ac 11 3e 6c a1 fb 3d
       0.143445 0.15277682 0.14225796 0.12286648
0003b0 a0 49 d5 3d 8f 0e b6 3d 08 83 95 3d 72 a4 62 3d
       0.104144335 0.088894956 0.07300383 0.05533261
0003c0 1e cb 60 bc 18 9c 5f bc 8f f1 5c bc c5 98 52 bc
       -0.013720302 -0.0136480555 -0.013485326 -0.012853806
0003d0 bc f0 3d bc c6 14 1f bc 0b 73 02 bc 39 f6 f7 bb
       -0.01159304 -0.009709543 -0.007961999 -0.007567194
0003e0 09 75 05 bc 01 43 17 bc 2f cd 13 bc 93 cc 84 bb
       -0.008145579 -0.009232284 -0.009021088 -0.0040527075
0003f0 ba 39 b5 b9 48 b0 63 3b 40 ec 9a 3b 63 7f 6b 3b
       -0.0003456602 0.0034742523 0.00472787 0.0035934083

transl (column-major) f4 [120, 3]
000000 00 00 00 00 4e 17 af ba f4 03 3c bb 77 f4 9b bb
       0.0 -0.0013358386 -0.002868888 -0.004759367
000010 90 62 e8 bb 12 61 24 bc da ba 60 bc 14 4a 94 bc
       -0.0070918277 -0.010032909 -0.013716424 -0.01810173
000020 60 3e ba bc 28 11 da bc 39 03 ee bc f1 2c f6 bc
       -0.02273482 -0.026619509 -0.029054271 -0.030050727
000030 f0 d2 f3 bc 59 fc e9 bc e3 23 d9 bc b4 16 c1 bc
       -0.029763669 -0.028562712 -0.02650637 -0.023570396
000040 6d 57 a1 bc 32 b0 74 bc f9 9f 10 bc 4e f4 a7 ba
       -0.019695008 -0.014934586 -0.008827203 -0.0012813897
000050 7b 91 f8 3b dd 5a 89 3c 6b 09 cd 3c 98 4c 01 3d
       0.007585702 0.01676696 0.025028905 0.031567186
000060 9b 0c 15 3d 7b 3d 23 3d f5 b7 2c 3d 6a cc 31 3d
       0.036388975 0.039853554 0.042167623 0.043407835
000070 7e 31 32 3d 19 1b 2e 3d f4 de 23 3d f9 97 0e 3d
       0.04350423 0.04250631 0.040007547 0.0348129
000080 3a ad d5 3c 31 39 55 3c ae 90 e6 ba 6f 39 79 bc
       0.026083577 0.013014124 -0.0017590725 -0.015211447
000090 39 45 de bc 5f c7 16 bd 2f 20 31 bd 84 5a 3c bd
       -0.027132617 -0.03681123 -0.043243583 -0.04598476
0000a0 58 5e 3a bd a0 6a 2e bd 73 c9 1a bd f6 7c 02 bd
       -0.04550013 -0.042582154 -0.037789773 -0.031857453
0000b0 2a 5a d1 bc c5 5b a1 bc b0 25 71 bc 3a 4a 30 bc
       -0.025555689 -0.01969708 -0.014718458 -0.0107598845
0000c0 ba 47 fc bb 92 95 a9 bb 14 3c 3d bb 78 41 28 ba
       -0.00769898 -0.005175301 -0.002887492 -0.0006418447
0000d0 48 68 df 3a 4a b5 89 3b 6c d5 e0 3b 76 59 1e 3c
       0.0017044628 0.0042025195 0.0068613794 0.009664884
0000e0 3f aa 4e 3c 8c 2d 80 3c 9f 08 99 3c 2c bc b0 3c
       0.012613832 0.015646718 0.018680869 0.021574102
0000f0 98 c9 c5 3c 56 13 d7 3c e9 da e3 3c a5 1f ec 3c
       0.024143979 0.026254337 0.027814345 0.028823683
000100 8e 1c f0 3c 52 21 f0 3c 53 6d ec 3c ab 96 e5 3c
       0.029310491 0.029312763 0.028860724 0.028025946
000110 6f 7a dd 3c c5 e3 d2 3c cf 9a c8 3c b9 34 bc 3c
       0.02703592 0.025743375 0.024487881 0.022974359
000120 cb 2f ad 3c 4a c6 9a 3c 06 4b 84 3c 9a 08 52 3c
       0.021140954 0.01889338 0.016149055 0.012819434
000130 6a c6 0e 3c d9 78 69 3b e9 e1 3e bb 99 d8 46 bc
       0.008714298 0.003562501 -0.0029126352 -0.012136602
000140 d5 12 c3 bc 46 d1 1a bd 37 88 5c bd 3b 1f 92 bd
       -0.02381269 -0.037797235 -0.053840842 -0.07134863
000150 b7 68 b6 bd 5d 77 d8 bd cb 6d f4 bd 5d dd 05 be
       -0.089066915 -0.10569642 -0.11935004 -0.13072725
000160 4b b1 0f be 4a 1b 18 be 50 92 1f be 4b aa 26 be
       -0.14032476 -0.1485416 -0.15583158 -0.16275899
000170 33 05 2e be cf ff 35 be d3 de 3e be ae bd 48 be
       -0.16994171 -0.17773364 -0.18639688 -0.19603607
000180 7e 33 53 be 15 21 5e be ec 10 69 be 86 43 73 be
       -0.20625111 -0.21692307 -0.22760361 -0.23756227
000190 96 c6 7b be e8 3a 81 be 73 29 84 be be f1 86 be
       -0.24587473 -0.25240254 -0.25812873 -0.2635631
0001a0 f0 b1 89 be 63 70 8c be cc 2c 8f be 6e eb 91 be
       -0.26893568 -0.27429494 -0.27963865 -0.2849993
0001b0 ab a2 94 be cb 39 97 be 21 bb 99 be c4 73 9c be
       -0.29030356 -0.2953628 -0.3002558 -0.30557072
0001c0 31 d8 9f be d2 fe a3 be 65 f0 a8 be 73 b5 ae be
       -0.31219628 -0.3203035 -0.32995906 -0.3412281
0001d0 e4 bb b4 be 38 4d ba be 7f 72 bf be 37 41 c4 be
       -0.352996 -0.36387038 -0.3739204 -0.38331005
0001e0 6e 51 7a 3f b8 2c 7a 3f 70 0f 7a 3f 81 f7 79 3f
       0.977805 0.97724485 0.97679806 0.97643286
0001f0 ec d0 79 3f 10 93 79 3f d7 3e 79 3f 5d d2 78 3f
       0.97584414 0.97490025 0.9736151 0.9719599
000200 b1 3e 78 3f 75 bf 77 3f 49 78 77 3f 2c d1 76 3f
       0.9697066 0.96776515 0.96667916 0.9641292
000210 50 53 76 3f 96 ba 75 3f 4a 20 75 3f d9 43 74 3f
       0.96220875 0.9598783 0.95752394 0.9541603
000220 11 2f 73 3f fd 10 72 3f 9b e5 70 3f 2e ba 70 3f
       0.9499369 0.9455717 0.9410035 0.9403409
000230 fb 6c 72 3f 64 c3 74 3f e3 25 77 3f ec 36 79 3f
       0.9469754 0.9561064 0.96542186 0.9734943
000240 6a 7e 7a 3f 6a 3a 7b 3f 06 87 7b 3f 47 64 7b 3f
       0.9784914 0.9813601 0.98252904 0.98199886
000250 1c fc 7a 3f 8a 3d 7a 3f f6 ff 78 3f 30 ac 76 3f
       0.9804094 0.9775015 0.97265565 0.9635649
000260 21 08 73 3f ef 6f 6f 3f e8 cf 6a 3f 96 c2 65 3f
       0.9493428 0.9353017 0.9172349 0.8975004
000270 ae ac 60 3f 84 55 5a 3f 2c 5b 52 3f ad 18 4b 3f
       0.8776349 0.85286736 0.8217037 0.7933453
000280 90 a3 45 3f 46 bd 3b 3f 49 93 2f 3f be a3 22 3f
       0.772027 0.73335683 0.68584114 0.635311
000290 c0 93 17 3f 86 be 0d 3f 38 b0 05 3f e7 78 00 3f
       0.59209824 0.5536884 0.52222013 0.5018448
0002a0 a7 7b fb 3e eb 44 f9 3e c5 3d f9 3e 07 0a fb 3e
       0.49117777 0.48685393 0.4867994 0.49031088
0002b0 b5 ab fe 3e b6 fa 01 3f 2e 69 05 3f 7d c5 09 3f
       0.49740377 0.5077318 0.52113616 0.5381697
0002c0 96 87 0f 3f 9c cf 16 3f 2e 7b 1f 3f 20 52 29 3f
       0.5606626 0.58910537 0.6229733 0.6614094
0002d0 1b 07 34 3f cd 87 3f 3f 64 bb 4b 3f 5f 09 58 3f
       0.7032334 0.7481659 0.7958281 0.843893
0002e0 90 2d 63 3f 7a fc 6c 3f bf b4 75 3f d3 e4 7c 3f
       0.887414 0.9257275 0.9597892 0.9878666
0002f0 4a 3f 81 3f ca 5e 83 3f b1 fe 84 3f ce 50 86 3f
       1.0097439 1.0263302 1.0390226 1.049341
000300 15 73 87 3f 8d 6f 88 3f de 48 89 3f 5a eb 89 3f
       1.0581995 1.0659043 1.0725362 1.0774949
000310 4c 49 8a 3f 89 48 8a 3f a1 3f 8a 3f 64 ae 89 3f
       1.0803618 1.0803386 1.0800668 1.0756345
000320 61 1d 89 3f ae ea 88 3f f1 f3 88 3f 84 05 89 3f
       1.0712091 1.0696619 1.0699445 1.0704808
000330 68 06 89 3f f4 98 88 3f 76 e3 87 3f df 74 87 3f
       1.070508 1.0671678 1.061629 1.0582541
000340 be 0d 87 3f 56 a9 86 3f 3c 6f 86 3f b6 32 86 3f
       1.0551069 1.0520427 1.0502696 1.0484226
000350 dd d9 85 3f 8b 50 85 3f 1b b8 84 3f 82 1e 84 3f
       1.0457112 1.0415205 1.0368685 1.032181
000360 10 87 83 3f ea f9 82 3f fb fc 82 3f 3e 95 83 3f
       1.0275593 1.0232518 1.0233454 1.027992
000370 62 5e 84 3f ca 05 85 3f f1 6d 85 3f 29 92 85 3f
       1.0341303 1.0392392 1.0424176 1.043523
000380 2f 96 85 3f 8d 72 85 3f 85 27 85 3f a0 c3 84 3f
       1.0436457 1.0425583 1.0402685 1.03722
000390 37 40 84 3f 0e a8 83 3f 96 e1 82 3f 7a 18 82 3f
       1.0332097 1.0285661 1.0225093 1.016372
0003a0 1b 7f 81 3f c2 43 81 3f 70 bc 81 3f 3a 23 83 3f
       1.0116915 1.0098803 1.0135632 1.0245125
0003b0 2e 50 85 3f f0 16 87 3f de a8 88 3f c7 cd 89 3f
       1.0415094 1.0553875 1.0676534 1.0765923
0003c0 00 00 00 00 1e ea 2e 3a dc 69 a5 3a 27 86 05 3b
       0.0 0.00066724594 0.001262005 0.002037415
0003d0 82 f9 53 3b 95 04 a8 3b fd e0 02 3c 98 c5 44 3c
       0.0032344763 0.0051274993 0.007988212 0.012010001
0003e0 77 24 8d 3c 4d 01 c5 3c be 1c 09 3d 8b c2 3e 3d
       0.017229302 0.024048472 0.033474676 0.04657225
0003f0 46 05 83 3d 58 fb ac 3d 5f aa dd 3d fb ab 0a 3e
       0.0639749 0.084463775 0.10823511 0.13542168
