to_fbx/mdm_np_original_result/A_person_skips_in_a_circle_smpl_3Dparams.npz (npz, 36516 bytes, 2 tensors)

body_pose (column-major) f4 [120, 72]
00000000: 94a8 f8bb c047 e23a d89e 773c 387a e43c
00000010: f36e 033d 6121 143d 8a04 ee3c 4872 ad3c
00000020: d2f6 7d3c 4e74 873c 63cd ba3c 916e 583d
00000030: 646e 353d 37a6 bf3c 5a6f 893c 6b5d 213c
00000040: f857 e93b 0e3d c03b 5737 67bc 905d 93bc
00000050: cba4 42bd d992 99bd ec6e bfbd 3379 d5bd
00000060: f6f7 e6bd 8fe1 ecbd cde9 e8bd 104a d7bd
00000070: c432 b4bd b6a8 75bd ce2f 02bd c937 36bd
00000080: bbf6 3dbd 8410 19bd 3612 cebc 2cc7 31bb
00000090: 1419 df3b b6f1 c6bb 1869 b4bc aad7 20bd
000000a0: f944 30bd 0911 21bd 57d5 1abd 445e 11bd
000000b0: 31c8 08bd 4e00 11bd b949 283d 8c15 1c3d
000000c0: b6e5 163d d344 323d ef2f 733d 63e7 ba3d
000000d0: fa6f fc3d fe6a 143e a27d 263e 864b 293e
000000e0: 1906 1d3e 9d86 113e a80c 0b3e b95c 003e
000000f0: 83eb d73d 9752 ad3d 79c5 9b3d 5e07 403d
00000100: f7df ce3c bb66 653c cf45 e7b9 f99b 3cbc
00000110: f41a 89bc 2d1c 90bc 148f 8ebc 8875 823a
00000120: b97b d73b bb53 e0bb 8fde 72bc 9a34 a53b
00000130: ba16 d43b bea1 e3bb 0aed c1bc b10f 76bd
00000140: 7d63 adbd b5b8 b8bd 6956 c9bd 499a d4bd
00000150: 807c e6bd 8a2b 07be 9e90 0dbe f0ab 14be
00000160: 02a7 27be dea8 3abe 6f07 44be 7be1 48be
00000170: ec46 48be f2c2 4dbe 96be 46be ecbb 4fbe
00000180: 7189 62be 2820 6bbe b971 55be 2eb1 44be
00000190: 770c 33be 75a4 22be 5486 1ebe 984b 19be
000001a0: 8d64 16be cfcb 1abe 6d3b 27be 90d5 3bbe
000001b0: 2c7e 45be dff9 51be 1c6c 4d3e 0f7c 4c3e
000001c0: 075b 4a3e 004c 3d3e ffef 2b3e 690b 213e
000001d0: c5e8 1d3e 152c 213e 5d21 223e 3274 203e
000001e0: 0b37 113d 1e40 cc3c b724 aebc 6267 bebd
000001f0: 9169 34be 16cd 75be da3d abbe d362 e7be
00000200: f070 0dbf e95c 20bf 651c 2dbf 4428 3fbf
00000210: 96a6 48bf 8926 48bf eaab 49bf ed78 4abf
00000220: dabb 48bf 25b9 46bf aab3 3dbf 6f76 40bf
00000230: b456 44bf d6b0 52bf baa0 66bf 0c7e 80bf
00000240: bae1 90bf 2fe8 a2bf 89d4 b5bf 9207 c7bf
00000250: eca8 d4bf 8ec3 ddbf fbca e7bf 4b14 e9bf
00000260: cfe6 e9bf 0dbf edbf 2697 f1bf 9d53 f5bf
00000270: 0b46 f6bf cfa8 f7bf cc39 fbbf fa22 00c0
00000280: 09ee 04c0 1850 0dc0 efc4 17c0 636d 23c0
00000290: 39f2 2fc0 1719 3dc0 cfd0 4740 1913 3c40
000002a0: 99d4 3240 daa3 2b40 f322 2540 ff40 1e40
000002b0: 6701 1940 a8d7 1140 031f 0940 51c1 0040
000002c0: 1a74 f33f 04a0 ec3f 2e6c ea3f 0ddd ec3f
000002d0: 1813 f53f c3fd f73f 57cc f13f f8c9 e63f
000002e0: a4d3 d63f b1b8 c43f 467f b53f 6089 ad3f
000002f0: 34fc a73f c332 a03f b82c a03f 8870 a23f
00000300: cbbb a43f b8d8 a93f 5497 af3f 2f66 b33f
00000310: 9916 b73f 00b2 b93f 2bdb b73f 9976 af3f
00000320: 36eb 9f3f 2fc2 903f d36c 833f bf45 773f
00000330: 5716 6f3f 86dc 663f db98 623f 0d98 633f
00000340: c101 733f 7b8c 843f f6e3 8e3f ddcc 973f
00000350: 533a 9e3f 84d2 a83f a85e b03f 668d b63f
00000360: c5dd b83f cc48 c63f 1620 d73f 19db e53f
00000370: b852 ef3f 559b f23f ec39 fa3f ca28 0140
00000380: b2b7 0540 e3d8 0c40 434e 1740 39b1 2340
00000390: 9c3e 3140 9f51 4040 06b5 45c0 c0a5 41c0
000003a0: 435d 3fc0 b2dd 3cc0 ef8a 3bc0 d316 3bc0
000003b0: d373 3ac0 856f 3ac0 a153 3ac0 8511 3ac0
000003c0: 8003 f0bb 7228 9c3b c06f 143c b4e6 733c
000003d0: 17b6 a93c ebb6 c63c 9c69 b73c c32b e93c
000003e0: 0398 233d 9357 403d 07b4 5a3d 8a7c 653d
000003f0: 60eb 623d 7f4d 903d ee59 8c3d b77b 4a3d
-0.0075884555 0.0017263815 0.015113555 0.02789031 0.03208823 0.036164645 0.029054899 0.021172658
0.015500741 0.01653495 0.022803014 0.05283982 0.04429473 0.023394687 0.01677673 0.009848933
0.0071210824 0.0058666533 -0.014112315 -0.01798895 -0.04752044 -0.07498712 -0.093473285 -0.104235075
-0.112777635 -0.115664594 -0.11372719 -0.10512173 -0.08798745 -0.05997535 -0.03178387 -0.044486795
-0.04637788 -0.037369266 -0.025155168 -0.0027126772 0.0068084095 -0.0060712947 -0.022022769 -0.039268173
-0.043034527 -0.039322887 -0.037801113 -0.03549029 -0.033394042 -0.03540068 0.041085932 0.038106486
0.036840163 0.043522667 0.059371885 0.09126165 0.12326045 0.1449394 0.16258863 0.16532716
0.15334357 0.14211507 0.13579047 0.12535371 0.10542967 0.084630184 0.07606024 0.046882026
0.02525328 0.014001544 -0.00044111765 -0.011511796 -0.016736485 -0.01759156 -0.01740221 0.000995324
0.006576028 -0.006845919 -0.01482357 0.005041671 0.006472436 -0.0069467714 -0.0236726 -0.06007356
-0.084662415 -0.09019605 -0.098309346 -0.1038099 -0.11254215 -0.13200203 -0.13824698 -0.14518714
-0.16372302 -0.1822848 -0.1914346 -0.19617264 -0.19558305 -0.20093897 -0.1940864 -0.2028653
-0.22122742 -0.22961485 -0.20844163 -0.19208214 -0.17485224 -0.15883048 -0.1548093 -0.14970243
-0.14686795 -0.1511681 -0.16331263 -0.18343186 -0.19286412 -0.20505475 0.20060772 0.199692
0.19761287 0.18486023 0.1679077 0.15727009 0.15420826 0.15739472 0.1583304 0.15669325
0.035452884 0.024932917 -0.021257741 -0.092970625 -0.17618395 -0.24004015 -0.33445626 -0.45192584
-0.55250454 -0.6264177 -0.6762145 -0.74670815 -0.7837919 -0.781838 -0.78777945 -0.7909077
-0.7841164 -0.7762626 -0.7410227 -0.75180715 -0.766948 -0.8230108 -0.90089 -1.0038466
-1.1318886 -1.2727107 -1.4205486 -1.5549185 -1.6614051 -1.7325304 -1.810882 -1.8209318
-1.8273562 -1.8573929 -1.8874252 -1.9166142 -1.9240125 -1.9348391 -1.9627013 -2.0021348
-2.0770285 -2.2080135 -2.3713949 -2.5535514 -2.749159 -2.9546564 3.1221197 2.9386656
2.794226 2.6818757 2.5802581 2.472717 2.3907106 2.2787876 2.1425178 2.011799
1.9019806 1.8486333 1.8314264 1.8504959 1.9146452 1.9374317 1.8890485 1.8030386
1.6783338 1.5368863 1.4179466 1.3557549 1.3123841 1.2515491 1.2513647 1.2690592
1.286981 1.3269262 1.3718057 1.4015559 1.4303771 1.4507446 1.436376 1.3708068
1.2493656 1.130926 1.0267586 0.965908 0.9339346 0.9018024 0.8851449 0.88903886
0.9492455 1.0355371 1.1163318 1.1859394 1.2361549 1.3189244 1.3778887 1.4261901
1.4442679 1.5490966 1.6806667 1.7957488 1.8697119 1.8953654 1.9548926 2.0181146
2.0893369 2.2007377 2.3641517 2.5576918 2.7694464 3.0049818 -3.0891738 -3.0257416
-2.9900672 -2.9510312 -2.9303548 -2.923268 -2.9133193 -2.9130566 -2.9113543 -2.9073193
-0.007324636 0.0047655636 0.009059846 0.014886547 0.02071671 0.024257144 0.022389226 0.02846325
0.03993989 0.046958517 0.053394344 0.056026973 0.055400252 0.07046031 0.0685309 0.04943439

transl (column-major) f4 [120, 3]
00000000: 0000 0000 3f82 b8bb a6e5 1bbc e9e2 87bc
00000010: 55a5 ddbc 0234 21bd 3a6f 55bd 7fd1 87bd
00000020: e9a8 aabd b264 d5bd d924 05be 4c45 26be
00000030: 58db 4fbe 5b16 7ebe 7c62 96be de4b afbe
00000040: 3b2a c9be 2868 e3be 2174 febe b6fb 0dbf
00000050: 90b5 1fbf 039f 34bf d11b 49bf 7b7d 5bbf
00000060: 5993 6cbf c41a 7dbf 08bf 86bf f807 8fbf
00000070: 9390 97bf 9f96 a0bf f157 aabf a691 b4bf
00000080: 0775 bdbf 7b4e c5bf b7c7 ccbf 54fe d3bf
00000090: 0516 dbbf 0561 e2bf 443b eabf ca9c f2bf
000000a0: a4b6 fabf d0b9 00c0 5c75 03c0 93ca 05c0
000000b0: b5e3 07c0 40e2 09c0 fee8 0bc0 3819 0ec0
000000c0: 8e6d 10c0 28c1 12c0 f7dc 14c0 3f77 16c0
000000d0: d04e 17c0 ee51 17c0 92c9 16c0 17e8 15c0
000000e0: 4ad0 14c0 3d6b 13c0 d08e 11c0 7bfb 0ec0
000000f0: 544d 0bc0 7a61 06c0 ecbe 00c0 ec87 f6bf
00000100: 304a ecbf 936f e2bf 38b2 d8bf 6ff5 cebf
00000110: 26d1 c4bf af8e b9bf a690 adbf e2b3 a2bf
00000120: 63c7 98bf c81b 8fbf 4b8a 85bf 35ee 77bf
00000130: e800 64bf ecf8 4dbf b7b7 35bf 6b71 1ebf
00000140: 7850 09bf 6cd3 eabe f613 c4be a15a 9ebe
00000150: 9701 71be c818 22be c1ac 99bd 5674 c83a
00000160: 92bd 8a3d e2cb 033e 1b30 3f3e b1d0 793e
00000170: 09d7 9a3e f266 ba3e e73e dc3e 9eda ff3e
00000180: fca7 103f e3a7 1d3f 285b 273f 4c40 2f3f
00000190: dc85 363f c2e1 3d3f d791 453f a659 4d3f
000001a0: 4c0e 553f 1c4c 5c3f f100 623f 4159 663f
000001b0: 2c36 6a3f b136 6e3f 28a8 723f e165 773f
000001c0: 9929 7c3f 0267 803f ae8f 823f f7ad 843f
000001d0: fdc0 863f 1994 883f d12a 8a3f 5291 8b3f
000001e0: ca36 743f a793 733f 54b1 723f e399 713f
000001f0: af2a 703f 3e58 6e3f 7086 6c3f ab97 6a3f
00000200: f234 683f c645 663f 1a29 643f d037 613f
00000210: f0fe 5f3f bd82 643f cbf7 693f 2cbe 6f3f
00000220: 05c6 733f 1f55 753f d657 733f f67b 6d3f
00000230: 5054 683f 85ca 663f 64f4 673f e199 6a3f
00000240: 03b2 6e3f ac19 723f c22f 743f db04 743f
00000250: 35ed 703f d425 6b3f b03a 653f 1a2a 663f
00000260: cf45 6a3f f524 703f 1d7f 763f e12f 7b3f
00000270: 6518 7c3f 1c4f 783f 685a 723f 21b4 6f3f
00000280: 6d7c 703f 7820 713f 4137 723f b2cb 733f
00000290: 2dbb 753f 9796 773f eb99 783f 33b4 773f
000002a0: f8c1 743f 04f6 703f 575b 6d3f 0496 693f
000002b0: 2536 693f b5fd 6c3f b4f9 733f 9b64 7a3f
000002c0: 7e3b 7d3f 60e7 7b3f d6ae 783f 1576 723f
000002d0: e6ea 6c3f f8c7 6b3f af43 6d3f c9ea 703f
000002e0: 9e1d 753f 9bc0 783f 10f2 773f a370 733f
000002f0: cd8e 6b3f 0a11 673f b5a6 683f 49e3 6c3f
00000300: 1bfd 723f 4008 793f 6258 7c3f dab6 7a3f
00000310: 1872 733f 6d08 6d3f e6e4 6b3f 010d 6e3f
00000320: 9cb9 723f 43ba 763f 83d1 783f e7d1 773f
00000330: d357 723f ead8 6c3f cb8f 6b3f b9f5 6d3f
00000340: 65d4 713f 52f9 763f 94ce 793f b36c 793f
00000350: 3635 753f a4b3 703f d932 6d3f c62c 6b3f
00000360: 3edc 6a3f 5b45 6f3f d551 733f 5a41 753f
00000370: 0d48 763f f13f 763f 559a 753f 3f66 743f
00000380: 06e8 723f 9f5f 723f f910 753f 0791 763f
00000390: ed7a 773f 7bc5 783f 830d 793f 1e35 783f
000003a0: 1565 763f d51c 733f 3d59 6f3f 12b4 6d3f
000003b0: 81a2 6d3f 35f3 6d3f 9391 6e3f 8551 6f3f
000003c0: 0000 0000 6f60 a93c cc64 203d 6cb5 7a3d
000003d0: a14c b03d b08f e23d 49d5 093e 745c 253e
000003e0: c241 443e 147d 673e 1ac7 873e cace 9e3e
000003f0: 6884 b83e 45f4 d13e b2ae e63e cb57 f93e
0.0 -0.005630761 -0.009515202 -0.016587691 -0.027056376 -0.03935624 -0.052108027 -0.06631755
-0.08332998 -0.10419597 -0.13002338 -0.16237372 -0.20298517 -0.24813215 -0.29372013 -0.3423757
-0.39290032 -0.44415402 -0.49697974 -0.55462205 -0.6238642 -0.7055513 -0.7855807 -0.85738343
-0.92412335 -0.98868966 -1.0527048 -1.1174307 -1.1840996 -1.2545966 -1.3308088 -1.4106948
-1.4801339 -1.5414575 -1.5998448 -1.656199 -1.7116095 -1.7685858 -1.8299336 -1.8954098
-1.9586987 -2.011341 -2.054038 -2.0904891 -2.1232731 -2.1544342 -2.1860957 -2.2202892
-2.2566867 -2.2930393 -2.3259866 -2.3510282 -2.3641853 -2.3643756 -2.3560529 -2.3422906
-2.325213 -2.3034203 -2.2743416 -2.2340991 -2.1765947 -2.0996995 -2.011653 -1.926023
-1.846014 -1.76903 -1.6929388 -1.616865 -1.5376327 -1.4496669 -1.3559768 -1.2711146
-1.1935848 -1.1180353 -1.0432829 -0.9684785 -0.8906388 -0.8045795 -0.7098345 -0.6189181
-0.5363841 -0.45864427 -0.3829648 -0.3092852 -0.23535763 -0.15829766 -0.07503653 0.001529346
0.06774439 0.12870744 0.18670695 0.24396016 0.30242184 0.36406666 0.4301674 0.4997148
0.56506324 0.615843 0.6537347 0.68457484 0.71298003 0.74172604 0.7717566 0.8021492
0.8322494 0.86053634 0.88282686 0.8997994 0.9148891 0.930522 0.94787836 0.9663983
0.98500973 1.0031435 1.0200098 1.036559 1.0527645 1.0670196 1.0794317 1.0903723
0.953961 0.95147175 0.9480183 0.9437544 0.9381513 0.93103397 0.92392635 0.91637677
0.9070579 0.89950216 0.89125216 0.8797579 0.8749838 0.8926199 0.9139373 0.93649554
0.9522403 0.9583301 0.950559 0.92767274 0.9075365 0.9015277 0.90607285 0.9164105
0.93240374 0.9457042 0.9538537 0.9531991 0.9411195 0.91854596 0.89542675 0.8990799
0.9151277 0.9380639 0.9628771 0.9811993 0.98474723 0.9699571 0.946692 0.9363423
0.9393986 0.9419017 0.9461556 0.9523269 0.9598873 0.96714157 0.9710986 0.9675934
0.9560847 0.9412539 0.927175 0.9124453 0.91098243 0.92574626 0.9530289 0.9780976
0.989189 0.98399925 0.9714178 0.9471143 0.92545927 0.92102003 0.926814 0.94108254
0.9574832 0.9716889 0.96853733 0.95093745 0.9201477 0.90260375 0.90879375 0.9253431
0.9491746 0.97278214 0.9857236 0.9793526 0.9509597 0.9259098 0.92146146 0.9298859
0.9481447 0.9637796 0.9719469 0.9680466 0.9466526 0.92518485 0.92016286 0.9295307
0.94464713 0.9647418 0.9758084 0.97431487 0.9578432 0.9402411 0.9265571 0.91865194
0.9174231 0.93465203 0.9504674 0.95802844 0.9620369 0.96191317 0.95938617 0.95468515
0.9488529 0.94677156 0.95729023 0.96315044 0.96671945 0.9717633 0.9728624 0.9695605
0.9624799 0.9496587 0.9349554 0.9285289 0.92826086 0.9294923 0.9319088 0.93483764
0.0 0.020675866 0.039158627 0.061208174 0.08608366 0.110625625 0.13460268 0.1614855
0.1916571 0.22606307 0.2651909 0.31017143 0.36038518 0.41006675 0.45055157 0.48699793
