to_fbx/mdm_np_original_result/The_person_runs_in_a_zigzag_pattern_mdm_smpl_3Dparams.npz (npz, 36516 bytes, 2 tensors)

body_pose (column-major) f4 [120, 72]
000000 59 67 0e 3e da 7a 28 3c 40 5f 36 bd 56 ac 11 bd
       0.13906612 0.010283196 -0.04452443 -0.035564743
000010 ee 30 a3 3b 3c 6c f1 3c 6a 30 c2 3c 90 71 ed bc
       0.004980198 0.029470555 0.023704726 -0.028984815
000020 dc 9e 90 bd 30 80 b5 bd bb e5 dc bd dc 05 02 be
       -0.0706155 -0.088623405 -0.10786005 -0.12697548
000030 0d c6 de bd fd 21 e8 bd 4d 96 03 be 2c 47 f7 bd
       -0.10877619 -0.11334608 -0.12850304 -0.12074122
000040 61 f6 64 bd 2e 27 c4 bb 2f 57 5e bc 75 ee 8b bd
       -0.055899028 -0.005986116 -0.013570591 -0.068325914
000050 e7 ea b5 bd 46 ad 03 be e2 9e 27 be 28 51 0e be
       -0.08882695 -0.12859067 -0.16369203 -0.13898146
000060 47 63 05 be f8 01 1b be 98 54 2c be b9 37 26 be
       -0.13026153 -0.1513747 -0.16829145 -0.16232194
000070 2f 00 1b be a8 58 10 be 27 37 20 be 0c 98 2f be
       -0.15136789 -0.1409632 -0.15646039 -0.17147845
000080 d2 1b 3e be 45 5c 3e be f2 a4 4b be 33 6c 4b be
       -0.185653 -0.18589886 -0.1988714 -0.19865493
000090 cb 2f 3c be c2 18 38 be e4 0a 37 be e4 c2 1b be
       -0.18377607 -0.17978194 -0.17875248 -0.15211064
0000a0 72 c2 e6 bd 38 2b a9 bd 9e 3c 88 bd bf 8d 5e bd
       -0.11267556 -0.082601964 -0.06652187 -0.0543344
0000b0 46 93 51 bd 63 a6 3f bd 38 81 17 bd e0 e1 ca bc
       -0.05116584 -0.046789538 -0.036988467 -0.024765909
0000c0 2c 69 f3 bb ae 13 5e 3c a9 7a 8a 3c 97 10 d6 3b
       -0.007428309 0.013554497 0.016904192 0.0065327394
0000d0 2b 09 5d bc 31 2c bf bb cb 8f 02 3d 11 59 39 3d
       -0.013490955 -0.0058341254 0.031875413 0.045250956
0000e0 47 b5 2d 3d ea 27 d0 3c cb b0 4f 3c bb 49 7a bc
       0.042409208 0.025409658 0.012676428 -0.015276368
0000f0 6f 98 2e bd 06 cc fc bc 1d 0a cb bc e9 09 0e bd
       -0.04262584 -0.030859005 -0.024785096 -0.03467742
000100 56 fd 4b bd 13 8e 1d bd dd 8f 4a bc 1b ba f0 bc
       -0.049802147 -0.03846557 -0.012363401 -0.029385617
000110 ba 95 6a bd 9f 39 c0 bd ee f6 c4 bd e0 a6 95 bd
       -0.057271697 -0.0938599 -0.096174106 -0.073072195
000120 d0 cf 7c bd 6b d5 8c bd 5c 5e a6 bd 61 e4 bf bd
       -0.061721623 -0.06876644 -0.08123466 -0.09369732
000130 aa d4 b4 bd f5 ee 75 bd 15 1f 46 bd 10 e9 43 bd
       -0.08829625 -0.06004234 -0.048369486 -0.047829688
000140 b4 c2 44 bd 97 90 37 bd 99 e5 23 bd c1 f4 0d bd
       -0.048037246 -0.044815626 -0.040013883 -0.034657244
000150 66 4c 0c bd 15 e8 25 bd b8 f9 85 bd dd 98 c9 bd
       -0.034252547 -0.040504534 -0.06541771 -0.098436095
000160 4e 13 03 be 86 b5 0f be 49 31 fd bd ad 3b d4 bd
       -0.12800333 -0.1403409 -0.12362916 -0.10362945
000170 a4 54 d4 bd 01 6c 0e be 03 02 2f be 5a c6 41 be
       -0.103677064 -0.13908388 -0.17090611 -0.18923321
000180 33 0e 44 be f3 d3 31 be b7 89 1c be 15 f6 14 be
       -0.19146042 -0.17366008 -0.15286909 -0.14546998
000190 e1 cb 1a be d2 9e 36 be bd e0 4e be 4f 8a 59 be
       -0.15116836 -0.17834023 -0.20202918 -0.21244167
0001a0 f3 76 4e be bf 1e 3b be 71 f9 36 be bc 0c 4a be
       -0.20162563 -0.18273447 -0.17868592 -0.1973142
0001b0 31 01 64 be f8 18 75 be 0c 1b 81 be d4 a3 81 be
       -0.2226608 -0.23935306 -0.25215948 -0.25320303
0001c0 81 50 7c be 18 8e 75 be dd dd 67 be 09 a2 5d be
       -0.24640085 -0.23979986 -0.22643228 -0.21643843
0001d0 e5 dd 59 be bc 5c 5b be a9 41 60 be 23 93 67 be
       -0.21276052 -0.21422094 -0.21900047 -0.22614722
0001e0 5f 5e cd be 53 5d 3d bf 26 e7 5f bf 6c 82 7a bf
       -0.40111062 -0.73970526 -0.8746208 -0.9785526
0001f0 79 21 89 bf 90 cc 95 bf 22 2c a2 bf a2 1b b4 bf
       -1.071334 -1.1703053 -1.2669718 -1.4070933
000200 44 27 c1 bf 9e e9 cb bf da 2d db bf ae 62 da bf
       -1.5090108 -1.5930669 -1.7123368 -1.7061365
000210 3f c0 c6 bf 54 81 ba bf fb eb b8 bf b2 3c bc bf
       -1.5527419 -1.4570718 -1.4447016 -1.4706023
000220 78 8c c1 bf c4 19 cb bf 13 ec d4 bf d7 f8 e2 bf
       -1.5120993 -1.5867238 -1.6634544 -1.773219
000230 dd 12 ed bf d6 f8 fa bf 64 e7 fd bf ca 71 f3 bf
       -1.8521382 -1.9607189 -1.983624 -1.9019101
000240 20 7b e4 bf 6b 40 da bf 7c 8e cd bf c9 69 be bf
       -1.7850075 -1.7050909 -1.6059108 -1.4876033
000250 8d 3c a9 bf ea 07 89 bf e1 b3 50 bf 3f 55 27 bf
       -1.3221604 -1.070554 -0.81524473 -0.6536445
000260 58 ab 04 bf 80 64 d0 be e5 c4 93 be 3b 5c 27 be
       -0.5182395 -0.40701675 -0.28861156 -0.16343777
000270 94 a2 2b bd c2 dd 9e 3d 14 f1 30 3e 05 2d 8b 3e
       -0.041903093 0.07757141 0.17279464 0.27182785
000280 04 b9 bb 3e 16 88 e9 3e 30 c9 08 3f 21 39 23 3f
       0.36664593 0.45611638 0.5343199 0.63759047
000290 64 54 43 3f 89 f0 65 3f 8f b8 81 3f bd e8 87 3f
       0.76300645 0.8982015 1.0134448 1.0617901
0002a0 86 a5 89 3f 15 3a 8b 3f 57 d6 90 3f 8d 9d 95 3f
       1.0753639 1.08771 1.1315411 1.1688706
0002b0 db 92 95 3f 3e ed 97 3f 69 12 9d 3f 8e fd a7 3f
       1.1685442 1.1869276 1.2271243 1.3124254
0002c0 d9 49 b5 3f 42 b2 be 3f 8a 16 c9 3f 5e 69 d4 3f
       1.4163162 1.489815 1.5710003 1.6594656
0002d0 f7 73 d5 3f 0c eb cc 3f 6a 54 c8 3f 71 d2 c8 3f
       1.6676015 1.6009231 1.5650761 1.5689222
0002e0 99 d8 c1 3f b6 9f bc 3f 9f 5a bf 3f be 0e cb 3f
       1.5144225 1.473624 1.494953 1.5863874
0002f0 c3 e7 d3 3f eb 98 dc 3f 19 4a d6 3f d5 79 ce 3f
       1.6555103 1.7234167 1.6741363 1.613093
000300 0b 9e cc 3f 58 0a ce 3f 92 d8 c8 3f 94 fd c3 3f
       1.5985731 1.6096907 1.5691092 1.5311761
000310 e4 a8 bf 3f e0 af bb 3f 0b db b9 3f ed 19 b7 3f
       1.4973416 1.4663048 1.4519972 1.4304787
000320 db d5 b2 3f 64 3d ae 3f 9c 0f aa 3f 6e 49 a5 3f
       1.3971514 1.3612485 1.3286014 1.2913034
000330 92 57 9f 3f 15 55 98 3f b0 de 94 3f 92 1a 8d 3f
       1.2448599 1.1900965 1.1630459 1.1023734
000340 d2 bd 80 3f 9d 8f 5e 3f 04 8b 32 3f 98 22 06 3f
       1.0057929 0.86937886 0.6974337 0.52396536
000350 f7 80 be 3e e3 a1 8e 3e c2 b0 1e 3e 2d 5e 2c 3c
       0.37207767 0.27857885 0.15497115 0.0105205
000360 59 43 03 be 22 5a 63 be 1f 55 96 be 86 be aa be
       -0.1281866 -0.22202352 -0.29361817 -0.33348483
000370 8a ea bb be 1d d7 db be 36 56 00 bf fc 7a 12 bf
       -0.36702377 -0.42937556 -0.5013155 -0.5721891
000380 f7 d5 26 bf cd f6 3f bf df 89 56 bf e3 57 6a bf
       -0.65170234 -0.74985963 -0.83804125 -0.91540354
000390 76 43 80 bf ea ed 8f bf cc a7 a2 bf e4 c9 b3 bf
       -1.0020587 -1.1244481 -1.2707458 -1.4045987
0003a0 e4 35 bf bf 61 cc c7 bf a4 73 ce bf db 9c d6 bf
       -1.4938321 -1.5609246 -1.6129041 -1.6766618
0003b0 99 3f dd bf 26 7a e2 bf 4c ac e7 bf 75 6a ed bf
       -1.7285033 -1.7693527 -1.8099456 -1.8548113
0003c0 02 50 e9 3e cd c1 f9 3e 48 99 de 3e ad ad b3 3e
       0.45568854 0.4878067 0.4347632 0.35093442
0003d0 50 98 97 3e f8 83 82 3e fe d3 65 3e 09 61 45 3e
       0.29608393 0.2549131 0.2244415 0.19275297
0003e0 fd d7 40 3e 11 11 3f 3e 9a 4a 45 3e 2c 5e 81 3e
       0.18832393 0.18658854 0.1926674 0.2526716
0003f0 79 b5 b2 3e 23 dd c8 3e ea 62 bf 3e b2 10 90 3e
       0.34904078 0.39231214 0.37380153 0.28137738

transl (column-major) f4 [120, 3]
000000 00 00 00 00 d2 96 98 bd c5 52 2a be 36 21 8e be
       0.0 -0.07450642 -0.16633137 -0.27759713
000010 7e 2f cf be 3f 1b 09 bf a1 73 2a bf a3 49 4b bf
       -0.4046592 -0.535572 -0.66582686 -0.79409236
000020 18 fc 69 bf 58 d4 83 bf ee d5 93 bf fd 98 a6 bf
       -0.9140029 -1.0299177 -1.1549661 -1.3015438
000030 86 1a bb bf 8f 92 ce bf 31 74 df bf 56 6d f0 bf
       -1.4617469 -1.6138476 -1.7457334 -1.8783367
000040 05 95 01 c0 f4 49 0b c0 3b ed 14 c0 ac 4a 1e c0
       -2.0247204 -2.1763887 -2.3269794 -2.4733076
000050 9f f9 26 c0 2a a5 2f c0 80 26 39 c0 17 3b 43 c0
       -2.6089857 -2.7444558 -2.8929749 -3.0504816
000060 ea f1 4c c0 97 e6 55 c0 1d a7 5d c0 a8 89 64 c0
       -3.2022653 -3.342199 -3.4633248 -3.5709019
000070 d7 29 6b c0 15 7e 71 c0 4c 6a 77 c0 97 9a 7c c0
       -3.6744287 -3.7733204 -3.8658628 -3.9469354
000080 97 7f 80 c0 b1 58 82 c0 71 f7 83 c0 79 3f 85 c0
       -4.015575 -4.0733266 -4.1239552 -4.163998
000090 c5 58 86 c0 ac 5d 87 c0 ea 2b 88 c0 68 8f 88 c0
       -4.198336 -4.2301846 -4.2553606 -4.2675056
0000a0 74 6f 88 c0 55 f7 87 c0 fc 62 87 c0 89 d0 86 c0
       -4.263605 -4.248942 -4.230833 -4.212956
0000b0 04 49 86 c0 43 bd 85 c0 82 02 85 c0 dc d9 83 c0
       -4.196413 -4.179353 -4.156556 -4.120344
0000c0 1b 24 82 c0 4a 05 80 c0 e1 81 7b c0 78 41 77 c0
       -4.0669074 -4.0006456 -3.9298022 -3.863371
0000d0 09 48 73 c0 e7 f5 6e c0 ac e4 69 c0 f4 02 64 c0
       -3.8012717 -3.7337587 -3.654582 -3.5626802
0000e0 16 f2 5d c0 b7 fe 57 c0 7c 49 52 c0 41 67 4c c0
       -3.4679008 -3.3749216 -3.2857351 -3.193802
0000f0 83 96 45 c0 b6 35 3d c0 66 5b 34 c0 8a f8 2b c0
       -3.0873115 -2.9564033 -2.8180785 -2.6870446
000100 2d 8f 24 c0 cf 8c 1d c0 30 e3 15 c0 2f e2 0d c0
       -2.5712388 -2.4617193 -2.3419914 -2.2169302
000110 62 11 06 c0 c7 27 fd bf 10 91 ec bf 45 82 da bf
       -2.094811 -1.9777764 -1.848177 -1.7071005
000120 7e 92 c8 bf 8f a6 b7 bf bd c9 a8 bf a4 1b 9b bf
       -1.5669706 -1.4347705 -1.3186566 -1.211781
000130 db c5 8d bf 4e 77 80 bf ae 47 66 bf 5d 87 4c bf
       -1.1076006 -1.0036409 -0.89953125 -0.7989405
000140 6d c7 33 bf 3d c9 1b bf e4 3e 04 bf 95 0a da be
       -0.70226175 -0.6085394 -0.51658463 -0.42586198
000150 b7 d8 ac be 84 af 81 be 31 0d 3a be 53 61 00 be
       -0.3375909 -0.2532922 -0.18169095 -0.12537126
000160 04 3f ad bd d0 dd 65 bd 71 4e 12 bd b8 3e 86 bc
       -0.08459285 -0.05611974 -0.03571934 -0.016387329
000170 31 9b b8 3b de 2f 03 3d 21 95 5c 3d f4 1c 8b 3d
       0.0056337346 0.03202807 0.053853158 0.06792632
000180 62 7b 97 3d 27 7c 93 3d 12 a9 82 3d d3 68 4d 3d
       0.0739658 0.072014146 0.06379904 0.050148796
000190 fa 12 09 3d 2c 05 7b 3c 31 41 a8 bb ca a3 03 bd
       0.033465363 0.015321057 -0.0051347245 -0.032138623
0001a0 c5 97 89 bd 17 b9 df bd 0c 1b 1f be fe 6b 4d be
       -0.06718401 -0.10923975 -0.15537661 -0.20060727
0001b0 02 e4 78 be e4 f5 91 be 19 cf a7 be cf 2c c1 be
       -0.24305728 -0.28507912 -0.3277519 -0.377295
0001c0 94 86 e0 be c3 2c 02 bf ed a8 15 bf fc f0 29 bf
       -0.43852675 -0.5084955 -0.58460885 -0.6638334
0001d0 8f 40 3e bf a2 34 51 bf 55 d5 62 bf 68 ca 73 bf
       -0.7431726 -0.81720936 -0.8860677 -0.9523072
0001e0 e7 a1 54 3f 4a 95 4d 3f 01 ac 4b 3f 96 00 52 3f
       0.83059543 0.8030592 0.7955933 0.82032144
0001f0 0f ea 5b 3f 24 47 65 3f 90 63 6c 3f 38 f8 6a 3f
       0.8590402 0.89561677 0.9233942 0.91785
000200 bb c2 60 3f ff c9 59 3f 4e 7e 56 3f 6b 38 5e 3f
       0.87797135 0.85073847 0.83786476 0.86804837
000210 b8 f2 64 3f 64 84 5a 3f 7e df 53 3f 36 b2 58 3f
       0.8943286 0.8535826 0.82762897 0.8464693
000220 fb e9 64 3f d8 e5 70 3f e0 c1 75 3f 08 01 6f 3f
       0.89419526 0.94100714 0.95998955 0.9336095
000230 df 92 67 3f 24 68 64 3f de 62 6c 3f 67 b9 77 3f
       0.9045848 0.89221406 0.9233836 0.96767277
000240 e8 ca 78 3f d7 33 70 3f 92 95 6d 3f 93 c3 74 3f
       0.9718461 0.938291 0.9280635 0.9561092
000250 99 38 7d 3f d6 f6 7e 3f e0 11 77 3f c9 0d 6e 3f
       0.98914486 0.9959539 0.9651165 0.92989784
000260 48 2e 6e 3f 2d a7 73 3f 22 5d 79 3f a5 20 78 3f
       0.9303937 0.95176965 0.97407734 0.9692481
000270 fb 2d 71 3f 61 8f 69 3f 70 1e 62 3f 8e 19 5f 3f
       0.94210786 0.91234404 0.88327694 0.8714837
000280 d8 78 61 3f 46 2a 66 3f 3c 46 6b 3f 86 25 6e 3f
       0.8807502 0.89908254 0.91904044 0.93026006
000290 98 9c 6c 3f b9 90 69 3f 68 f6 68 3f ac a4 6d 3f
       0.92426443 0.91236454 0.91000986 0.92829394
0002a0 09 5b 74 3f 8b 89 78 3f 46 58 76 3f 90 c1 6b 3f
       0.9545141 0.97084874 0.96228445 0.9209223
0002b0 4d 9d 64 3f bb 3c 66 3f a2 b7 6d 3f 05 ab 75 3f
       0.8930252 0.8993642 0.92858326 0.9596408
0002c0 d4 57 76 3f 0a 7e 6f 3f 15 d1 66 3f 96 67 62 3f
       0.96227765 0.93551695 0.90162784 0.8843931
0002d0 80 52 69 3f 07 ac 70 3f b9 66 72 3f a8 04 6d 3f
       0.9114151 0.9401249 0.9468799 0.9258523
0002e0 a6 fc 63 3f b5 26 67 3f d8 65 71 3f 0f c1 73 3f
       0.89057386 0.9029344 0.94296026 0.9521646
0002f0 06 68 6a 3f ce db 66 3f 9f f2 6d 3f fb 86 71 3f
       0.9156498 0.90179145 0.92948335 0.9434659
000300 9a 64 71 3f fa f2 6b 3f 8c 63 65 3f 0a 14 65 3f
       0.9429413 0.9216763 0.8960502 0.894837
000310 35 e7 67 3f 07 6b 6e 3f 74 68 77 3f ae 27 7a 3f
       0.9058717 0.9313206 0.9664376 0.97716796
000320 55 51 7a 3f b6 9f 79 3f b3 17 77 3f 70 18 73 3f
       0.9778035 0.97509325 0.9652054 0.94959164
000330 76 db 6e 3f 09 24 69 3f 39 9b 62 3f b7 d9 5c 3f
       0.9330362 0.9107061 0.885181 0.86269706
000340 35 ec 5c 3f d5 95 61 3f 73 f7 68 3f c0 81 6f 3f
       0.86297923 0.8811925 0.9100258 0.9355736
000350 1d 98 70 3f 88 c0 68 3f d9 cb 5e 3f 85 dd 5a 3f
       0.93982106 0.9091878 0.87029797 0.8549426
000360 d9 dc 5b 3f 4a 87 5f 3f 0b 54 65 3f 69 c9 6a 3f
       0.8588386 0.8731581 0.89581364 0.9171358
000370 0e 38 6b 3f 83 81 67 3f 6f 54 63 3f 9e 74 62 3f
       0.9188241 0.90431994 0.8880071 0.88459194
000380 a9 75 66 3f 37 c1 6c 3f 75 25 71 3f 0c 58 71 3f
       0.90023285 0.9248232 0.9419778 0.94274974
000390 74 ab 68 3f 38 8e 5c 3f 87 43 53 3f ea c8 4e 3f
       0.90886617 0.8615451 0.82524914 0.8077532
0003a0 3e 0d 50 3f a6 d9 54 3f 29 e8 5a 3f d3 99 5a 3f
       0.81270206 0.83144605 0.855105 0.8539097
0003b0 13 63 55 3f b7 a2 51 3f 1a 9b 4f 3f 1e c1 4e 3f
       0.833543 0.8188891 0.8109604 0.80763423
0003c0 00 00 00 00 7f 32 49 3d 9a 53 ba 3d c6 f5 05 3e
       0.0 0.049120422 0.09097977 0.13082036
0003d0 7b bd 2e 3e d4 70 54 3e 38 44 78 3e a2 da 8e 3e
       0.17064469 0.20746166 0.24244773 0.2790118
0003e0 24 84 a0 3e b3 c3 ae 3e 08 c2 bb 3e 76 be c4 3e
       0.31350815 0.34133682 0.36671472 0.3842656
0003f0 44 ef c8 3e e2 e3 cd 3e 75 d6 cf 3e 48 6d d0 3e
       0.39245045 0.40212923 0.40593305 0.40708375
