to_fbx/guo_np_original_result/guo_circle_smpl_3Dparams.npz (npz, 36516 bytes, 2 tensors)

body_pose (column-major) f4 [120, 72]
000000 e0 58 8b bd b6 50 9e bd ad d7 a5 bd ee 7e 9d bd
       -0.06804061 -0.07730238 -0.080977775 -0.076902255
000010 8f 48 a5 bd 37 8d bf bd 9b c4 cf bd 6d 63 d1 bd
       -0.0807048 -0.093531065 -0.101449214 -0.10224042
000020 85 94 d2 bd f1 e6 d6 bd ba 3a d2 bd e6 0b c2 bd
       -0.10282234 -0.10493267 -0.102651075 -0.09474926
000030 56 13 ab bd 05 f9 8b bd 94 92 4c bd 9c f1 f5 bc
       -0.083532974 -0.06834606 -0.049944475 -0.030022435
000040 db 7e 69 bc c4 0f 4b bc ea ab d2 bc c3 ff 30 bd
       -0.014251436 -0.012393896 -0.02571674 -0.043212663
000050 ab 34 49 bd 5d 74 f9 bc 8d 83 07 3c 80 23 4e 3d
       -0.049122494 -0.030450994 0.00827111 0.050326824
000060 23 2d ad 3d c2 a3 d8 3d 6b a5 e4 3d c7 cd d5 3d
       0.08455875 0.10578109 0.111643635 0.104396395
000070 50 27 a8 3d d7 4d 28 3d 73 2f 6a bc 95 db 74 bd
       0.08210623 0.04108986 -0.014293539 -0.059779722
000080 7e 05 9f bd 4f 6f 95 bd f2 1d 6f bd be 6f 44 bd
       -0.077647194 -0.07296621 -0.058378167 -0.04795813
000090 44 77 35 bd ca 8f 3d bd 76 73 63 bd d3 57 91 bd
       -0.044303194 -0.046279706 -0.055530034 -0.07096829
0000a0 d4 a6 b1 bd 5b 1b ca bd 89 74 d8 bd 00 24 dd bd
       -0.08674398 -0.09868499 -0.10569102 -0.10797882
0000b0 56 56 d5 bd f6 46 c5 bd 5e 27 bc bd 70 e4 ba bd
       -0.10416858 -0.09632675 -0.09187196 -0.09125602
0000c0 cc 6c b2 bd 5e 5e aa bd 92 bb b5 bd 84 8e d7 bd
       -0.087121576 -0.0831878 -0.08873667 -0.105252296
0000d0 4e ea fa bd 07 47 05 be bb d8 fb bd de 82 d5 bd
       -0.12251721 -0.13015376 -0.122971974 -0.104253516
0000e0 98 d8 a0 bd 92 d8 53 bd 3b cb 0d bd 52 2c d6 bc
       -0.07853812 -0.05172021 -0.034617644 -0.02614418
0000f0 ad 24 ab bc 67 4f a3 bc 56 ed fe bc d5 28 7d bd
       -0.020891512 -0.019935323 -0.03111903 -0.06180652
000100 03 cc e2 bd a2 c0 29 be a6 8b 57 be 7b 25 75 be
       -0.110740684 -0.1657739 -0.21049365 -0.23940079
000110 16 24 83 be d0 af 87 be e8 80 89 be dc f4 88 be
       -0.2561347 -0.26501322 -0.2685616 -0.26749313
000120 b7 47 7d 3e ca 92 68 3e 22 2c 55 3e 99 3f 43 3e
       0.24734388 0.22712246 0.20817617 0.1906723
000130 11 4f 31 3e d3 92 1b 3e 43 07 01 3e 0a f1 c5 3d
       0.17315318 0.15192728 0.12600426 0.09665115
000140 ad e0 85 3d 6b e9 0f 3d 51 33 19 3c a0 26 62 bc
       0.06536994 0.035134714 0.009350614 -0.013803154
000150 33 2c 0f bd 53 07 49 bd dd ae 61 3d 7e df 98 3d
       -0.03495426 -0.04907925 0.055098403 0.07464503
000160 bd 9d 92 3d eb d1 80 3d a2 2e 26 3d 51 bb 07 bb
       0.071589924 0.06290039 0.040571816 -0.0020711015
000170 b2 5d 48 bd 7a 8b cd bd 9e 4b 12 be 33 f4 35 be
       -0.04891748 -0.10036369 -0.14286658 -0.17768936
000180 d9 54 53 be 69 25 65 be 32 88 68 be 35 40 62 be
       -0.20637836 -0.22377552 -0.22708204 -0.22094806
000190 7c 0a 57 be 01 48 47 be e9 a4 34 be 6c e1 20 be
       -0.21000093 -0.19461061 -0.17641033 -0.15710992
0001a0 19 8c 07 be d1 45 d1 bd 9f 6d 9d bd 1d 0c 75 bd
       -0.13237037 -0.102183945 -0.07686924 -0.059826005
0001b0 2f 6a 4e bd af fe 3c bd 80 85 2b bd fd c2 14 bd
       -0.050394233 -0.046141323 -0.041875362 -0.036318768
0001c0 46 29 17 bd 1f 9f 41 bd 15 d9 87 bd 97 c7 b6 bd
       -0.036904596 -0.04727089 -0.06633202 -0.089247875
0001d0 02 c1 e4 bd e6 41 04 be 6f e2 0f be 36 9b 16 be
       -0.11169626 -0.12915763 -0.14051221 -0.14707646
0001e0 08 44 0a be b2 c5 15 be a5 4c 34 be 58 44 60 be
       -0.13502514 -0.14626196 -0.17607363 -0.21901071
0001f0 cc cb 9b be d5 0b e6 be e8 29 22 bf 4c 83 56 bf
       -0.30428922 -0.44930902 -0.63345194 -0.83794093
000200 7d fb 85 bf 4d fa 9f bf 95 ce b7 bf ae df cb bf
       -1.0467373 -1.2498261 -1.4359919 -1.5927637
000210 b1 44 db bf 33 20 e8 bf d3 5b f5 bf ca ea 00 c0
       -1.7130338 -1.8134826 -1.9168648 -2.0143304
000220 25 2c 05 c0 1f 5b 07 c0 a4 e9 07 c0 f6 b4 07 c0
       -2.0808194 -2.1149366 -2.1236353 -2.12042
000230 f7 1f 08 c0 16 6b 09 c0 dc f4 0a c0 80 98 0b c0
       -2.126951 -2.147161 -2.171195 -2.1811829
000240 7b 52 0b c0 dc bd 0a c0 d9 18 0a c0 a1 76 09 c0
       -2.1769092 -2.167838 -2.1577666 -2.1478655
000250 30 98 05 c0 65 96 f4 bf d2 ad d3 bf 49 52 b7 bf
       -2.0874138 -1.9108397 -1.6537421 -1.4321986
000260 76 52 a7 bf 89 c3 9f bf b8 79 9a bf 22 be 94 bf
       -1.307204 -1.2481548 -1.2068396 -1.1620524
000270 79 f4 90 bf db 57 91 bf 5c 1c 96 bf e9 0d 9e bf
       -1.1324607 -1.1354936 -1.1727405 -1.2347995
000280 2d df a6 bf e3 48 af bf 7f 57 b7 bf 41 6e bf bf
       -1.3036858 -1.3694118 -1.4323577 -1.4955522
000290 c8 ce c5 bf 6c e2 c8 bf e4 81 ca bf b6 cb cb bf
       -1.545373 -1.5694098 -1.582089 -1.5921543
0002a0 01 bb cc bf 9b 8a cd bf 7e c5 ce bf a6 c0 d1 bf
       -1.5994569 -1.6057924 -1.615402 -1.6386917
0002b0 90 3f d7 bf 5e df de bf 8c b5 e7 bf 9e ec f0 bf
       -1.6816273 -1.7411916 -1.8102279 -1.882221
0002c0 58 e2 f9 bf 86 87 01 c0 f7 39 06 c0 2f 07 0b c0
       -1.95222 -2.0238967 -2.097288 -2.1723135
0002d0 f6 d2 0f c0 2b 92 14 c0 60 a4 18 c0 82 15 1c c0
       -2.247251 -2.3214214 -2.3850327 -2.4388127
0002e0 f5 e8 1f c0 e3 b0 23 c0 96 18 27 c0 f9 c6 2b c0
       -2.4985936 -2.5576713 -2.6108756 -2.6840193
0002f0 e2 79 32 c0 c9 2d 3a c0 63 56 41 c0 1e e6 47 c0
       -2.7886891 -2.9090445 -3.0208976 -3.1234202
000300 bb ed 41 40 d5 e8 3b 40 3a 26 37 40 b1 03 34 40
       3.030135 2.936086 2.8617082 2.8127253
000310 be 9b 31 40 c5 3e 2f 40 4c ab 2d 40 85 2a 2d 40
       2.7751307 2.7382061 2.7135801 2.7057202
000320 a7 71 2d 40 ef 6d 2e 40 87 a7 30 40 e1 dc 34 40
       2.7100618 2.7254598 2.760225 2.8259814
000330 4b 42 3b 40 99 9d 42 40 f1 6a 48 c0 aa 05 44 c0
       2.9259212 3.040869 -3.1315272 -3.0628457
000340 ac 6f 3e c0 42 a9 38 c0 4a 89 32 c0 dc 73 2b c0
       -2.975566 -2.8853307 -2.7896295 -2.6789465
000350 4b 62 27 c0 8d b9 25 c0 81 2f 26 c0 6f cc 25 c0
       -2.6153743 -2.5894501 -2.5966494 -2.5906026
000360 88 48 25 c0 2f 41 26 c0 85 3d 29 c0 ae 14 2e c0
       -2.582552 -2.5977285 -2.6443799 -2.7200122
000370 2f ff 32 c0 ac a8 36 c0 be b6 38 c0 7b 8c 39 c0
       -2.7968252 -2.854045 -2.8861537 -2.8991992
000380 2c 6b 3a c0 27 6f 3c c0 fa 64 3f c0 fe 66 42 c0
       -2.9127913 -2.9442842 -2.9905381 -3.0375361
000390 3e a6 44 c0 13 0c 46 c0 23 50 47 c0 97 fa 47 c0
       -3.0726466 -3.094487 -3.1142662 -3.1246698
0003a0 b4 b4 46 c0 22 a5 43 c0 73 90 3f c0 5d ad 3a c0
       -3.1047792 -3.056954 -2.9931915 -2.9168313
0003b0 08 01 35 c0 21 52 2f c0 a0 e5 2b c0 4a 22 2b c0
       -2.828188 -2.7393878 -2.6858902 -2.6739678
0003c0 b9 32 dc bc a3 0b 8d bc 8d 4d b5 b9 53 44 ef 3c
       -0.026879655 -0.017217463 -0.0003458079 0.029207384
0003d0 41 03 92 3d 5a 90 00 3e 1f e8 3c 3e 97 a8 78 3e
       0.07129527 0.12555066 0.18447922 0.24283062
0003e0 87 10 97 3e c2 c4 ac 3e 29 49 bc 3e bc 96 c5 3e
       0.29504797 0.33743864 0.36774567 0.38591564
0003f0 1c ed c6 3e bc 20 c2 3e bf 12 bb 3e 07 7f b1 3e
       0.38852775 0.379156 0.3653774 0.34667227

transl (column-major) f4 [120, 3]
000000 3e 57 4e 3b 3c 20 0f 3c 62 20 72 3c 07 9c 94 3c
       0.0031485106 0.008735713 0.0147782285 0.018140806
000010 bf 9f 8e 3c 62 a5 4d 3c fd 1c 87 3b bf 10 f3 bb
       0.017410157 0.012551637 0.0041233287 -0.007417768
000020 5e eb b4 bc 89 2a 24 bd 24 df 7c bd 01 e4 b3 bd
       -0.022084888 -0.040079627 -0.06173624 -0.08783723
000030 2e cf f4 bd eb 2a 22 be 6a e8 52 be 11 bf 86 be
       -0.11953579 -0.15836684 -0.20596471 -0.26317647
000040 2a ba a8 be ff ec cd be 39 a7 f3 be 30 a6 0b bf
       -0.32954532 -0.40219876 -0.47588518 -0.54550457
000050 9c c2 1b bf ff 52 2a bf 5a f9 37 bf 96 2f 45 bf
       -0.60843825 -0.6653289 -0.71864855 -0.77025735
000060 74 28 52 bf 9b 1e 5f bf 56 4f 6c bf 3f b9 79 bf
       -0.82092977 -0.87156075 -0.9230856 -0.9754829
000070 26 9f 83 bf 8c 66 8a bf 37 40 91 bf 6d 5e 98 bf
       -1.0282943 -1.0812545 -1.1347722 -1.1903816
000080 70 e0 9f bf 88 a4 a7 bf 5f 6e af bf 4a fb b6 bf
       -1.2490368 -1.3097086 -1.3705558 -1.4295437
000090 44 f7 bd bf 18 24 c4 bf 31 94 c9 bf 5e 9d ce bf
       -1.4841084 -1.5323515 -1.574835 -1.6141775
0000a0 74 9b d3 bf 9b c0 d8 bf 47 27 de bf d8 f2 e3 bf
       -1.6531816 -1.6933779 -1.7355736 -1.7808485
0000b0 68 2a ea bf dc 89 f0 bf 9d a9 f6 bf 23 5a fc bf
       -1.8294191 -1.8792071 -1.9270512 -1.9715008
0000c0 f1 da 00 c0 e9 73 03 c0 d7 05 06 c0 9f 8f 08 c0
       -2.0133631 -2.0539496 -2.0941064 -2.133766
0000d0 11 03 0b c0 ac 58 0d c0 c3 a9 0f c0 e4 1a 12 c0
       -2.1720622 -2.208537 -2.2447364 -2.2828913
0000e0 c8 ac 14 c0 81 3c 17 c0 cf af 19 c0 7b 0c 1c c0
       -2.3230457 -2.3630679 -2.4013555 -2.4382617
0000f0 74 6a 1e c0 d1 de 20 c0 6c 73 23 c0 ab 24 26 c0
       -2.4752474 -2.5135996 -2.5539198 -2.595988
000100 d1 e2 28 c0 41 97 2b c0 9f 29 2e c0 26 86 30 c0
       -2.6388438 -2.6811068 -2.7212903 -2.7581878
000110 3b a7 32 c0 67 9b 34 c0 97 74 36 c0 02 34 38 c0
       -2.791457 -2.821985 -2.850866 -2.8781743
000120 85 d3 39 c0 e0 5a 3b c0 1c e1 3c c0 1f 77 3e c0
       -2.9035351 -2.9274216 -2.9512396 -2.9760206
000130 73 21 40 c0 5e e0 41 c0 2b b5 43 c0 30 a3 45 c0
       -3.0020416 -3.0293193 -3.0579326 -3.0880852
000140 05 b0 47 c0 37 de 49 c0 f4 24 4c c0 6e 6d 4e c0
       -3.1201184 -3.154188 -3.1897554 -3.225429
000150 27 9f 50 c0 2a ae 52 c0 73 9e 54 c0 72 7d 56 c0
       -3.259714 -3.2918801 -3.322171 -3.3514066
000160 82 5a 58 c0 b1 42 5a c0 09 3d 5c c0 cc 41 5e c0
       -3.3805242 -3.4103205 -3.4412253 -3.472766
000170 82 40 60 c0 02 2f 62 c0 67 11 64 c0 69 f3 65 c0
       -3.5039372 -3.5341191 -3.5635622 -3.5929816
000180 7d d5 67 c0 ad ad 69 c0 b7 77 6b c0 ac 38 6d c0
       -3.6224053 -3.6512253 -3.6791818 -3.706584
000190 8c fd 6e c0 f1 df 70 c0 3c fd 72 c0 26 61 75 c0
       -3.7342253 -3.7636683 -3.7967062 -3.8340545
0001a0 bb 05 78 c0 03 d3 7a c0 02 97 7d c0 a2 0c 80 c0
       -3.8753498 -3.9191291 -3.9623418 -4.001542
0001b0 1c 1f 81 c0 70 09 82 c0 b8 de 82 c0 7b b1 83 c0
       -4.0350475 -4.063652 -4.0896873 -4.115415
0001c0 9f 90 84 c0 e8 88 85 c0 53 9e 86 c0 0e c4 87 c0
       -4.142654 -4.172962 -4.2068267 -4.2426825
0001d0 a0 e4 88 c0 a8 ed 89 c0 d3 cd 8a c0 fe 65 8b c0
       -4.2779083 -4.310261 -4.337625 -4.3562
0001e0 24 99 73 3f ef 6c 6e 3f 97 08 6b 3f 5b c5 6c 3f
       0.9515555 0.9313497 0.9180998 0.9248864
0001f0 a0 fc 72 3f 38 83 7a 3f b0 20 80 3f 72 65 81 3f
       0.94916725 0.97856474 1.0009975 1.0109084
000200 48 ca 80 3f bb c5 7c 3f 8e d7 75 3f 64 17 6f 3f
       1.0061731 0.9873921 0.96032035 0.93395066
000210 a4 7c 6a 3f ea 0f 69 3f 11 e9 6a 3f 75 d8 6e 3f
       0.91596437 0.9103991 0.9176188 0.9329904
000220 4e b0 72 3f 40 20 74 3f 9b 78 72 3f f3 64 6f 3f
       0.9480027 0.9536171 0.9471528 0.9351341
000230 5e 40 6f 3f e8 e9 75 3f 84 a2 81 3f 9a e9 89 3f
       0.9345759 0.9606004 1.0127721 1.0774415
000240 01 57 91 3f 4a 1f 96 3f d9 92 97 3f 69 82 95 3f
       1.1354676 1.1728299 1.1841689 1.1680423
000250 3f ef 8f 3f af 88 87 3f 1c 04 7c 3f 80 0a 6c 3f
       1.1244887 1.0588588 0.9844377 0.9220352
000260 7a 5e 63 3f de a4 62 3f 2c 7e 68 3f 30 03 73 3f
       0.88816035 0.8853282 0.90817523 0.9492674
000270 39 c7 7f 3f e1 cf 85 3f 54 d4 89 3f 43 ed 8a 3f
       0.99913365 1.0454065 1.0767922 1.0853657
000280 19 ad 88 3f 93 68 83 3f 84 2e 79 3f 61 05 6d 3f
       1.0677825 1.0266289 0.973366 0.9258633
000290 d4 60 66 3f 8c 36 66 3f 85 21 6b 3f f0 4b 73 3f
       0.899915 0.8992698 0.9184802 0.95037746
0002a0 16 ee 7c 3f 74 c1 82 3f 2f ee 84 3f 12 e9 83 3f
       0.9880079 1.0215287 1.0385188 1.0305502
0002b0 7d 03 80 3f a2 dd 75 3f f3 c1 6d 3f f2 7e 6a 3f
       1.0001065 0.9604131 0.9287407 0.91599953
0002c0 8c 34 6b 3f b6 3c 6d 3f 66 30 6f 3f 57 13 71 3f
       0.91877055 0.9267076 0.93433225 0.94170135
0002d0 fb 47 73 3f cd a1 75 3f cd 15 77 3f 42 a4 76 3f
       0.9503171 0.95950013 0.9651764 0.9634439
0002e0 24 07 74 3f 32 b4 6f 3f 55 07 6b 3f 62 89 67 3f
       0.95323396 0.9363433 0.9180806 0.90444005
0002f0 f7 5a 66 3f ce 10 68 3f b1 90 6c 3f f8 b5 72 3f
       0.8998255 0.9065064 0.9240828 0.9480891
000300 41 8c 78 3f 87 f7 7b 3f f9 90 7b 3f cc 5b 77 3f
       0.9708901 0.9842457 0.98268086 0.96624446
000310 7c f2 70 3f 51 90 6a 3f 95 2e 66 3f 91 0f 65 3f
       0.9412 0.9162646 0.8991483 0.8947688
000320 70 4c 67 3f 35 c9 6b 3f da e5 70 3f df 58 75 3f
       0.9035101 0.9210389 0.94100726 0.9583873
000330 9c 63 78 3f d7 13 7a 3f b9 ca 7a 3f 69 11 7b 3f
       0.9702699 0.97686523 0.9796558 0.9807344
000340 46 94 7b 3f 78 54 7c 3f 60 04 7c 3f 87 67 79 3f
       0.9827312 0.9856639 0.98444176 0.97423595
000350 68 d0 74 3f 3c bf 70 3f c4 86 70 3f 7c 35 76 3f
       0.956305 0.940418 0.93955636 0.9617536
000360 f7 9e 80 3f 29 24 87 3f b4 5b 8c 3f de 71 8e 3f
       1.0048512 1.055791 1.0965486 1.11285
000370 3b b6 8c 3f 7e 89 87 3f d3 93 80 3f 40 12 75 3f
       1.0993112 1.0588834 1.0045112 0.9573097
000380 a7 dc 6f 3f f0 98 71 3f 32 09 76 3f d3 b7 78 3f
       0.93696064 0.9437399 0.9610778 0.97155493
000390 7b 5e 78 3f 49 88 76 3f e2 5e 75 3f 8e 96 75 3f
       0.97019166 0.96301705 0.95847905 0.95932853
0003a0 23 a2 76 3f 31 92 77 3f c1 bf 77 3f 99 32 77 3f
       0.9634115 0.96707445 0.9677697 0.9656158
0003b0 a5 1f 76 3f 1c bf 74 3f 89 95 73 3f af 10 73 3f
       0.96142036 0.9560411 0.9515005 0.9494733
0003c0 55 fa 4f 3c 78 77 1e 3d 40 61 9d 3d 20 f1 f5 3d
       0.012693961 0.038688153 0.076845646 0.120088816
0003d0 f4 a6 27 3e a3 5d 51 3e e2 1b 76 3e 68 f2 8a 3e
       0.16372281 0.20445876 0.24034074 0.27138066
0003e0 16 b5 98 3e f5 61 a4 3e fb eb ad 3e 6d 90 b5 3e
       0.29825658 0.32105985 0.339691 0.3546175
0003f0 56 9c bb 3e 7e 3f c0 3e 55 63 c3 3e c2 8b c4 3e
       0.36642712 0.3754844 0.38161722 0.38387877
