to_fbx/guo_np_original_result/guo_zigzag_smpl_3Dparams.npz (npz, 36516 bytes, 2 tensors)

body_pose (column-major) f4 [120, 72]
000000 5b 34 89 bc 23 37 be bc ca 1d d2 bc e2 c7 d6 bc
       -0.016748598 -0.02321965 -0.02564897 -0.026218358
000010 fe 76 99 bc fa ae 3f bc bf 77 42 ba a4 ef 2b 3c
       -0.018733498 -0.0116994325 -0.0007418356 0.0104941465
000020 db 2c ba 3c 56 08 16 3d ed 97 35 3d 56 3f 53 3d
       0.022726467 0.036629044 0.04433434 0.051574074
000030 c5 de 68 3d 27 7a 62 3d 63 59 40 3d 69 ea 0f 3d
       0.056853075 0.055292275 0.046960246 0.03513566
000040 c1 3e cf 3c 4d be bb 3c 38 05 e1 3c 79 be fa 3c
       0.025298478 0.02291789 0.027468309 0.030608403
000050 ef 26 ce 3c 67 ae 30 3c 42 5b 34 bb bc 3f 96 bc
       0.02516505 0.010783768 -0.0027520214 -0.018340938
000060 14 18 5d bc d7 4c 59 3b e5 ab 8b 3c 1d 89 9c 3c
       -0.01349451 0.0033157372 0.01704974 0.01910835
000070 93 84 d8 3b 60 fc 75 bc 33 75 01 bd be 1c 0f bd
       0.006607601 -0.015013784 -0.03160591 -0.03493952
000080 3e a0 df bc 8c ca a5 bc 33 ad 9f bc 23 ae c7 bc
       -0.02729809 -0.020238183 -0.019491768 -0.024375027
000090 dc 52 fc bc 30 30 06 bd 5c 97 e9 bc 1b 98 9e bc
       -0.03080123 -0.0327608 -0.028514557 -0.019359639
0000a0 a7 42 2f bc 45 87 db bb b0 a6 08 bc 9d 07 67 bc
       -0.0106970435 -0.006699475 -0.008340523 -0.014100936
0000b0 4b 20 a9 bc c2 ba bb bc 8b 3e 98 bc 74 06 c9 bb
       -0.020645281 -0.022916202 -0.01858451 -0.0061348025
0000c0 d8 87 45 3c b2 21 e8 3c 00 ae 05 3d 8b 6a b7 3c
       0.012056313 0.02833638 0.032636642 0.02238967
0000d0 5c 29 0a 3c e5 85 2c bb 9e 04 3e bc 69 05 80 bc
       0.008432712 -0.0026324925 -0.0115977805 -0.01562758
0000e0 45 8f 53 bc 53 0e 95 bb d8 59 5c 3b 75 b4 2e 3b
       -0.012912576 -0.0045488267 0.0033622887 0.0026657854
0000f0 28 8f 43 bc 71 ca 0c bd 25 8a 51 bd ec 6a 13 bd
       -0.011935987 -0.03437275 -0.051157136 -0.03599064
000100 d4 85 70 bd 8c 73 61 bd 3f 1a 47 bd a3 09 4a bd
       -0.05872138 -0.055041835 -0.048609015 -0.049325597
000110 8a ea 68 bd f7 e8 87 bd c8 c8 9e bd 0e 30 b2 bd
       -0.0568643 -0.066362314 -0.0775314 -0.08700572
000120 16 e5 b9 bd 2a db b0 bd e4 95 9c bd 9c 78 8e bd
       -0.09076898 -0.08635552 -0.07645777 -0.06956598
000130 cc 68 92 bd 75 99 a2 bd d8 b9 b0 bd cf d5 b0 bd
       -0.07148895 -0.07939426 -0.08629197 -0.08634531
000140 f1 5f 9e bd b1 8e 81 bd 37 c8 5a bd de 0a 56 bd
       -0.07733143 -0.06326044 -0.053413596 -0.052256458
000150 f7 5b 5c bd de d3 5a bd e8 88 5f bd 31 71 5d bd
       -0.053798642 -0.05342471 -0.054573923 -0.054063026
000160 21 96 49 bd e2 f6 1b bd b1 38 c6 bc dc ab 86 bc
       -0.04921544 -0.038077243 -0.024196954 -0.01643937
000170 a0 07 c2 bc 83 d6 2d bd 58 0d 74 bd cf 88 87 bd
       -0.023685277 -0.042440902 -0.059583038 -0.06617891
000180 31 8c 7f bd 2f 6a 6a bd c5 b7 6c bd 54 3d 83 bd
       -0.062389556 -0.05723017 -0.057792444 -0.06408182
000190 88 55 95 bd 2e 60 a4 bd 73 82 a9 bd 02 59 9f bd
       -0.072917044 -0.08026157 -0.08276834 -0.07780649
0001a0 a2 ed 89 bd ae 6e 66 bd a0 a4 47 bd 45 f5 42 bd
       -0.06734778 -0.056257896 -0.048740983 -0.04759719
0001b0 7a 77 5f bd de 2f 84 bd 9b ea 8c bd 9a 80 85 bd
       -0.0545573 -0.064544424 -0.06880685 -0.065186694
0001c0 f9 17 70 bd 4c f3 5f bd c7 95 48 bd 2c b3 39 bd
       -0.058616612 -0.054675385 -0.048970964 -0.045336887
0001d0 c5 42 31 bd b0 e4 27 bd 3e b7 13 bd b9 ec f3 bc
       -0.043276567 -0.040989578 -0.036063425 -0.029775964
0001e0 2e db a4 3c ac 98 19 bd 07 90 f8 bd 28 79 53 be
       0.020124044 -0.037499115 -0.12136846 -0.20651686
0001f0 2d 0a a3 be d3 d0 dc be 04 8c 0d bf 81 9b 29 bf
       -0.318437 -0.4312807 -0.5529177 -0.66252905
000200 12 a6 43 bf 03 ec 5b bf 74 1e 74 bf 4f f9 86 bf
       -0.7642528 -0.85907 -0.9535897 -1.0544833
000210 60 fc 95 bf 5d 1e a5 bf 51 46 b2 bf 9e 2f bd bf
       -1.1717644 -1.2899891 -1.3927709 -1.4780157
000220 9c 4b c6 bf b5 1d d2 bf 74 a5 d8 bf 41 f6 dd bf
       -1.5491824 -1.6415316 -1.6925492 -1.7340776
000230 fb 41 e2 bf 0d 1a e5 bf 05 2c e2 bf 16 28 e5 bf
       -1.7676386 -1.7898575 -1.7669684 -1.7902858
000240 b9 7d e4 bf fe e2 e4 bf 2c 64 e7 bf ab 15 eb bf
       -1.7850868 -1.7881773 -1.8077445 -1.8365988
000250 01 3c ee bf 52 47 f1 bf 40 17 f5 bf 8d 88 f8 bf
       -1.8612062 -1.884989 -1.914772 -1.9416672
000260 c4 95 f9 bf a7 79 f7 bf d2 6b f3 bf 66 7b ed bf
       -1.949883 -1.9334 -1.9017279 -1.8553283
000270 f3 86 e4 bf d5 0b d9 bf cf 9c cb bf 86 aa bc bf
       -1.7853683 -1.6956736 -1.5907229 -1.473954
000280 00 15 ad bf 16 28 9d bf 92 47 8d bf c9 6e 7c bf
       -1.3522034 -1.2277858 -1.1037467 -0.98606545
000290 84 75 5f bf e9 2c 45 bf 3a 17 2f bf 7e 84 1b bf
       -0.8728869 -0.7702165 -0.68394816 -0.6074904
0002a0 20 1c 09 bf b3 73 ee be 31 38 c8 be 14 40 9e be
       -0.5355854 -0.46572646 -0.3910537 -0.30908263
0002b0 cb b5 5e be 01 ae f0 bd 9d ad 32 bc 36 fa c4 3d
       -0.21749036 -0.117519386 -0.01090565 0.096180364
0002c0 ec 8b 4e 3e 81 f3 9a 3e 5e 90 c7 3e 1b 5d ea 3e
       0.20170563 0.30263904 0.3897733 0.4577416
0002d0 fe 5e 05 3f df b7 16 3f fc b1 26 3f cb b7 36 3f
       0.5209807 0.58874315 0.6511533 0.71374196
0002e0 31 81 3e 3f 74 3c 45 3f 84 fc 4c 3f 17 08 57 3f
       0.7441588 0.7704537 0.8007281 0.8399672
0002f0 12 ab 63 3f 2e d5 72 3f 37 70 81 3f b3 33 89 3f
       0.8893291 0.94856536 1.011237 1.0718902
000300 9e 8b 8f 3f d1 0a 94 3f d2 09 98 3f b7 08 9c 3f
       1.1214483 1.1565801 1.1877997 1.219016
000310 47 89 a0 3f c1 23 a5 3f 67 27 a8 3f a5 61 a9 3f
       1.2541894 1.2901536 1.3137025 1.3232924
000320 63 d6 a8 3f d2 a5 a7 3f 55 99 a8 3f 29 e4 ab 3f
       1.3190426 1.3097479 1.3171793 1.3429004
000330 33 d0 af 3f ed d8 b3 3f 04 50 b7 3f 12 9b b9 3f
       1.3735412 1.4050575 1.4321294 1.4500449
000340 70 39 ba 3f 4c 98 b9 3f 83 4f b8 3f d8 9e b5 3f
       1.4548779 1.4499602 1.4399265 1.41891
000350 a7 e8 b0 3f c4 8c aa 3f 06 0d a3 3f 8c 5b 9b 3f
       1.3821 1.3324208 1.273835 1.2137313
000360 93 ef 93 3f 93 a4 8c 3f df fd 84 3f 8e d0 79 3f
       1.1557487 1.0987724 1.0389975 0.97583854
000370 ec fb 69 3f 7f ee 5b 3f 9b e9 4e 3f 95 7f 42 3f
       0.9140003 0.8591079 0.80825204 0.75975925
000380 92 a3 37 3f 6f 26 2f 3f 3b 62 27 3f 8b 87 1e 3f
       0.71733963 0.6841802 0.6538426 0.6192557
000390 7e a2 13 3f dc e0 05 3f bf 59 ea 3e 1c a4 c4 3e
       0.5766982 0.52296233 0.45771596 0.38406456
0003a0 d7 18 9d 3e 3d f6 62 3e ac 61 2a 3e 02 2d 01 3e
       0.30683014 0.22164245 0.16638821 0.12614825
0003b0 b5 b0 c0 3d cf a3 84 3d d1 2b 19 3d 30 4a 85 3c
       0.09408704 0.064765565 0.037395302 0.016270727
0003c0 71 0a d9 3a 1f 52 43 bb 2e 9a 15 bc 01 42 2e bc
       0.0016558898 -0.0029803587 -0.009130998 -0.010635854
0003d0 3b e4 71 bc e9 b1 e8 bb 0f 96 07 bb e7 b6 e3 3b
       -0.014763887 -0.0071012867 -0.0020688807 0.006949294
0003e0 14 4a aa 3c 54 56 1d 3d 49 92 60 3d 4b e9 93 3d
       0.020787276 0.038412407 0.05482701 0.072222315
0003f0 b9 73 b7 3d ea b3 d6 3d a5 96 f0 3d 29 d2 02 3e
       0.08957619 0.10483535 0.11747483 0.12775482

transl (column-major) f4 [120, 3]
000000 aa a3 26 3a f0 e2 f0 3a 9d 50 64 3b f8 96 a8 3b
       0.00063567853 0.001837818 0.0034838088 0.00514495
000010 d5 35 c2 3b 29 43 8a 3b b0 a9 e0 ba f9 36 4f bc
       0.0059268274 0.004219432 -0.0017140415 -0.012647384
000020 8c 54 eb bc 1a 92 4e bd 41 5b a0 bd 90 e0 e4 bd
       -0.028726839 -0.050432302 -0.07829905 -0.111756444
000030 a3 90 18 be 78 53 40 be d0 df 68 be de f0 89 be
       -0.14898925 -0.18781841 -0.22741628 -0.2694158
000040 e0 32 a2 be 6d 4e be be ed 3b de be 1a 67 00 bf
       -0.3167944 -0.3716921 -0.43405095 -0.5015732
000050 cc 0f 12 bf a3 28 23 bf 52 5a 33 bf a8 20 43 bf
       -0.57055354 -0.6373388 -0.7005969 -0.76221704
000060 72 51 53 bf d2 6a 64 bf e0 3b 76 bf 92 01 84 bf
       -0.8254615 -0.89225495 -0.9618511 -1.0312979
000070 69 6f 8c bf 11 41 94 bf 0a c2 9b bf 0c 6a a3 bf
       -1.09715 -1.1582357 -1.2168591 -1.2766738
000080 42 8c ab bf 46 26 b4 bf 35 cc bc bf 3c e4 c4 bf
       -1.3402178 -1.407418 -1.4749819 -1.5382152
000090 2a 06 cc bf ed 2e d2 bf 35 a6 d7 bf 23 bb dc bf
       -1.5939381 -1.6420571 -1.6847597 -1.724461
0000a0 28 a6 e1 bf 04 7a e6 bf 9c 0f eb bf 8c 24 ef bf
       -1.7628832 -1.8005986 -1.8364139 -1.8683028
0000b0 7c 8c f2 bf c1 4a f5 bf 27 86 f7 bf fb 5f f9 bf
       -1.8949122 -1.9163438 -1.9337815 -1.9482416
0000c0 f1 e3 fa bf 52 09 fc bf e5 b6 fc bf 60 d2 fc bf
       -1.9600812 -1.9690344 -1.9743315 -1.9751701
0000d0 a5 5c fc bf 09 81 fb bf 08 72 fa bf ad 40 f9 bf
       -1.9715773 -1.9648753 -1.956605 -1.9472862
0000e0 cb e3 f7 bf a6 46 f6 bf 5c 54 f4 bf 2d 08 f2 bf
       -1.9366392 -1.924031 -1.9088244 -1.8908745
0000f0 b3 75 ef bf 1f b3 ec bf d9 b7 e9 bf 25 60 e6 bf
       -1.8707794 -1.8492163 -1.8259231 -1.7998091
000100 fa 8d e2 bf c8 2d de bf 16 25 d9 bf 38 66 d3 bf
       -1.7699578 -1.7357721 -1.6964443 -1.651557
000110 2f 1d cd bf ed a4 c6 bf e0 2f c0 bf 27 a0 b9 bf
       -1.6024531 -1.5519081 -1.501461 -1.4502
000120 ea b8 b2 bf 8e 4d ab bf ef 4c a3 bf 49 db 9a bf
       -1.3962681 -1.3383043 -1.2757853 -1.209817
000130 19 58 92 bf 6f 21 8a bf 8a 39 82 bf 52 90 74 bf
       -1.1433135 -1.0791453 -1.017381 -0.95532715
000140 53 ef 63 bf 62 44 52 bf 19 94 3f bf e1 52 2c bf
       -0.89037055 -0.82135594 -0.74835354 -0.67313963
000150 fb 50 19 bf c0 31 07 bf a9 d5 eb be 55 dd c9 be
       -0.5988919 -0.5281029 -0.46061447 -0.39426675
000160 64 51 a7 be 9e 5e 83 be c0 2f 3b be 4f e7 d9 bd
       -0.32679284 -0.25658125 -0.18279934 -0.10639822
000170 d9 83 fa bc e6 51 26 3d 4c c5 d7 3d 58 47 29 3e
       -0.030580448 0.04060545 0.10535678 0.16531122
000180 c5 a1 64 3e 1d 0d 90 3e df 33 ae 3e c3 ee cb 3e
       0.22327335 0.28135005 0.3402395 0.39830598
000190 81 a2 e7 3e b1 16 00 3f 94 d1 0a 3f 80 67 14 3f
       0.45241168 0.50034624 0.5422604 0.5797043
0001a0 2f 53 1d 3f f8 0c 26 3f 0f d1 2e 3f 51 67 37 3f
       0.61455053 0.6486354 0.6828775 0.71642023
0001b0 a3 55 3f 3f b2 54 46 3f 02 77 4c 3f 27 00 52 3f
       0.74740046 0.77472985 0.7986909 0.8203148
0001c0 fb 2f 57 3f f1 1e 5c 3f 9c b8 60 3f 56 da 64 3f
       0.8405759 0.8598471 0.8778169 0.89395654
0001d0 74 6b 68 3f 4f 62 6b 3f 80 b5 6d 3f 30 35 6f 3f
       0.9078896 0.9194688 0.9285507 0.9344053
0001e0 be 9c 73 3f cd c8 72 3f ec d5 71 3f ca 42 71 3f
       0.95161045 0.9483765 0.94467044 0.9424254
0001f0 ec 28 71 3f c2 31 71 3f f8 19 71 3f 88 cd 70 3f
       0.94203067 0.9421655 0.9418025 0.94063616
000200 05 67 70 3f 5e ea 6f 3f 6d 2d 6f 3f a4 28 6e 3f
       0.93907195 0.9371699 0.9342869 0.9303076
000210 1b df 6c 3f 67 39 6b 3f ae 90 69 3f 53 a4 68 3f
       0.9252793 0.91884464 0.9123639 0.9087574
000220 c5 37 69 3f 74 8a 6b 3f 77 d3 6e 3f f5 43 71 3f
       0.9110072 0.9200814 0.9329142 0.9424432
000230 45 28 71 3f 47 65 6e 3f d7 f6 6a 3f a6 1c 69 3f
       0.9420207 0.93123287 0.917829 0.9105934
000240 8a d6 69 3f a6 b8 6c 3f bc 2a 70 3f 8d 3f 72 3f
       0.91342986 0.9246925 0.9381521 0.9462822
000250 89 30 72 3f c4 f1 70 3f 78 0f 70 3f 3a 1b 70 3f
       0.9460531 0.94118905 0.93773603 0.93791544
000260 9c 8f 70 3f c3 97 70 3f ee d2 6f 3f ed 7d 6e 3f
       0.9396913 0.9398157 0.9368123 0.931609
000270 31 9d 6d 3f 9c 37 6e 3f 13 46 70 3f 5c bc 72 3f
       0.9281798 0.93053603 0.93856925 0.94818664
000280 70 58 74 3f ab 5c 74 3f e6 dd 72 3f 98 9c 70 3f
       0.95447445 0.954539 0.9486984 0.93988943
000290 fd b6 6e 3f bf eb 6d 3f 46 5a 6e 3f dc 8a 6f 3f
       0.9324797 0.92937845 0.93106496 0.9357126
0002a0 2d c6 70 3f da 5e 71 3f c5 13 71 3f a5 1d 70 3f
       0.9405239 0.94285357 0.9417079 0.93795234
0002b0 e6 e1 6e 3f 3c e2 6d 3f 41 a9 6d 3f a3 62 6e 3f
       0.93313444 0.9292333 0.92836386 0.9311926
0002c0 8d b7 6f 3f 82 05 71 3f 27 c5 71 3f 42 90 71 3f
       0.9363945 0.9414903 0.94441456 0.94360745
0002d0 de 4d 70 3f 98 87 6e 3f 7a 4f 6d 3f ce 57 6d 3f
       0.93868816 0.9317565 0.92699397 0.92712104
0002e0 b0 91 6e 3f 46 61 70 3f 6e 13 72 3f ac fd 72 3f
       0.9319105 0.9389843 0.945609 0.9491832
0002f0 a2 8e 72 3f e9 d8 70 3f f6 e0 6e 3f ab e2 6d 3f
       0.9474889 0.9408098 0.93312013 0.9292399
000300 c9 94 6e 3f 63 ab 70 3f 7e 1a 73 3f b3 56 74 3f
       0.9319578 0.94011515 0.949623 0.9544479
000310 36 4f 73 3f 32 ad 70 3f 02 6e 6e 3f 46 2d 6e 3f
       0.9504274 0.94014275 0.9313661 0.9303783
000320 f0 f5 6f 3f 16 a8 72 3f 74 e0 74 3f 4a 5a 75 3f
       0.93734646 0.9478773 0.9565499 0.95840895
000330 cb ae 73 3f 6b ff 70 3f 4c 23 6f 3f f4 57 6f 3f
       0.9518859 0.94139737 0.93413234 0.9349358
000340 13 cf 71 3f be 4d 75 3f 22 c0 77 3f 22 61 77 3f
       0.94456595 0.9582175 0.96777546 0.9663259
000350 47 fa 73 3f f2 67 6f 3f 95 1e 6c 3f 6a 7d 6b 3f
       0.9530377 0.9351798 0.92234164 0.9198824
000360 bd 22 6d 3f c1 95 6f 3f 57 25 71 3f c8 a8 70 3f
       0.9263113 0.9358788 0.941976 0.9400754
000370 e1 6c 6e 3f d6 54 6c 3f d2 16 6c 3f f5 a7 6d 3f
       0.93134886 0.9231695 0.9222232 0.9283441
000380 fa db 6f 3f fb a3 71 3f a9 6d 72 3f 8c 31 72 3f
       0.9369503 0.9439084 0.9469858 0.9460685
000390 5b 44 71 3f 0c 43 70 3f 64 c4 6f 3f 05 00 70 3f
       0.9424493 0.93852305 0.93659043 0.9375003
0003a0 da a9 70 3f 09 54 71 3f 32 cb 71 3f 4c 1b 72 3f
       0.9400917 0.9426885 0.94450676 0.945729
0003b0 0b 47 72 3f 6e 53 72 3f e0 59 72 3f 4c 70 72 3f
       0.9463965 0.94658554 0.9466839 0.947026
0003c0 26 ea 2b 3a 8e 06 ea 3a de 15 54 3b 58 c8 ac 3b
       0.0006558023 0.0017854737 0.0032361667 0.0052729063
0003d0 9f c6 0b 3c 80 8f 56 3c 67 fe 97 3c 9a d3 c7 3c
       0.008531242 0.0130957365 0.018553926 0.024392892
0003e0 07 1d f5 3c 1d 6d 0c 3d f2 1d 17 3d e5 57 19 3d
       0.029921068 0.034283746 0.036893792 0.03743734
0003f0 2a c3 12 3d 7f 97 06 3d 2e 4e f7 3c 6c 9d ed 3c
       0.035830654 0.03285932 0.030188646 0.029005729
