to_fbx/motiondiffuse_np_original_result/unused/jogsliftkneehigh_smpl_3Dparams.npz (npz, 36516 bytes, 2 tensors)

body_pose (column-major) f4 [120, 72]
000000 e6 51 44 bc 5d bc 83 bc 5e 9e b6 bc cd 05 e0 bc
       -0.011982417 -0.01608103 -0.022292312 -0.027346516
000010 32 3f f3 bc 5d 5a dd bc 7e f8 97 bc b6 61 16 bc
       -0.02969322 -0.027020628 -0.018551107 -0.00917857
000020 00 00 00 00 56 3b 12 3c 13 58 31 3c b7 7a bd 3a
       0.0 0.00892528 0.010824221 0.0014456128
000030 8d c2 84 3d 20 cd 02 3d 81 41 4b bb 8a 80 e9 bc
       0.0648242 0.031933904 -0.0031014385 -0.028503675
000040 af b7 05 bd 63 82 48 bc 98 58 a6 3c 92 a9 7a 3b
       -0.032645877 -0.012238118 0.020305917 0.0038248044
000050 36 c2 fc 3c 2f 99 22 3c 47 1d b6 3c 92 de 75 3d
       0.030854326 0.009924217 0.022230757 0.060026713
000060 e6 63 6e 3d f0 67 47 3d 3e 69 14 3d e8 d4 b9 3c
       0.05820074 0.048683107 0.03623318 0.02268453
000070 2b e9 25 3c 4a c9 87 ba 80 87 1c bc b3 dc 54 bc
       0.010126392 -0.0010359671 -0.00955379 -0.012992072
000080 0e 94 4b bc 58 ab 27 bc 27 9b 8a bb 9a 6c b5 3b
       -0.012425436 -0.010233723 -0.0042299214 0.005536628
000090 bb 9d 9d 3d b0 e7 d2 3c 93 bd 0f 3d b0 83 2e 3d
       0.076961 0.025745243 0.0350929 0.042606056
0000a0 f2 e7 3c 3d b7 13 2f 3d 58 98 0c 3d a2 33 00 3d
       0.046119638 0.04274341 0.034324974 0.03129924
0000b0 04 b6 05 3d 43 c6 d4 3c 3e e0 fe 3b 8a 1d 9d 3d
       0.032644287 0.025973445 0.0077781966 0.0767165
0000c0 50 f4 4e 3d 74 cb 1e 3d 93 42 14 3d a0 87 25 3d
       0.050525963 0.038768247 0.036196303 0.040412545
0000d0 b8 f5 63 3d a4 7b a3 3d cf 67 cd 3d 4c 47 e0 3d
       0.055654258 0.07982567 0.100295655 0.10951099
0000e0 8c 5b e2 3d 68 ae e2 3d 28 58 dd 3d b2 70 ce 3d
       0.110526174 0.110684216 0.1080783 0.10080089
0000f0 dd 04 ca 3d a5 b0 dc 3d 7a ff f4 3d 27 e4 fc 3d
       0.09864209 0.1077588 0.11962791 0.12348204
000100 15 07 f2 3d 31 f4 cd 3d 09 61 21 bc a8 37 cc bc
       0.11817757 0.100563414 -0.009849795 -0.024928883
000110 ca 46 e4 bc 4b 32 a0 bc eb 8e 93 bb 5d a0 3e bc
       -0.027865786 -0.019555232 -0.004503121 -0.011634913
000120 ee 86 8f 3b aa 64 9c 3c 0e d2 cc 3c 76 1e 03 3d
       0.0043800985 0.01909097 0.025002506 0.03201147
000130 25 d1 0e 3d 06 e1 28 3d c4 89 d0 3c 98 fb 9d 3d
       0.034867425 0.041230224 0.025456317 0.07714003
000140 97 9d 8b 3d 7d 5a 9d 3d 96 c3 c0 3d 37 64 e5 3d
       0.06817167 0.07683275 0.09412305 0.11200755
000150 6c 74 08 3e 05 bc 1e 3e 47 3c 30 3e 1e b7 3a 3e
       0.13325661 0.15501411 0.17210494 0.18233916
000160 74 9a 3d 3e 39 e4 39 3e d5 1a 32 3e ed 57 25 3e
       0.1851595 0.18153466 0.17393048 0.16146822
000170 3f b7 13 3e 65 55 05 3e 3e 11 f2 3d 94 91 d3 3d
       0.14425372 0.13020857 0.11819695 0.10330501
000180 0b 53 b9 3d ae cf a6 3d f1 dc 92 3d b0 1b 7f 3d
       0.09049042 0.081450805 0.071710475 0.062282264
000190 d8 7d 76 3d cc 92 82 3d b9 3c 85 3d 48 d3 82 3d
       0.060178608 0.063756555 0.065057226 0.06387955
0001a0 f7 54 81 3d 99 db 75 3d 1a b2 68 3d bc b8 69 3d
       0.06315034 0.060023878 0.056810476 0.057060942
0001b0 b6 ad 77 3d 44 37 81 3d 91 47 73 3d 09 69 42 3d
       0.060468398 0.06309369 0.059394423 0.04746345
0001c0 66 e1 08 3d c2 74 b2 3c 84 8c 37 3c 00 5e a0 ba
       0.03341808 0.02178419 0.011202935 -0.0012235045
0001d0 bd 86 75 bc 58 70 a2 bc 81 bf 38 bc cc a3 81 bd
       -0.014985737 -0.01982896 -0.011276127 -0.0633007
0001e0 11 81 7c bd fa 18 a6 bd f2 7b ca bd 39 20 d5 bd
       -0.061646525 -0.08110233 -0.09886922 -0.104065366
0001f0 cc a4 d7 bd 70 a1 f1 bd 53 89 08 be 7b 54 12 be
       -0.105294794 -0.1179837 -0.13333635 -0.14290039
000200 59 7b 15 be 79 62 15 be 7a ee 14 be 63 97 0f be
       -0.14597835 -0.14588346 -0.14544097 -0.14022593
000210 9a a4 1d be ff 2b 26 be b2 b8 2b be 6b 6e 1f be
       -0.15394822 -0.1622772 -0.16769674 -0.15569465
000220 b0 f4 ff bd 2f 52 9c bd 90 08 a8 3b d0 2f a8 be
       -0.12497842 -0.07632863 0.005127974 -0.32848978
000230 12 43 a7 be ab d4 aa be 7e 1e b5 be 86 98 15 3d
       -0.32668358 -0.33365378 -0.35374826 0.03652241
000240 78 96 94 bd ec 54 f7 bd f2 50 0b be 91 db 02 be
       -0.07255262 -0.120767444 -0.13605097 -0.1277907
000250 e1 49 bc bd 5b 77 56 bd 23 aa 04 bd 5a fc 12 bd
       -0.09193779 -0.05235992 -0.032388818 -0.035885192
000260 6b ce 49 bd a9 b3 65 bd 4d 71 58 bd d1 1e 38 bd
       -0.04926912 -0.05607954 -0.052842427 -0.044951264
000270 7a 3f 72 bd 66 45 43 bd 8d 1c 66 bd e1 05 86 bd
       -0.059142567 -0.047673605 -0.056179572 -0.0654409
000280 aa 99 aa bd 24 56 f4 bd 2a 6e 26 be bb 87 61 be
       -0.0833009 -0.119304925 -0.16252962 -0.22024433
000290 00 7f 8f be 24 83 9f be 76 be 9d be b0 af a1 be
       -0.2802658 -0.3115474 -0.30809373 -0.3157935
0002a0 13 8f 9a be cd 6a 88 be 42 34 63 be 51 6e 36 be
       -0.30187282 -0.26643983 -0.22187904 -0.1781552
0002b0 b5 50 03 be ca de 76 bd 2e 52 95 3c 20 84 75 3d
       -0.12823756 -0.060271062 0.018227663 0.059940457
0002c0 31 cc 80 3d 21 60 fa 3c 25 ca cc bc c5 30 b5 bd
       0.062889464 0.030563416 -0.024998734 -0.08847193
0002d0 87 35 0b be fc ea 2e be 0d 09 2e be f0 50 20 be
       -0.13594638 -0.17081827 -0.1699564 -0.15655875
0002e0 97 57 2c be e4 02 25 be 70 32 e4 bd cb 97 83 bd
       -0.16830288 -0.16114384 -0.11142433 -0.064254366
0002f0 7c 4d a9 bc 92 2d a6 3c 83 ee a3 3d db 31 83 be
       -0.02066683 0.020285401 0.08004477 -0.25623974
000300 7e 56 82 be 62 78 80 be 3e b6 79 be 16 00 76 be
       -0.25456613 -0.25091845 -0.24385926 -0.2402347
000310 3c d0 7a be 62 da 46 3e 31 06 18 3e f3 cf d4 3d
       -0.24493498 0.19419244 0.14846112 0.10391226
000320 c9 65 0b 3d 01 bb 17 bd 47 51 d1 bd f7 aa 2c be
       0.034032617 -0.037043575 -0.102205805 -0.16862093
000330 16 84 67 be 2d bc 81 be 84 4a 85 be 39 a9 89 be
       -0.2260898 -0.2533888 -0.26033413 -0.2688692
000340 04 c1 90 be 58 92 96 be aa e2 93 be dd 31 8b be
       -0.2827226 -0.29408526 -0.28883868 -0.2718648
000350 d9 a7 81 be 28 24 66 be 1e 04 40 be e5 b8 29 be
       -0.2532337 -0.2247473 -0.1875157 -0.16574438
000360 3e 1b 36 be 69 cc 58 be 90 db 80 be 93 f1 91 be
       -0.1778383 -0.21171726 -0.25167513 -0.2850462
000370 17 f6 9a be 6a da a1 be 0d 24 ac be 5d 7f bb be
       -0.30265877 -0.3161195 -0.33621255 -0.36620608
000380 2d e2 ca be 81 4b d6 be 25 c1 df be 07 70 e4 be
       -0.39625683 -0.4185448 -0.43702045 -0.4461672
000390 ea cb e0 be 98 2a d5 be 17 d2 c5 be 84 bf b5 be
       -0.43905574 -0.4163406 -0.38636848 -0.35497677
0003a0 86 65 a4 be a6 98 93 be 4c f9 82 be c6 92 60 be
       -0.32108706 -0.288274 -0.25580823 -0.2193099
0003b0 a8 67 39 be 08 50 0e be d4 4c b4 bd ea db 37 bd
       -0.18105948 -0.13897717 -0.08803716 -0.04488746
0003c0 0b ea 84 3c c6 f8 8d 3c c5 dc 9c 3c 3a 61 a7 3c
       0.016224882 0.017330538 0.01914824 0.020432103
0003d0 8b c8 a6 3c f7 65 95 3c 18 cf 31 3c c0 ae 8a bb
       0.020359298 0.018237097 0.010852598 -0.0042322576
0003e0 a5 e0 a8 bc 64 d6 fc bc ff 4f 0f bd 4e b3 0e bd
       -0.020614931 -0.030863948 -0.0349884 -0.034838967
0003f0 44 c4 28 3b 5a 56 37 3b d6 7a ef 3b 46 b9 94 3c
       0.002575175 0.0027975054 0.0073083444 0.018154752

transl (column-major) f4 [120, 3]
000000 54 4d d8 38 cc 5c e4 b9 f6 3e 17 bb 11 8d 94 bb
       0.00010314086 -0.00043556688 -0.00230783 -0.004533418
000010 6d 17 a5 bb 93 4d 48 bb 18 2a 12 3a 4b 09 a9 3b
       -0.005038193 -0.0030563816 0.00055757305 0.0051585785
000020 1e 72 19 3c 23 a5 4f 3c 52 59 73 3c 0f 80 7e 3c
       0.009365587 0.012673649 0.014852839 0.015533461
000030 3d 99 71 3c fb ca 59 3c 07 17 48 3c 34 7c 4b 3c
       0.0147460075 0.013293023 0.012212521 0.012419749
000040 12 bb 65 3c 09 59 86 3c f9 44 9e 3c f5 69 bf 3c
       0.014021652 0.016399877 0.019319998 0.023365954
000050 ba 69 ef 3c b6 17 14 3d 4b 53 2f 3d 83 3e 47 3d
       0.029225219 0.036155425 0.042804044 0.0486436
000060 8e da 5b 3d bd 11 68 3d 4f f1 6a 3d b2 3b 69 3d
       0.053675227 0.05665754 0.057359036 0.056941696
000070 ef f3 64 3d 3f 1b 60 3d 4c f6 5a 3d 74 46 58 3d
       0.055896696 0.054713484 0.053457543 0.052801564
000080 04 57 5a 3d 72 bd 5e 3d 11 d5 65 3d 47 b6 6f 3d
       0.05330564 0.054379888 0.0561114 0.058523443
000090 e9 37 78 3d e7 5d 7c 3d 60 7e 7c 3d e5 cc 7a 3d
       0.060600195 0.06161299 0.061643958 0.06123056
0000a0 7f 21 75 3d 45 e8 6b 3d 89 fb 67 3d d8 a9 6e 3d
       0.059846397 0.057594556 0.056636367 0.058267444
0000b0 d3 23 79 3d d6 bb 7e 3d 29 79 7c 3d 72 6e 76 3d
       0.06082518 0.062190853 0.061638985 0.060163923
0000c0 71 73 73 3d 42 f9 75 3d 15 ba 7b 3d bc 3b 81 3d
       0.059436265 0.060052164 0.06145676 0.063102216
0000d0 5f 39 85 3d 0e a3 89 3d c6 a0 8c 3d 00 be 8e 3d
       0.06505083 0.06720553 0.068666026 0.069698334
0000e0 76 1a 91 3d c1 91 93 3d 34 20 95 3d b7 6a 97 3d
       0.07085125 0.07205535 0.07281533 0.07393401
0000f0 4b 8e 9d 3d 94 b4 a6 3d d0 ec ad 3d 20 38 af 3d
       0.07693156 0.08139911 0.08492434 0.08555627
000100 4b fa aa 3d bd ba a5 3d a9 b1 a1 3d 6a 8d 9d 3d
       0.08348521 0.08092258 0.07895214 0.07692988
000110 8e 51 9b 3d 5f cf 9c 3d 66 f3 9d 3d 5a cc 9e 3d
       0.07583915 0.076567404 0.0771244 0.07753821
000120 a4 46 a2 3d 93 9f a6 3d fd 46 ab 3d b6 18 b5 3d
       0.0792363 0.08135905 0.08363149 0.08842604
000130 54 a8 c4 3d 30 77 d4 3d 1e 74 e3 3d e4 fe f1 3d
       0.096024185 0.10374296 0.11106132 0.11816195
000140 54 dd fc 3d f6 da 02 3e 1d c7 07 3e fe 01 0e 3e
       0.123469025 0.1277884 0.1325955 0.13867947
000150 75 04 16 3e fe 17 1f 3e 97 df 26 3e 99 bc 2b 3e
       0.14650138 0.15536496 0.1629623 0.16771163
000160 84 93 2d 3e 19 af 2d 3e b2 fa 2c 3e 38 6e 2b 3e
       0.16950804 0.16961326 0.16892508 0.16741264
000170 e8 52 29 3e 21 19 27 3e 1e 8c 25 3e c2 44 26 3e
       0.16535532 0.1631818 0.16166732 0.16237167
000180 b5 00 2a 3e e4 ae 2e 3e a4 60 33 3e 59 77 38 3e
       0.16601832 0.17058903 0.17517334 0.18014278
000190 10 93 3c 3e 05 ae 3e 3e 2c d6 3e 3e 7d 68 3e 3e
       0.18415475 0.1862107 0.18636388 0.18594547
0001a0 8f 06 3f 3e 99 16 41 3e f5 3c 43 3e 78 fa 43 3e
       0.18654846 0.18856277 0.19066222 0.19138515
0001b0 c5 a2 43 3e e3 35 43 3e ff d6 42 3e ad 7f 42 3e
       0.1910506 0.19063525 0.19027327 0.18994017
0001c0 ad dd 42 3e 98 3d 44 3e 40 01 45 3e a4 1d 44 3e
       0.19029875 0.19164121 0.19238758 0.19151932
0001d0 e5 c3 43 3e 8d e8 44 3e 6b 3c 46 3e 22 65 47 3e
       0.19117697 0.19229336 0.19358985 0.19472173
0001e0 34 b4 80 3f ff 27 81 3f 52 78 81 3f 56 8a 81 3f
       1.0054994 1.0090331 1.0114844 1.0120342
0001f0 68 64 81 3f e7 10 81 3f 99 7e 80 3f 64 3c 7f 3f
       1.0108767 1.0083283 1.0038635 0.99701524
000200 80 bf 7d 3f 8c 00 7d 3f a0 dc 7c 3f 73 bb 7d 3f
       0.9912033 0.9882896 0.9877415 0.9911415
000210 5e 17 80 3f 06 33 82 3f e0 ba 84 3f 0d 55 87 3f
       1.0007131 1.0171821 1.036953 1.057283
000220 73 ca 89 3f c0 9e 8b 3f d9 d4 8b 3f f8 d6 89 3f
       1.0764908 1.0907822 1.0924331 1.0768728
000230 28 32 86 3f 57 5c 82 3f 0e 1d 7f 3f c3 12 7c 3f
       1.0484056 1.018443 0.9965371 0.9846613
000240 e5 9d 7a 3f 38 56 79 3f 43 75 78 3f 30 fc 78 3f
       0.9789718 0.97397184 0.9705393 0.9725981
000250 c0 48 7b 3f 04 d9 7e 3f f0 6f 81 3f f5 0d 83 3f
       0.9815788 0.9954989 1.0112286 1.0238634
000260 f0 23 84 3f 06 e6 84 3f 1c 65 85 3f 3f 3d 85 3f
       1.0323467 1.0382698 1.0421481 1.0409316
000270 13 47 84 3f a5 33 83 3f 2a 61 82 3f 5d c8 81 3f
       1.033419 1.0250136 1.0185902 1.0139271
000280 58 57 81 3f 78 e7 80 3f 6a 7a 80 3f dc bd 7f 3f
       1.010478 1.0070639 1.0037358 0.9989908
000290 fd 9d 7e 3f c8 9a 7f 3f 63 9d 81 3f 54 e4 83 3f
       0.9945982 0.9984555 1.0126156 1.0304055
0002a0 ff f7 85 3f 24 8b 87 3f 7c 0d 88 3f c8 25 87 3f
       1.0466307 1.0589337 1.0629115 1.0558405
0002b0 1b f0 84 3f 7b df 81 3f 80 10 7e 3f 54 40 7a 3f
       1.0385774 1.0146326 0.99243927 0.97754407
0002c0 c4 f2 78 3f 8c d3 79 3f 52 91 7c 3f 86 52 80 3f
       0.9724543 0.9758842 0.9865924 1.0025184
0002d0 8d a6 81 3f d3 9e 81 3f 19 1f 81 3f 44 3f 81 3f
       1.0128952 1.0126594 1.0087615 1.0097432
0002e0 73 36 82 3f c7 9c 83 3f a9 c7 84 3f 6b 78 85 3f
       1.0172867 1.028222 1.0373431 1.0427374
0002f0 5a ec 85 3f 2f 3b 86 3f a3 2a 86 3f 05 66 85 3f
       1.0462754 1.0486811 1.0481762 1.0421759
000300 07 ad 83 3f d0 f5 80 3f 4f 16 7c 3f f1 f5 77 3f
       1.0287179 1.0075016 0.9847154 0.9685965
000310 c8 04 77 3f 35 06 7a 3f cc 1e 80 3f 5e a4 83 3f
       0.9649167 0.9766572 1.0009398 1.0284536
000320 02 56 86 3f 15 f8 87 3f 7c 6e 88 3f 66 bc 87 3f
       1.0494998 1.0622584 1.0658717 1.060437
000330 08 21 86 3f 87 b2 83 3f 30 08 81 3f c3 ef 7d 3f
       1.047883 1.0288857 1.0080624 0.9919397
000340 8e 68 7b 3f 44 f9 79 3f e3 64 79 3f 37 a9 79 3f
       0.9820641 0.97645974 0.97419566 0.97523826
000350 d5 f4 7a 3f 74 94 7c 3f ad 16 7e 3f 06 c5 7f 3f
       0.98029834 0.9866402 0.9925335 0.9991001
000360 91 c5 80 3f 7a 98 81 3f c8 2a 82 3f c0 7e 82 3f
       1.0060292 1.0124657 1.0169306 1.0194931
000370 ac 5b 82 3f 69 0b 82 3f c4 27 82 3f 80 f0 82 3f
       1.0184226 1.0159732 1.0168386 1.0229645
000380 b7 30 84 3f 1c 81 85 3f 35 2a 86 3f 24 db 85 3f
       1.0327367 1.0430026 1.048163 1.0457501
000390 fd d2 84 3f 6a 76 83 3f f0 2c 82 3f 83 6c 81 3f
       1.0376889 1.0270512 1.0169964 1.011124
0003a0 e6 62 81 3f 0e e1 81 3f 9d a1 82 3f 82 57 83 3f
       1.0108306 1.0146806 1.020557 1.026108
0003b0 ac e2 83 3f 08 2f 84 3f cf 20 84 3f c1 df 83 3f
       1.030355 1.0326853 1.0322512 1.0302659
0003c0 eb b2 e0 b9 1b ed 6e ba a8 14 ba ba e3 52 1c bb
       -0.00042857914 -0.0009114311 -0.001419683 -0.0023853115
0003d0 68 17 61 bb df b4 80 bb 6b f1 5d bb 1f 3c f1 ba
       -0.0034346227 -0.0039278115 -0.003386582 -0.0018404758
0003e0 84 4b 3d b9 f7 25 94 3a 0f db b3 3a 76 b2 2f ba
       -0.00018052576 0.0011302818 0.0013721901 -0.0006702313
0003f0 f7 f3 86 bb 55 0d ca bb 05 ba b7 bb 51 40 a3 bb
       -0.0041184383 -0.00616614 -0.005606892 -0.0049820323
