to_fbx/motiondiffuse_np_original_result/skipsinacircle_smpl_3Dparams.npz (npz, 36516 bytes, 2 tensors)

body_pose (column-major) f4 [120, 72]
000000 4a 86 d2 bd b9 b0 ab bd c9 aa 6f bd 9a ea 0b bd
       -0.1027952 -0.083833165 -0.058512483 -0.03415928
000010 47 90 5e bc d8 3a c8 ba a8 23 78 bb cd 9c 9d bc
       -0.013584203 -0.0015276326 -0.003786305 -0.019239808
000020 2e 40 1b bd 74 c4 5f bd 37 a8 97 bd f6 48 be bd
       -0.037903003 -0.05463071 -0.07405131 -0.0929126
000030 3b a7 dd bd 75 1a ec bd 01 4e d9 bd ec 80 a5 bd
       -0.10822912 -0.11528484 -0.10610581 -0.080812305
000040 5e fc 47 bd 66 39 03 bd cb c3 16 bd c9 47 59 bd
       -0.04882466 -0.03203716 -0.036807816 -0.053046975
000050 07 c8 8b bd d7 f5 9a bd 5c 38 9b bd 74 12 96 bd
       -0.068252616 -0.075664215 -0.07579109 -0.073277384
000060 ec 85 8f bd e5 3b 8d bd 87 ae 99 bd a7 03 bb bd
       -0.070079654 -0.068961896 -0.075039916 -0.09131556
000070 6b 52 eb bd f0 36 0c be 5e 18 16 be 1c 13 10 be
       -0.11490329 -0.13692832 -0.14657733 -0.1406979
000080 87 e0 f3 bd ac 24 b9 bd a0 6a 8a bd 03 75 56 bd
       -0.119080596 -0.09040198 -0.06758618 -0.052357685
000090 94 c3 2c bd 48 17 13 bd 9c 14 13 bd dc 26 16 bd
       -0.042178705 -0.035910875 -0.035908327 -0.036658153
0000a0 4b d4 db bc f2 b1 fe bb 1b 2d 18 3c 2d 27 95 3c
       -0.026834628 -0.0077726776 0.009288098 0.018207157
0000b0 3c fa ca 3c 6a 65 03 3d bc 22 1b 3d 17 bd 27 3d
       0.024777524 0.032079138 0.037874922 0.040951815
0000c0 1c 8f 15 3d 97 25 cb 3c c2 5a 23 3c b0 c1 cb bb
       0.036513433 0.024798198 0.009970369 -0.0062181577
0000d0 c6 3c 61 bc ac e6 de bb 1a cf 26 3c ad eb 00 3d
       -0.0137474 -0.0068024006 0.010181213 0.031474758
0000e0 d4 30 43 3d 6f 90 3e 3d 72 e5 e4 3c 75 e1 39 bb
       0.047653988 0.04652446 0.02794144 -0.0028363143
0000f0 87 66 1b bd ce d4 91 bd ba ee c9 bd 40 73 ec bd
       -0.037939575 -0.071206674 -0.098599866 -0.1154542
000100 da 09 f7 bd d7 81 f0 bd 3f e5 de bd 7f 5e bc bd
       -0.12062426 -0.11743515 -0.10883569 -0.09197711
000110 24 27 89 bd 5a ab 23 bd 45 89 93 bc 18 73 d0 bb
       -0.066969186 -0.039958335 -0.018009791 -0.0063613765
000120 c0 19 c6 bb ff 79 65 bc 3b 89 d0 bc f4 28 13 bd
       -0.00604555 -0.014006137 -0.025456062 -0.035927728
000130 56 db 20 bd 95 35 00 bd e6 be c3 bc 8c 11 c8 bc
       -0.039271675 -0.0313011 -0.023894738 -0.02442243
000140 5a 34 02 bd e2 9f 33 bd 38 16 87 bd 4c ad cd bd
       -0.031788208 -0.043853648 -0.06596035 -0.100428194
000150 8c 14 07 be ea 26 15 be 65 de 10 be bc 26 00 be
       -0.13191432 -0.14565626 -0.14147337 -0.12514776
000160 4f a1 cf bd 3a 0b 98 bd a4 a7 57 bd 79 30 24 bd
       -0.10138189 -0.07424016 -0.05265011 -0.04008529
000170 97 bc 06 bd fb f7 df bc 4d b9 e9 bc c1 ab 1a bd
       -0.032894697 -0.027339926 -0.028530741 -0.037761454
000180 a2 3c 53 bd 26 32 8f bd ee 5c b8 bd 54 a0 d2 bd
       -0.051571496 -0.06991987 -0.090021 -0.102844864
000190 49 fa d2 bd 41 56 b8 bd d3 1c 86 bd 72 82 2d bd
       -0.10301644 -0.090008266 -0.065484665 -0.04236073
0001a0 5d 4e 03 bd 89 d7 14 bd 9b f9 55 bd 4a a2 97 bd
       -0.032057155 -0.036338363 -0.052239995 -0.07404001
0001b0 0e 41 b7 bd f1 fa b0 bd b2 dc 8d bd 55 40 57 bd
       -0.08947955 -0.08641613 -0.0692686 -0.052551586
0001c0 be 6d 3f bd e0 f1 6a bd 57 48 a4 bd 01 10 dc bd
       -0.046735518 -0.057359576 -0.0802161 -0.1074524
0001d0 80 fa 03 be 10 0b 06 be 7e ea eb bd 4a a8 c8 bd
       -0.12888527 -0.13090158 -0.11519335 -0.097977236
0001e0 dc 68 6b be 40 ab 48 be 96 f8 2d be e4 d1 25 be
       -0.2298922 -0.19596577 -0.1698936 -0.16193348
0001f0 1e 6a 33 be 0e 37 5d be e9 f3 8b be 29 00 a8 be
       -0.17520949 -0.21603033 -0.27334526 -0.32812622
000200 74 a8 be be 0b 7f cd be c2 59 d5 be c4 c5 d8 be
       -0.37237895 -0.4013599 -0.41670042 -0.42338383
000210 a5 63 da be 64 89 da be 8f 13 d9 be da 01 d7 be
       -0.42654148 -0.42682946 -0.42397735 -0.419936
000220 ee 0d d7 be b9 ce dc be 70 b1 ea be 69 83 00 bf
       -0.42002815 -0.43126467 -0.458385 -0.50200516
000230 48 b9 0f bf 77 50 23 bf 9f c1 38 bf 96 bc 4c bf
       -0.5614209 -0.63794655 -0.7217044 -0.7997526
000240 82 71 5e bf 72 df 6e bf 71 ae 7e bf 34 27 87 bf
       -0.8689195 -0.933097 -0.99484926 -1.0558839
000250 b5 13 8e bf 2f 37 93 bf 95 6f 96 bf 75 71 98 bf
       -1.1099764 -1.1501216 -1.1752802 -1.1909624
000260 15 9a 99 bf 51 b3 99 bf 52 12 99 bf 4d ef 98 bf
       -1.2000147 -1.2007848 -1.1958716 -1.1948029
000270 2e 0b 9a bf a4 44 9c bf db 5b 9f bf 99 a6 a1 bf
       -1.2034662 -1.2208447 -1.2449907 -1.2628967
000280 70 8b a1 bf 37 51 9f bf b1 d0 9c bf 69 a6 9a bf
       -1.2620678 -1.244666 -1.2251188 -1.2082034
000290 8e e8 98 bf c4 44 98 bf 7f f5 98 bf d2 da 9a bf
       -1.194597 -1.1895986 -1.194992 -1.2098029
0002a0 e0 3c 9d bf 40 dd 9e bf d2 45 9f bf 4f 6e 9c bf
       -1.2284203 -1.241127 -1.2443182 -1.2221164
0002b0 87 2e 95 bf b8 3e 8b bf 29 d4 80 bf be 42 6d bf
       -1.1654824 -1.0878515 -1.0064746 -0.92679965
0002c0 a8 db 57 bf 14 51 44 bf 6c 4c 34 bf 38 6a 28 bf
       -0.84319544 -0.76686215 -0.7042911 -0.65787077
0002d0 03 4e 23 bf 87 8f 22 bf aa 98 21 bf b5 87 1e bf
       -0.6379091 -0.63500255 -0.6312357 -0.6192582
0002e0 74 a0 18 bf 00 6e 10 bf 1b 32 09 bf a9 92 03 bf
       -0.5961983 -0.56417847 -0.5359208 -0.5139566
0002f0 57 fa fe be bf ff fb be 1a 81 fb be ac a3 f5 be
       -0.4980037 -0.49218556 -0.49121934 -0.47976434
000300 48 48 e5 be 1e bf cd be a5 a7 b7 be 29 c0 a5 be
       -0.4478171 -0.40184873 -0.3587009 -0.3237317
000310 ee 8e 9c be 33 10 9e be 45 d1 a3 be 82 d0 aa be
       -0.30577797 -0.30871734 -0.31995597 -0.33362204
000320 d7 bb b6 be 80 ab ca be cf 58 e4 be da 5e ff be
       -0.35690185 -0.3958397 -0.44599006 -0.49877053
000330 eb d8 0a bf 75 2d 10 bf ab c0 0e bf 39 1c 06 bf
       -0.5423724 -0.5631936 -0.5576274 -0.52386814
000340 b6 de f3 be 4e 1d de be 8f 05 cc be bf 5b ba be
       -0.47630852 -0.43381733 -0.3984799 -0.36398122
000350 8f 44 a9 be 28 d5 9a be 44 5c 8f be 97 c0 88 be
       -0.3306012 -0.3024075 -0.2800008 -0.26709434
000360 22 00 89 be b2 5a 8f be 05 38 9a be 80 7b aa be
       -0.26757914 -0.27998883 -0.30120865 -0.33297348
000370 6d 31 bb be ef 7d c5 be 9e 36 c8 be 2f bd c6 be
       -0.36561146 -0.38572642 -0.3910417 -0.3881621
000380 62 d3 c0 be 7b e7 b4 be 60 3f a1 be 75 dd 83 be
       -0.37661272 -0.35332856 -0.31493664 -0.25754896
000390 cb 6a 41 be c7 ca f7 bd 99 ce 83 bd 96 ad 65 bc
       -0.18888395 -0.120992236 -0.0643589 -0.014018437
0003a0 18 23 24 3d 24 76 cc 3d 0c ca 22 3e b7 7a 48 3e
       0.04007253 0.09983471 0.15897387 0.19578062
0003b0 34 38 43 3e b4 94 20 3e 95 6a ed 3d 86 79 aa 3d
       0.19064409 0.15681726 0.115925945 0.0832396
0003c0 ea 13 33 3e b4 fe 2d 3e 84 8f 18 3e 28 c5 e2 3d
       0.17488065 0.16991693 0.14898497 0.11072761
0003d0 ad cd 78 3d 67 c0 1e 3c e6 3c 13 bd b3 d9 94 bd
       0.060743023 0.009689427 -0.03594675 -0.07268085
0003e0 78 7f c6 bd e5 15 df bd 70 22 ee bd 63 84 fe bd
       -0.096922815 -0.10892848 -0.11627662 -0.124275945
0003f0 1c 59 09 be 35 97 11 be cc 9d 10 be 65 73 fe bd
       -0.13412899 -0.14217837 -0.14122695 -0.124243535

transl (column-major) f4 [120, 3]
000000 ea 3e 0f bc 8e 66 cb bc 84 c5 39 bd 9f 46 8a bd
       -0.008743027 -0.024829175 -0.04535438 -0.06751751
000010 39 71 bc bd 3e 2e ef bd 75 ca 0d be b2 a6 1d be
       -0.09201283 -0.11678742 -0.13846762 -0.1539562
000020 de dc 26 be 9c b7 2b be 64 ce 2e be 14 a9 33 be
       -0.16295192 -0.1676926 -0.1707092 -0.17544967
000030 48 05 3d be b2 ea 4a be 61 4f 5d be 6a 94 73 be
       -0.18459046 -0.19816092 -0.21612312 -0.23787084
000040 61 7e 85 be d4 16 90 be b2 d3 98 be 83 2e a0 be
       -0.26072982 -0.28142416 -0.2984901 -0.31285486
000050 cc 94 a6 be 80 01 ac be bb 39 b0 be d7 f3 b2 be
       -0.32535398 -0.33594894 -0.34419045 -0.3495166
000060 7d b9 b4 be 0a 43 b6 be 13 d3 b7 be 7d 46 ba be
       -0.35297766 -0.35598022 -0.35903224 -0.36381903
000070 93 a3 bf be 29 98 c8 be 39 df d4 be 94 5d e5 be
       -0.37429485 -0.3917859 -0.41576555 -0.44797957
000080 6d 26 fb be f0 2a 0b bf a5 8f 1a bf 92 f9 29 bf
       -0.49052754 -0.5436239 -0.60375434 -0.6639644
000090 87 fc 37 bf ab c4 44 bf ab 32 51 bf 61 a6 5d bf
       -0.718697 -0.7686259 -0.8171794 -0.86582
0000a0 85 10 6a bf bb 52 76 bf 69 09 81 bf ce 8d 86 bf
       -0.91431457 -0.96219987 -1.0080997 -1.0512025
0000b0 dc dc 8b bf ad 4c 91 bf d7 22 97 bf ee 82 9d bf
       -1.0926776 -1.1351525 -1.1807507 -1.2305582
0000c0 11 75 a4 bf 04 fb ab bf 0f 17 b4 bf e4 77 bc bf
       -1.2848226 -1.3435979 -1.4069537 -1.4724088
0000d0 6c 6d c4 bf 1b 85 cb bf ba bb d1 bf 03 3c d7 bf
       -1.5345893 -1.5899996 -1.6385415 -1.6815189
0000e0 af 41 dc bf 3d e7 e0 bf c4 ed e4 bf d4 19 e8 bf
       -1.7207545 -1.7570568 -1.788506 -1.8132882
0000f0 08 85 ea bf 1b 74 ec bf a8 17 ee bf dc 77 ef bf
       -1.8321848 -1.8472933 -1.8600969 -1.8708453
000100 53 8e f0 bf ab 86 f1 bf cd 6a f2 bf 9d 1b f3 bf
       -1.8793434 -1.8869222 -1.8938843 -1.8992802
000110 30 94 f3 bf 33 d1 f3 bf 6a d1 f3 bf 63 ac f3 bf
       -1.9029598 -1.9048218 -1.9048283 -1.9036983
000120 10 95 f3 bf fd cf f3 bf d9 7b f4 bf e4 85 f5 bf
       -1.9029865 -1.9047848 -1.9100295 -1.9181485
000130 cb d0 f6 bf 60 44 f8 bf 60 cc f9 bf 59 75 fb bf
       -1.9282469 -1.9395866 -1.9515495 -1.9645187
000140 cb 84 fd bf fc 10 00 c0 54 9d 01 c0 d2 60 03 c0
       -1.980615 -2.0010366 -2.0252275 -2.0527844
000150 05 66 05 c0 a2 b3 07 c0 09 2d 0a c0 22 9f 0c c0
       -2.0843518 -2.120339 -2.1589987 -2.1972127
000160 63 de 0e c0 1b e8 10 c0 eb d5 12 c0 2a ae 14 c0
       -2.2323234 -2.2641666 -2.2943065 -2.3231301
000170 1e 5c 16 c0 ec de 17 c0 75 4b 19 c0 63 a8 1a c0
       -2.3493724 -2.372981 -2.3952305 -2.4165275
000180 4d fc 1b c0 59 3a 1d c0 02 42 1e c0 1a 01 1f c0
       -2.4372742 -2.4566863 -2.4727788 -2.4844422
000190 72 7c 1f c0 83 cb 1f c0 c2 06 20 c0 e3 4a 20 c0
       -2.4919705 -2.4967964 -2.5004125 -2.5045707
0001a0 ab b1 20 c0 1e 2a 21 c0 1b 77 21 c0 e6 5a 21 c0
       -2.510844 -2.5181956 -2.5228946 -2.521173
0001b0 c5 bb 20 c0 c4 a7 1f c0 62 4d 1e c0 fa e1 1c c0
       -2.5114605 -2.4946146 -2.473473 -2.4512925
0001c0 3b 7a 1b c0 9e 16 1a c0 12 bc 18 c0 bf 6a 17 c0
       -2.4293354 -2.4076304 -2.386479 -2.3658903
0001d0 c1 2b 16 c0 6a 02 15 c0 be e2 13 c0 3f 02 13 c0
       -2.3464205 -2.3282723 -2.3107142 -2.297012
0001e0 8b a0 74 3f f2 45 77 3f 87 d4 7a 3f aa bb 7d 3f
       0.9555747 0.96591103 0.9798054 0.9911448
0001f0 11 c0 7e 3f 56 d0 7c 3f d6 b4 77 3f ee 15 71 3f
       0.9951182 0.98755395 0.9676031 0.9417409
000200 51 ea 6a 3f 42 42 66 3f c0 33 63 3f a3 9a 61 3f
       0.9176379 0.8994485 0.8875084 0.8812658
000210 8e ea 61 3f 00 fc 64 3f 8c b0 6b 3f 6a 9e 76 3f
       0.8824853 0.8944702 0.92066264 0.9633547
000220 31 44 82 3f 61 21 89 3f 81 79 8e 3f 25 de 91 3f
       1.017706 1.0713311 1.113083 1.1395918
000230 fe ec 93 3f 97 74 95 3f da 81 96 3f db 7c 96 3f
       1.1556699 1.1676205 1.1758378 1.1756853
000240 25 de 94 3f b0 82 91 3f 41 57 8c 3f f5 3a 85 3f
       1.1630293 1.1368008 1.0964128 1.0408617
000250 72 c2 79 3f 63 c7 69 3f 39 64 5e 3f 52 b4 5a 3f
       0.97562325 0.91319865 0.8687168 0.85431397
000260 41 b2 5f 3f 71 8a 6b 3f 73 03 7a 3f 00 30 83 3f
       0.8738137 0.9200812 0.97661513 1.0249023
000270 71 48 86 3f 02 67 85 3f e8 fd 80 3f a3 9e 76 3f
       1.0490857 1.042206 1.0077486 0.9633581
000280 79 4b 70 3f 10 c0 73 3f 51 4b 7f 3f b3 ba 86 3f
       0.9386516 0.9521494 0.997243 1.0525726
000290 57 62 8c 3f 9f 28 8f 3f ff b8 8e 3f b9 25 8b 3f
       1.0967511 1.1184272 1.1150206 1.0870887
0002a0 5a f7 84 3f 2a b3 7a 3f d9 d2 6c 3f 68 e6 63 3f
       1.0387986 0.9792963 0.9250923 0.8902345
0002b0 3f f1 60 3f f5 e1 62 3f 96 c7 67 3f 00 94 6d 3f
       0.8786811 0.88626033 0.9053892 0.92803955
0002c0 1a 5b 72 3f 35 b3 74 3f 99 5f 74 3f 31 00 72 3f
       0.9467026 0.9558595 0.9545837 0.9453154
0002d0 d5 dd 6e 3f 33 75 6c 3f bd 23 6b 3f d1 31 6a 3f
       0.9330724 0.9236633 0.9185141 0.91482264
0002e0 88 0d 69 3f 61 5f 68 3f 37 61 69 3f a2 4b 6c 3f
       0.9103627 0.90770537 0.91163963 0.92302907
0002f0 4d 02 70 3f ee 0f 73 3f 4d 07 74 3f cb 14 72 3f
       0.9375351 0.9494618 0.9532364 0.9456298
000300 71 72 6d 3f d6 e0 67 3f 55 c3 64 3f f4 66 67 3f
       0.9275275 0.9057745 0.89360553 0.9039147
000310 f0 7d 70 3f 86 be 7d 3f 87 89 85 3f ab 22 8a 3f
       0.93942165 0.9911884 1.0432595 1.079183
000320 c7 6e 8b 3f 37 4c 89 3f 26 3f 84 3f 0e 8c 7a 3f
       1.0893182 1.0726384 1.0331771 0.97869956
000330 70 63 6c 3f 96 15 62 3f 81 4d 5e 3f e4 f3 61 3f
       0.9233923 0.8831419 0.8683701 0.8826277
000340 38 96 6b 3f ad 5a 78 3f df 7d 82 3f 1d 2a 87 3f
       0.9202609 0.9701336 1.0194663 1.0559727
000350 a0 38 89 3f 74 51 88 3f 47 bd 84 3f fb d1 7e 3f
       1.0720406 1.0649858 1.0370263 0.99539155
000360 77 25 73 3f 70 ec 68 3f 4b 7f 62 3f 5b 3e 60 3f
       0.9497904 0.90985775 0.88475484 0.87595147
000370 81 fb 61 3f 8e 26 67 3f 7f be 6d 3f 57 37 73 3f
       0.8827439 0.90293205 0.928688 0.95006317
000380 8c 74 75 3f 1b 9c 73 3f 07 f5 6e 3f 5a 5c 6a 3f
       0.9588096 0.95160073 0.9334263 0.9154717
000390 1e 7a 68 3f 5b 8f 6a 3f 61 3e 70 3f d6 f6 76 3f
       0.90811336 0.91624993 0.9384518 0.9647039
0003a0 55 05 7b 3f 05 79 79 3f ee 73 72 3f 07 62 6a 3f
       0.9805501 0.97450286 0.94708145 0.9155583
0003b0 77 a3 66 3f 2f 42 69 3f 3d 20 70 3f 56 3d 76 3f
       0.9009318 0.91116613 0.9379919 0.9618734
0003c0 99 89 e2 3b 5b a1 a5 3c c6 b6 20 3d 6b 2e 81 3d
       0.0069133756 0.020218542 0.039236806 0.06307682
0003d0 93 8d bb 3d 74 e1 fa 3d a5 77 1e 3e 81 1d 40 3e
       0.091578625 0.12250033 0.15475328 0.18761255
0003e0 f6 d9 60 3e 58 22 80 3e 6e 92 8f 3e c8 b8 9e 3e
       0.21958145 0.25026202 0.28041404 0.31000352
0003f0 18 82 ad 3e 36 4f bc 3e c9 fa ca 3e ba 40 d8 3e
       0.33888316 0.36779183 0.3964446 0.42236882
