to_fbx/motiondiffuse_np_original_result/zigzagpattern_motiondiffuse_smpl_3Dparams.npz (npz, 36516 bytes, 2 tensors)

body_pose (column-major) f4 [120, 72]
000000 66 25 36 bd 9a 68 2f bd 65 b1 25 bd 5d c7 1a bd
       -0.04446926 -0.042824365 -0.04045238 -0.037787784
000010 10 cb 0f bd bf 55 06 bd c1 cd fc bc 31 07 f1 bc
       -0.035105765 -0.032796618 -0.03085983 -0.029422374
000020 44 0f e8 bc da 6e e1 bc 16 ff dc bc ad 0e d4 bc
       -0.028327592 -0.027518678 -0.026977103 -0.025885904
000030 ab 6f c5 bc c7 ca b5 bc b1 11 a7 bc fe 17 9a bc
       -0.024101099 -0.022191418 -0.020394178 -0.018810268
000040 82 94 8b bc 93 aa 27 bd 57 47 1a bd 31 cc 0e bd
       -0.017038587 -0.040934157 -0.03766569 -0.0348627
000050 b7 09 08 bd 69 02 05 bd fa 61 01 bd dc a7 f0 bc
       -0.03321239 -0.032473 -0.03158758 -0.029376917
000060 45 0c c8 bc e4 ef c7 bc dd 57 5d bc 75 82 8b 3a
       -0.024419913 -0.024406381 -0.013509718 0.0010643738
000070 5f d9 9f 3c e1 a3 1c 3d 5e 71 5b 3d 88 f8 82 3d
       0.01951283 0.038242225 0.053574912 0.0639506
000080 e5 b2 8c 3d d0 fb 8d 3d 20 6b 8c 3d 23 ab 87 3d
       0.06870059 0.06932795 0.0685637 0.066244386
000090 d5 34 7e 3d f3 56 8c 3d cf 41 40 3d 2d f4 36 3d
       0.062062103 0.06852522 0.04693776 0.044666458
0000a0 b5 f6 ff 3c 08 b5 7a 3c ed 44 d0 ba 81 19 81 bc
       0.031245569 0.01530195 -0.0015889682 -0.015759232
0000b0 b5 5d c9 bc c3 35 95 bc 07 3b e6 bb 70 ea a8 bb
       -0.024580816 -0.018214112 -0.0070260796 -0.0051549003
0000c0 32 bb 4d 3b ef c5 d4 3b cd b3 b8 3b 31 e6 1a 3b
       0.0031392095 0.006493322 0.0056366683 0.002363574
0000d0 04 da ff ba cc 90 c2 bb 8a 5d 07 bc 54 e3 04 bc
       -0.001951993 -0.0059376713 -0.008262048 -0.00811084
0000e0 14 9b 93 bb e2 87 16 3b a5 71 2b 3c a8 fb 92 3c
       -0.0045045707 0.0022969176 0.010464107 0.017942265
0000f0 e8 58 bb 3c 95 96 cb 3c 8f a3 d3 3c 35 79 e8 3c
       0.022869542 0.024852077 0.025834827 0.028378109
000100 ce 66 0a 3d 84 48 32 3d 52 30 52 3d b4 42 79 3d
       0.03378945 0.043526188 0.051315613 0.06085463
000110 95 e1 83 3d 0f a9 85 3d e6 02 80 3d 22 84 6c 3d
       0.06439511 0.06526386 0.06250553 0.0577432
000120 12 26 57 3d c3 63 46 3d d9 7c 41 3d d1 7e 52 3d
       0.05252654 0.048434984 0.047238205 0.051390473
000130 b6 19 33 3d cb 6e 75 3d 56 c0 99 3d 65 4f a7 3d
       0.04372569 0.059920114 0.07507388 0.0816944
000140 98 9e 9d 3d e6 3f 80 3d 90 8d 35 3d cc 23 eb 3c
       0.07696265 0.06262188 0.044324458 0.028703593
000150 f5 4d b1 3c 5e a3 ca 3c b8 26 1c 3d 2c 6b 71 3d
       0.021643618 0.024736103 0.038122863 0.058940098
000160 94 72 9e 3d ad 70 ae 3d fd b3 a5 3d e0 4a 86 3d
       0.07736698 0.08517585 0.08090971 0.0655725
000170 63 af 3a 3d 87 80 e4 3c 85 97 6e 3c c9 c1 24 3b
       0.045577418 0.027893318 0.014562492 0.002513992
000180 a7 80 b7 bb 4b 19 00 bb c0 5c 2c 3c 69 f6 b0 3c
       -0.0056000534 -0.0019546326 0.01052016 0.021601873
000190 48 23 be 3c 06 c1 70 3c 3d 8b 9f 3b f8 44 21 3b
       0.023210183 0.014694458 0.0048688934 0.002460776
0001a0 31 79 12 3c da db 17 3c 1f 4e a0 bb c1 44 ca bc
       0.008940027 0.009268725 -0.0048921253 -0.024690988
0001b0 ff 6a 34 bd ec c2 76 bd b5 17 95 bd b6 fc a2 bd
       -0.044047352 -0.060244486 -0.072799124 -0.07958357
0001c0 f9 4b a0 bd f1 70 95 bd 65 cc 85 bd ad 4f 57 bd
       -0.07826991 -0.072969325 -0.06533126 -0.05256622
0001d0 67 18 18 bd d2 9d dc bc 28 78 d3 bc 12 bf e6 bc
       -0.037132647 -0.026930723 -0.02581413 -0.028167281
0001e0 d1 c1 2a be 27 9e 2d be 66 2d 30 be 2b f9 32 be
       -0.16675498 -0.16954862 -0.17204818 -0.17477863
0001f0 d9 9b 36 be 2c 34 3a be 6f 9f 3d be 85 32 41 be
       -0.17832889 -0.18183964 -0.1851785 -0.18866928
000200 af ef 44 be 5f b2 48 be b0 7a 4c be 37 c4 50 be
       -0.19232057 -0.19599293 -0.19968677 -0.2038735
000210 61 9e 55 be 5b 87 5a be e3 55 5e be 0e 13 60 be
       -0.20861198 -0.21340697 -0.2171245 -0.21882269
000220 e9 bd 5e be 3f 7a 3c be d4 4a 2d be 80 90 15 be
       -0.21752132 -0.18406008 -0.16923076 -0.14605904
000230 ce 32 ea bd 6f 9f 9e bd a7 57 2c bd 7f f5 62 bc
       -0.114354715 -0.07745253 -0.04207578 -0.013852476
000240 b2 82 00 3c b1 81 48 3b 73 19 72 3c bc f3 89 3c
       0.00784366 0.003059488 0.014776575 0.016839854
000250 bc 06 bf 3b 3a 4f 68 bc ce 9c 15 bd 68 c4 5e bd
       0.00582966 -0.014179045 -0.036526494 -0.054386526
000260 f8 79 82 bd 47 d6 86 bd 13 dc 8c bd 33 88 9f bd
       -0.0637092 -0.06583839 -0.06877913 -0.0778965
000270 ac 4b c0 bd 03 a2 c7 bd fa 13 20 be cc 26 43 be
       -0.09389433 -0.09747698 -0.1563262 -0.19057769
000280 ed a8 72 be c0 7b 8e be b4 a6 a3 be 2f f2 bb be
       -0.23697253 -0.2782879 -0.31963122 -0.3670821
000290 0d 54 e1 be ae 09 fa be 7b ad 07 bf 18 c2 0a bf
       -0.44009438 -0.4883551 -0.52999085 -0.54202414
0002a0 dc 27 10 bf 96 4e 13 bf 24 6f 15 bf 2d 9f 17 bf
       -0.5631082 -0.5754179 -0.5837271 -0.5922726
0002b0 b1 4f 1a bf f0 40 1d bf 17 6e 20 bf fd 8d 24 bf
       -0.6027785 -0.6142721 -0.62667984 -0.64279157
0002c0 84 4a 2a bf 84 cc 31 bf fc 93 3a bf f9 3a 43 bf
       -0.6651995 -0.6945269 -0.72882056 -0.7626186
0002d0 ad 05 4b bf 69 4c 52 bf 91 58 59 bf 77 78 60 bf
       -0.79305536 -0.8214784 -0.84900767 -0.87683815
0002e0 66 ea 67 bf d5 ce 6f bf f7 4f 7a bf a7 5f 80 bf
       -0.9059204 -0.93674976 -0.97778267 -1.0029191
0002f0 82 40 84 bf f8 e3 87 bf f5 a0 8b bf 32 ec 8f bf
       -1.0332186 -1.0616446 -1.0908495 -1.1243956
000300 13 2c 95 bf 73 2b 9b bf 7f 52 a1 bf 0f f8 a6 bf
       -1.1654075 -1.2122635 -1.2603301 -1.3044451
000310 61 c3 b0 bf f9 9e b5 bf c2 6c b9 bf b3 1d bc bf
       -1.3809625 -1.418914 -1.4486315 -1.4696563
000320 a9 73 bd bf 7e 68 bd bf 6e 4c bd bf 87 47 be bf
       -1.4800922 -1.4797513 -1.478895 -1.4865578
000330 6a ce bf bf b0 ad c0 bf 84 7e c0 bf d8 93 bf bf
       -1.4984868 -1.5053005 -1.503861 -1.4966993
000340 15 f8 bd bf dc dd bc bf c6 dc bd bf 6c df c1 bf
       -1.4841334 -1.4755206 -1.4833 -1.5146308
000350 a5 b0 c7 bf 34 59 cd bf 6c b1 d2 bf 13 be d7 bf
       -1.5600783 -1.6042848 -1.6460395 -1.6854881
000360 ab 35 db bf 84 35 dc bf ff c9 da bf bf db d7 bf
       -1.7125753 -1.7203832 -1.7092894 -1.6863936
000370 2f 21 d5 bf 79 34 d3 bf 2b 38 d1 bf 8d bc ce bf
       -1.6650752 -1.6500388 -1.6345266 -1.6151291
000380 b9 31 cd bf 88 27 cd bf 0c bd ce bf 89 00 d2 bf
       -1.6030799 -1.6027689 -1.6151443 -1.6406413
000390 7f 46 d5 bf 32 18 d7 bf 1b 9f d6 bf c3 0e d3 bf
       -1.6662139 -1.6804259 -1.6767305 -1.648888
0003a0 f9 7b ce bf 29 7d cb bf cc ef c9 bf 52 0d c8 bf
       -1.6131583 -1.5897571 -1.5776305 -1.5629065
0003b0 b2 93 c5 bf d4 e5 c2 bf ec 45 c0 bf d4 52 be bf
       -1.5435698 -1.5226388 -1.5021338 -1.4869027
0003c0 91 4b 96 bc c4 6a 95 bc 92 f1 95 bc 50 fe 98 bc
       -0.01834658 -0.018239386 -0.018303666 -0.018675953
0003d0 71 3a 9d bc 92 38 a2 bc 70 5b a8 bc b8 7c b0 bc
       -0.019192906 -0.019802365 -0.020551413 -0.021543846
0003e0 e8 14 ba bc 89 0d c2 bc da b6 c6 bc a9 b9 c9 bc
       -0.022715047 -0.023688095 -0.024257112 -0.024624662
0003f0 32 39 cc bc 71 7b d0 bc 74 ec d9 bc 39 d1 e7 bc
       -0.024929617 -0.025449486 -0.026602007 -0.028298007

transl (column-major) f4 [120, 3]
000000 59 c8 89 38 d4 d4 67 39 ea dd 03 3a e9 2e 81 3a
       6.569987e-05 0.00022109161 0.0005030321 0.0009855899
000010 b7 7f eb 3a 58 68 41 3b a9 59 91 3b b0 5d cc 3b
       0.0017967139 0.0029511657 0.004435737 0.0062367544
000020 e6 64 07 3c ed 1b 29 3c 36 1e 48 3c 3a a4 63 3c
       0.008263802 0.010321599 0.012214234 0.013894135
000030 38 de 7b 3c 63 f7 88 3c 97 a4 93 3c d0 71 9f 3c
       0.015372805 0.016719526 0.018022818 0.01946345
000040 63 1a b1 3c 83 ac d1 3c 3b 2a 05 3d c2 62 2f 3d
       0.021619027 0.025594955 0.032510977 0.042818792
000050 42 c4 67 3d cf e8 96 3d b5 15 c0 3d 63 16 ee 3d
       0.05658365 0.073686235 0.0937914 0.11625364
000060 66 09 10 3e 95 28 2b 3e 0e b7 48 3e 6a 43 69 3e
       0.14066085 0.167147 0.1960108 0.22779623
000070 e3 99 86 3e 18 40 9a 3e 0a c8 af 3e f2 5b c7 3e
       0.2628928 0.30127025 0.34332305 0.38937336
000080 ef 13 e0 3e 51 20 f8 3e e8 04 07 3f 33 92 10 3f
       0.43765208 0.48462155 0.5274186 0.5647308
000090 a9 be 18 3f 62 a1 1f 3f ec 3d 25 3f de aa 29 3f
       0.59665924 0.62355626 0.6454761 0.6627635
0000a0 af 2f 2d 3f 4d 2a 30 3f db fc 32 3f 56 bc 35 3f
       0.67650884 0.68814546 0.69917077 0.709905
0000b0 45 3d 38 3f 0d 72 3a 3f 4d 70 3c 3f 9f 50 3e 3f
       0.7196849 0.7283028 0.7360886 0.7434177
0000c0 af 01 40 3f 8e 61 41 3f 98 76 42 3f 88 5e 43 3f
       0.7500257 0.7553948 0.7596221 0.7631612
0000d0 26 25 44 3f e9 af 44 3f 74 ce 44 3f ca 4c 44 3f
       0.76619184 0.7683092 0.7687752 0.7667967
0000e0 4b 18 43 3f cd 3f 41 3f 18 a9 3e 3f b9 30 3b 3f
       0.76208943 0.7548798 0.74476767 0.7312122
0000f0 09 dc 36 3f df db 31 3f 89 92 2c 3f 17 58 27 3f
       0.71429497 0.6947612 0.67411095 0.6536879
000100 31 2b 22 3f 48 f3 1c 3f 26 b3 17 3f 76 43 12 3f
       0.63347155 0.6130872 0.59257734 0.5713419
000110 7e 77 0c 3f b9 2f 06 3f 43 9f fe 3e ab bd ef 3e
       0.5486983 0.5241657 0.49730882 0.46824393
000120 17 e0 df 3e 5b e9 ce 3e ee d4 bc 3e 56 9c a9 3e
       0.43725654 0.4041241 0.36881202 0.33127087
000130 19 a3 94 3e 30 cb 79 3e b2 42 43 3e 62 4e 05 3e
       0.29030684 0.24393916 0.19068411 0.13018182
000140 dc b0 85 3d 81 c4 e6 3a d1 13 6d bd ef e4 ec bd
       0.06527874 0.001760617 -0.057880227 -0.11567103
000150 49 28 33 be a8 c0 74 be 91 b8 9e be f0 14 c7 be
       -0.17495836 -0.23901618 -0.31000188 -0.38883162
000160 2c 55 f3 be 94 59 11 bf f9 de 29 bf 16 22 42 bf
       -0.47525918 -0.5677731 -0.66355854 -0.7583326
000170 30 18 59 bf 75 49 6e bf 05 ee 80 bf 57 71 8a bf
       -0.8480253 -0.93080837 -1.0072638 -1.0815839
000180 b1 75 94 bf f5 77 9f bf 39 33 ab bf b3 09 b7 bf
       -1.1598417 -1.2458483 -1.3375007 -1.4299835
000190 37 a2 c2 bf 8c ac cd bf f8 ff d7 bf d9 14 e2 bf
       -1.5205754 -1.6068282 -1.687499 -1.7662612
0001a0 94 8e ec bf 7e a0 f7 bf 08 7a 01 c0 9f fd 06 c0
       -1.8481011 -1.9345853 -2.0230732 -2.1092298
0001b0 32 24 0c c0 d1 e6 10 c0 01 7b 15 c0 67 0e 1a c0
       -2.1897092 -2.264088 -2.3356326 -2.407129
0001c0 19 97 1e c0 70 eb 22 c0 0b c1 26 c0 a0 f5 29 c0
       -2.4779723 -2.54562 -2.6055324 -2.6556168
0001d0 91 ce 2c c0 95 9c 2f c0 27 4f 32 c0 74 50 34 c0
       -2.7001078 -2.743932 -2.786081 -2.8174105
0001e0 13 73 75 3f ed 7b 75 3f ce 8c 75 3f 85 a2 75 3f
       0.95878714 0.9589222 0.95917976 0.9595111
0001f0 a4 ba 75 3f 9d d2 75 3f d5 e3 75 3f 86 e8 75 3f
       0.95987916 0.96024495 0.9605077 0.9605793
000200 e2 e1 75 3f 9f d8 75 3f b5 cf 75 3f c8 be 75 3f
       0.96047795 0.9603366 0.9602006 0.95994234
000210 8c a3 75 3f dc 7d 75 3f 62 49 75 3f 5a 12 75 3f
       0.9595268 0.9589517 0.958151 0.9573113
000220 a8 ec 74 3f 53 d4 74 3f c9 a1 74 3f ba 26 74 3f
       0.9567361 0.9563648 0.95559365 0.9537159
000230 0c 23 73 3f dd 75 71 3f 4b 56 6f 3f 88 3d 6d 3f
       0.9497535 0.9432047 0.9349105 0.92672014
000240 d3 a9 6b 3f 05 d3 6a 3f a1 aa 6a 3f 6c ed 6a 3f
       0.92056006 0.9172824 0.9166661 0.9176853
000250 84 5d 6b 3f 82 fb 6b 3f 53 a5 6c 3f 3f 0f 6d 3f
       0.9193957 0.92180645 0.92439765 0.9260139
000260 c1 2b 6d 3f fd 27 6d 3f 89 76 6d 3f 64 58 6e 3f
       0.9264489 0.9263914 0.92758995 0.93103623
000270 a6 bb 6f 3f f8 8f 71 3f 11 72 73 3f 7a d8 74 3f
       0.93645704 0.94360304 0.95095927 0.9564282
000280 2e 4a 75 3f 23 99 74 3f 56 32 73 3f ef 14 72 3f
       0.95816314 0.9554617 0.9499868 0.9456319
000290 2a e4 71 3f 7f 96 72 3f 7a ab 73 3f 6d b1 74 3f
       0.94488776 0.9476089 0.9518353 0.9558323
0002a0 aa 7f 75 3f e4 00 76 3f d3 22 76 3f be f1 75 3f
       0.95897925 0.9609511 0.9614689 0.96071994
0002b0 38 91 75 3f 19 12 75 3f 3e 88 74 3f 68 13 74 3f
       0.9592471 0.9573074 0.9552039 0.9534211
0002c0 2d cc 73 3f 80 b4 73 3f 95 b1 73 3f 7a a8 73 3f
       0.9523342 0.95197296 0.95192844 0.9517895
0002d0 1e 80 73 3f 1f 39 73 3f 4d 0e 73 3f fb 55 73 3f
       0.95117366 0.95009035 0.94943696 0.9505307
0002e0 e4 53 74 3f 4e cd 75 3f ae 1e 77 3f 7d 92 77 3f
       0.95440507 0.96016395 0.9653119 0.967079
0002f0 cf c8 76 3f 2b 06 75 3f 63 a2 72 3f 76 cb 6f 3f
       0.9640016 0.95712537 0.9477903 0.9366983
000300 2d dd 6c 3f eb 56 6a 3f 01 96 68 3f 5b b6 67 3f
       0.9252499 0.91538876 0.9085389 0.9051263
000310 e9 af 67 3f 44 3a 68 3f 00 9c 68 3f 8c f5 67 3f
       0.9050279 0.90713906 0.9086304 0.9060905
000320 65 70 65 3f 93 2d 61 3f 7f 9f 5c 3f e1 55 59 3f
       0.89624625 0.87960166 0.8618087 0.84896666
000330 d3 44 58 3f fb aa 59 3f 17 30 5d 3f cb e7 61 3f
       0.8448002 0.8502652 0.86401504 0.88244313
000340 fd 56 66 3f 4c fa 68 3f d0 c5 68 3f 44 d6 65 3f
       0.89976484 0.9100692 0.9092684 0.8978007
000350 9a 62 61 3f a7 2c 5d 3f 10 26 5b 3f 19 9e 5c 3f
       0.8804108 0.8639626 0.85604954 0.8617874
000360 b5 b2 61 3f df 08 69 3f 35 8c 6f 3f c0 fe 71 3f
       0.8816331 0.9102916 0.93573314 0.9452934
000370 50 71 6f 3f 98 42 6a 3f c6 93 66 3f 90 c2 66 3f
       0.93532276 0.91507864 0.90069234 0.9014063
000380 fd 1e 6a 3f 72 f9 6d 3f a2 67 6f 3f 7e 36 6d 3f
       0.91453534 0.9295875 0.93517506 0.92661273
000390 46 0f 69 3f 46 5d 66 3f 04 2d 67 3f 37 b4 6a 3f
       0.9103893 0.89986074 0.90303063 0.91681236
0003a0 ce e5 6d 3f 0d c9 6d 3f 01 d4 6a 3f 4a 65 68 3f
       0.9292878 0.92884904 0.9172974 0.90779555
0003b0 46 d2 68 3f a3 3b 6b 3f 0e 89 6d 3f 83 c3 6e 3f
       0.9094585 0.91887873 0.92787254 0.9326708
0003c0 ae 4a b0 b8 10 d5 33 b9 05 3f 07 b9 90 ba 64 38
       -8.406244e-05 -0.00017150142 -0.0001289808 5.4533186e-05
0003d0 9c 2e 80 39 6c 45 fb 39 49 f1 66 3a d7 33 b6 3a
       0.0002444879 0.00047926174 0.0008809758 0.0013900948
0003e0 b2 a2 00 3b 26 22 37 3b 16 0c 8a 3b fb bc d0 3b
       0.0019628224 0.0027943938 0.0042128665 0.0063701845
0003f0 47 7e 18 3c 26 39 54 3c 40 8d 8c 3c e1 67 b3 3c
       0.009307451 0.012953078 0.017157197 0.02190012
